checkpoint_decoder/check_point_2021_10_10_03:57:50/check_point_2021_10_10_03:57:50_epoch_20.pth (torch, 452917 bytes, 20 tensors)

conv1.weight f4 [64, 32, 3, 3]
0	0x3d046283	0.03232051
1	0xbd4f1ee1	-0.050566558
2	0xbc44602d	-0.011985821
3	0x3e0d3391	0.13789202
4	0xbb963118	-0.004583489
5	0x3ae0473a	0.0017111071
6	0xbcf8c18d	-0.03036573
7	0x3d40de04	0.04708673
8	0x3cf62334	0.030046083
9	0xbd9601e5	-0.0732458
10	0xbc8598db	-0.016308239
11	0x3dd1ae6c	0.102383465
12	0x3d78990f	0.060692843
13	0x3d9af3e9	0.075660534
14	0x3d853ae4	0.06505373
15	0xbd88eba2	-0.066855684
16	0x3c3f0f58	0.011661373
17	0xbdd149cf	-0.10219156
18	0x3c254e31	0.010089443
19	0xbc8d6e76	-0.017264586
20	0xbc9c4f18	-0.019080684
21	0xbd107322	-0.03526605
22	0x3d36d89e	0.044640176
23	0x3d18f678	0.037344426
24	0x3d8a6292	0.06757082
25	0xbd063325	-0.03276362
26	0xbc9bfb9a	-0.019040871
27	0x3d9348e6	0.07191639
28	0x3d806849	0.06269891
29	0xbc5f69ea	-0.013636092
30	0xbbebc2f0	-0.007194869
31	0xbcff0deb	-0.031134566
32	0x3c9d8d3a	0.019232381
33	0xbc4e30c5	-0.01258487
34	0xbbea5121	-0.0071507846
35	0x3cdb917f	0.026802776
36	0xb959b00f	-0.0002076032
37	0xbca5eaef	-0.020253627
38	0x3d053613	0.032522272
39	0x3ab6c688	0.0013944665
40	0xbd98246d	-0.07428823
41	0xbc619f4f	-0.013770892
42	0x3bd1c2b1	0.006401383
43	0x3cb4e262	0.022080604
44	0xbcae5edb	-0.021285465
45	0x3d3eaf77	0.046554055
46	0x3d02963c	0.031881556
47	0x3dd74d97	0.10512846
48	0x396e5afe	0.00022731346
49	0xbd4810d8	-0.04884419
50	0x3e871206	0.26380938
51	0xbe32f313	-0.17475538
52	0xbd8d56b7	-0.06901305
53	0x3c3cfc0a	0.0115347
54	0x3da85359	0.08219022
55	0xbd3cd746	-0.04610374
56	0xbd8696d2	-0.065717354
57	0xbd800467	-0.0625084
58	0x3d22ca1d	0.03974353
59	0x3cbf5620	0.023356497
60	0xbd8c0b26	-0.06838064
61	0xbd13c8d1	-0.036080185
62	0x3d1f9d63	0.038968455
63	0xbd7a2f5d	-0.061080325
64	0x3cdcd1ad	0.02695545
65	0x3c91de18	0.017806098
66	0x3c310f56	0.010806879
67	0x3cba4998	0.02274017
68	0x3d83a584	0.06428054
69	0xbd37967e	-0.044821255
70	0x3d33804b	0.04382352
71	0x3d1d0cc7	0.038342264
72	0xbde4d631	-0.11173666
73	0x3ce362dd	0.027757103
74	0x3c00b1a9	0.0078548575
75	0x3d4a3d07	0.049374606
76	0xbd315137	-0.043290343
77	0xbcc5f7db	-0.024166038
78	0xbc9214fd	-0.017832274
79	0x3ce67899	0.028133677
80	0x3cd81a1e	0.026379641
81	0x3b5e7bf2	0.003394839
82	0xbdb33198	-0.08749694
83	0xbb66b8d1	-0.0035205374
84	0x3c8a5297	0.016885085
85	0xbb02a778	-0.0019936245
86	0xba88ec7b	-0.0010446453
87	0xbcd1ec2c	-0.02562531
88	0x3d391c71	0.04519314
89	0x3d2aa320	0.041659474
90	0x3e13e271	0.1444185
91	0xbd318bb1	-0.04334611
92	0x3cdaf8d1	0.026729973
93	0x3e20dc81	0.15709116
94	0xbb4a0c4c	-0.0030830083
95	0x3e07bb01	0.1325493
96	0x3ae92140	0.0017786399
97	0x3e0cfd8a	0.13768592
98	0x3e0fb5d8	0.14034212
99	0x3d18246d	0.037144113
100	0x3ccb4dc3	0.024817353
101	0x3d88e049	0.06683404
102	0xbcbc8b64	-0.023015685
103	0xbc1d1526	-0.009587562
104	0xbceaabfc	-0.028646462
105	0xbd14ef01	-0.036360744
106	0x3d664286	0.056215785
107	0xbddf5bb7	-0.10906165
108	0xbcc9d1ce	-0.024636175
109	0x3ca84293	0.020539558
110	0xbc4204e4	-0.011841986
111	0x3c4ec5fc	0.012620445
112	0xbc444a84	-0.011980657
113	0x3d13f1b9	0.036119197
114	0x3d500e8a	0.050795116
115	0xbd4600fe	-0.04834079
116	0x3d2dc68a	0.04242567
117	0x3d1289a4	0.035775796
118	0xbd45bb60	-0.048274398
119	0xbcfd1ad0	-0.030896574
120	0xbc04012d	-0.008056921
121	0x3d7e5091	0.062088553
122	0xbd08a29a	-0.033358194
123	0xbbbcdd80	-0.0057637095
124	0x3cf748f4	0.030186154
125	0xbd2864d2	-0.041111775
126	0x3d8893e5	0.06668834
127	0x3e0f7757	0.14010368
128	0x3e394e74	0.18096334
129	0x39a9274f	0.0003226348
130	0xbc8cf5b1	-0.017206999
131	0xbd88aa2d	-0.066730835
132	0xbe3f8410	-0.18702722
133	0x3cde9f70	0.027175635
134	0xbe0e4228	-0.13892424
135	0xbd596e0d	-0.05308347
136	0xbd359d4a	-0.044339456
137	0x3d8e891d	0.06959746
138	0xbdb25e8e	-0.08709441
139	0x3ca8a428	0.020586088
140	0xbc7e2faf	-0.015514298
141	0xbd55f788	-0.052238017
142	0xbd2f756a	-0.042836584
143	0xbd9141ba	-0.070926145
144	0xbd67032c	-0.05639951
145	0xbd6e7bf2	-0.058223672
146	0xbb809982	-0.0039245496
147	0xbdab2662	-0.0835693
148	0x3d0521e0	0.03250301
149	0xbd52dd13	-0.051480364
150	0xbe30616e	-0.17224666
151	0xbc9de001	-0.019271852
152	0x3c2d06e4	0.010560725
153	0x3c3a1968	0.011358596
154	0x3d4e53cb	0.05037288
155	0xbcfb7eb9	-0.030700075
156	0xbc5615e5	-0.0130667435
157	0xbd4b19b0	-0.049585044
158	0x3da12c64	0.07869795
159	0xbd3d9109	-0.046280894
160	0xbcda1c98	-0.026624963
161	0x3d71f518	0.05907163
162	0xbb416a54	-0.002951284
163	0x3ddc55a1	0.1075852
164	0x3e381e64	0.17980343
165	0x3d1dbc96	0.038509928
166	0xbd41c8af	-0.047310527
167	0x3dcc0e7c	0.099637
168	0xbe0f74e8	-0.1400944
169	0x3de406bb	0.11134096
170	0xbdc57308	-0.09641081
171	0x3d6ec02a	0.05828873
172	0xbd89dd13	-0.0673162
173	0xbd006a1a	-0.031351186
174	0xbac1ecfe	-0.0014795361
175	0x3daed75f	0.085371725
176	0xba664df0	-0.00087854173
177	0x3bee9af7	0.007281657
178	0x3b6ac135	0.0035820727
179	0x3d5cc570	0.05389923
180	0xbc1e41f0	-0.009659275
181	0xbc9ee428	-0.019395903
182	0xbcb5d996	-0.02219848
183	0x3c40ec2a	0.011775056
184	0xbd69cfb5	-0.05708285
185	0xbc334d78	-0.010943763
186	0xbcbe6922	-0.02324349
187	0x3cdb01a7	0.026734186
188	0x3d22accd	0.039715577
189	0xbd37eb37	-0.044902053
190	0xbd4e0d04	-0.05030538
191	0x3c6c41ac	0.014419954
192	0xbd70c004	-0.05877687
193	0x3d00bd0c	0.03143029
194	0xbd2c8461	-0.042118434
195	0xbc6bc2a1	-0.014389665
196	0x3a5f04bf	0.0008507482
197	0xbc707344	-0.014675919
198	0xbcfe14f6	-0.031015854
199	0xbc9bc6ec	-0.019015752
200	0x3d9c748b	0.07639416
201	0xbe11d7ad	-0.1424243
202	0x3e6c66e7	0.23086129
203	0x3ca73ac1	0.020413758
204	0xbde93030	-0.11386144
205	0xbadcbd26	-0.0016841039
206	0x3d29dec9	0.04147223
207	0xbc5e53a5	-0.013569747
208	0x3d9979e2	0.074939504
209	0xbcc61999	-0.024182128
210	0xbd256442	-0.040378816
211	0x3b788926	0.0037923544
212	0x3bdae182	0.0066797147
213	0xbc4f8620	-0.012666255
214	0x3b3803e1	0.0028078484
215	0x3d05573b	0.032553893
216	0xbe21e8dd	-0.15811487
217	0xbdf948f5	-0.121721186
218	0xbe8be289	-0.2732127
219	0x3be4a8fd	0.006978153
220	0x3a70c8fc	0.00091852224
221	0xbcad05cc	-0.021120928
222	0x3e03d105	0.12872703
223	0x3cd10725	0.025516102
224	0x3d4729ae	0.048623733
225	0x3d08c672	0.033392377
226	0xbb0534d8	-0.0020325687
227	0xbd37d60c	-0.044881865
228	0x3d64ca82	0.05585719
229	0x3da9f47b	0.08298584
230	0xbc897f67	-0.016784383
231	0x3c624447	0.013810224
232	0xba812f15	-0.000985595
233	0x3ceed833	0.029155826
234	0xbda990c9	-0.08279569
235	0x3da9051b	0.08252927
236	0xbd6cb22f	-0.057787117
237	0xbcb44d88	-0.022009626
238	0x3dd9a195	0.106265225
239	0x3cf7f720	0.030269206
240	0x3d4d9644	0.050192133
241	0xbdb33743	-0.08750775
242	0xbd4e95ea	-0.050435938
243	0x3dc4be55	0.096066155
244	0xbcfcdcd1	-0.030867012
245	0x3def70ac	0.11691412
246	0x3be64ed0	0.007028438
247	0x3cc8b83f	0.024501918
248	0x3e2f57cc	0.17123336
249	0xbc828688	-0.01593329
250	0xbc86d1e6	-0.01645751
251	0xbca94d7d	-0.020666832
252	0x3dc8d13a	0.09805532
253	0x3db6392f	0.08897626
254	0xbe6fcf06	-0.23418817
255	0xbe849741	-0.25896648

conv1.bias f4 [64]
0	0xbcfeb961	-0.031094255
1	0x3d328400	0.043582916
2	0xbddbda83	-0.10735037
3	0xbd5355a2	-0.051595338
4	0x3daa8906	0.083269164
5	0xbe3be6e9	-0.18349804
6	0x3af80bb4	0.0018924386
7	0xbe67639a	-0.22596589
8	0xbe0b6f03	-0.13616566
9	0xbd4f5256	-0.05061563
10	0x3d92d8f4	0.07170287
11	0xbd656092	-0.0560003
12	0x3dfcafad	0.12338195
13	0xbd0e3492	-0.034718104
14	0x3c3f264a	0.011666844
15	0xbc3f12c7	-0.011662192
16	0xbda18251	-0.07886184
17	0xbd1936c5	-0.037405748
18	0x3d6b01bf	0.057374712
19	0x3c7bb0ad	0.015361947
20	0xbcee1128	-0.029060915
21	0x3e3e64d5	0.18593152
22	0xbce16aa4	-0.02751667
23	0x3d29f2c9	0.041491304
24	0x3d1b75c1	0.037954096
25	0xbe25fdc0	-0.16210079
26	0x3da4278f	0.08015358
27	0xbbfce444	-0.007717641
28	0xbd3044fb	-0.043034535
29	0xbdae0927	-0.084978394
30	0x3e1237ab	0.14279048
31	0xbc02f583	-0.007993105
32	0xbd945fdd	-0.07244847
33	0xbd9f3c47	-0.07775169
34	0x3df56078	0.119812906
35	0xbddfd461	-0.1092918
36	0xbdb7e2d7	-0.08978813
37	0xbc76b313	-0.015057343
38	0xbc1c0539	-0.00952273
39	0xbde4cdad	-0.11172042
40	0xbd132d63	-0.035931956
41	0x3dc711d1	0.09720195
42	0x3c4cb6a5	0.012494718
43	0x3c1f7eba	0.009734804
44	0x3c279c00	0.010230064
45	0x3da01904	0.07817271
46	0x3c3f913e	0.011692343
47	0x3d5c8b2a	0.053843655
48	0xbd2b527a	-0.041826703
49	0xbd937742	-0.07200481
50	0x3ca53e9b	0.020171454
51	0xbe15b541	-0.14619924
52	0x3ca53817	0.020168347
53	0xbbac2a8a	-0.0052540945
54	0x3bd88ad7	0.006608348
55	0xbd75b64b	-0.0599883
56	0x3d3d2c27	0.046184685
57	0x3cfc0df9	0.030768381
58	0xbc397f68	-0.01132188
59	0xbccb62e1	-0.024827423
60	0x3c3c11b6	0.011478832
61	0xbcf89b3e	-0.030347463
62	0xbd7481fa	-0.059694268
63	0xbd894492	-0.06702532

bn1.weight f4 [64]
0	0x4011ca74	2.2779818
1	0x3ffcaf62	1.9741023
2	0x3ff5a7f2	1.9191878
3	0x400f3e3c	2.2381735
4	0x401e1f85	2.4706738
5	0x401bf878	2.4370403
6	0x4016972d	2.352977
7	0x3fdf77e2	1.745846
8	0x4014a9e4	2.3228693
9	0x402a1e52	2.6581006
10	0x401ac879	2.4184859
11	0x40165895	2.3491566
12	0x4039a956	2.9009604
13	0x4001e32b	2.0294902
14	0x4016ca56	2.3560996
15	0x4001b2fe	2.0265498
16	0x400d37a3	2.2065208
17	0x400b44b2	2.1760678
18	0x4015b7c5	2.3393414
19	0x4027133e	2.6105494
20	0x40167abe	2.3512416
21	0x40228033	2.5390747
22	0x40162a41	2.346329
23	0x40139556	2.3059897
24	0x3ffcc8c0	1.9748764
25	0x4023dcad	2.560344
26	0x3ff9e33b	1.952247
27	0x402db5e2	2.7142262
28	0x40040b42	2.0631871
29	0x4006a8e8	2.1040592
30	0x40187ec3	2.382737
31	0x400931bc	2.1436605
32	0x402261b5	2.5372136
33	0x3ff697e8	1.9265108
34	0x40085059	2.129904
35	0x3fe6bf13	1.8027061
36	0x401ff137	2.4990976
37	0x402117dc	2.5170813
38	0x401d5e05	2.4588635
39	0x4003c9e0	2.0591965
40	0x400a42b0	2.1603203
41	0x40119efc	2.2753286
42	0x400d19bb	2.2046955
43	0x400a0f15	2.1571705
44	0x40342403	2.814698
45	0x400f727a	2.241362
46	0x4017ed89	2.373873
47	0x401f1931	2.4859126
48	0x400abd60	2.1678085
49	0x401b8729	2.4301245
50	0x40013e94	2.0194445
51	0x4013ed44	2.3113565
52	0x400a80f1	2.16412
53	0x401f52c7	2.4894273
54	0x4021a2a9	2.525553
55	0x40206c42	2.5066075
56	0x40158c47	2.3366868
57	0x4016e860	2.357933
58	0x401403d7	2.3127344
59	0x400018e8	2.0015202
60	0x4006610a	2.0996728
61	0x40067a04	2.1011972
62	0x4009cce8	2.1531315
63	0x4004f5a4	2.0774927

bn1.bias f4 [64]
0	0x3f2e719c	0.68142104
1	0x3f0b4343	0.5439951
2	0x3ee4927e	0.44643015
3	0x3f0fc8b6	0.56165636
4	0x3f0b5320	0.54423714
5	0x3eca0b8f	0.39461944
6	0x3f3581b9	0.70901066
7	0x3e860eb9	0.26183107
8	0x3f274166	0.65334165
9	0x3f3bdc4d	0.7338303
10	0x3f1ce859	0.61292034
11	0x3f2c6079	0.67334706
12	0x3f45733e	0.7712897
13	0x3edbd40c	0.42935216
14	0x3f4878cc	0.7830932
15	0x3ed66cbc	0.41879833
16	0x3f0ac947	0.54213375
17	0x3f1d795f	0.6151332
18	0x3f1b4d91	0.6066523
19	0x3f603266	0.875769
20	0x3f009e84	0.50241876
21	0x3f42dbe6	0.7611679
22	0x3f161879	0.5863109
23	0x3f2b36e3	0.66880625
24	0x3eca4c13	0.39511165
25	0x3f5e5b4f	0.86858076
26	0x3eb2cf44	0.34923756
27	0x3f2a3b78	0.6649699
28	0x3f07e0a8	0.53077173
29	0x3ef409a4	0.47663605
30	0x3f1fc460	0.6240902
31	0x3eb96e68	0.36217046
32	0x3f1d2cfa	0.61396754
33	0x3ea87590	0.32902193
34	0x3f0d3dbf	0.5517234
35	0x3ed16612	0.40898186
36	0x3f016fe3	0.5056135
37	0x3f77fd6b	0.9687106
38	0x3f1443cc	0.5791595
39	0x3ee1120c	0.4395908
40	0x3f313584	0.69222283
41	0x3f09e821	0.53869826
42	0x3ed4f504	0.41593182
43	0x3f0a3c9b	0.53998727
44	0x3f903bce	1.1268251
45	0x3f03649e	0.51325405
46	0x3f39d7ac	0.72594714
47	0x3f4c1983	0.7972643
48	0x3ea7fdea	0.3281091
49	0x3f057846	0.5213665
50	0x3f09bc71	0.53803164
51	0x3f0b01b5	0.5429948
52	0x3f071e25	0.5278037
53	0x3f65e964	0.8980925
54	0x3f382028	0.71924067
55	0x3f53ff05	0.82811004
56	0x3f30b465	0.6902526
57	0x3f1a8051	0.60352045
58	0x3f2c84d4	0.6739018
59	0x3eb5cb4c	0.35506666
60	0x3eff3d25	0.49851337
61	0x3f0194d3	0.5061771
62	0x3f177d76	0.59175813
63	0x3ebf4b32	0.37362057

bn1.running_mean f4 [64]
0	0x3ce4abce	0.027913954
1	0xbd60deb3	-0.054899883
2	0x3c994eca	0.018714327
3	0xbd5121c2	-0.051057585
4	0x3c68cf3e	0.014209567
5	0x3cf943b5	0.030427793
6	0x3b6c9185	0.0036097479
7	0x3dadbb58	0.084829986
8	0xbcf7b607	-0.030238165
9	0xbc41bd6f	-0.01182495
10	0xbd1afa5b	-0.037836414
11	0xbc9b4437	-0.018953426
12	0xbc56e5c3	-0.013116303
13	0xbd8120b2	-0.06305064
14	0xbc1310cc	-0.008976173
15	0xbd840410	-0.06446087
16	0xbcdd0ef2	-0.026984666
17	0x3d5c5b4e	0.053798012
18	0x3d300123	0.042969834
19	0xbccba4c2	-0.024858836
20	0xbca657e3	-0.02030558
21	0xbc9f5509	-0.019449728
22	0x3d8953d6	0.067054436
23	0x3a9af87c	0.0011823322
24	0xbcc8eeb3	-0.024527883
25	0x3d4a2a1e	0.049356572
26	0x3d276bc9	0.040874276
27	0x3b2190c5	0.002465294
28	0xbc3a5f17	-0.01137521
29	0x3b53fece	0.003234792
30	0xbbfcfd90	-0.0077206567
31	0xbd4bb74b	-0.04973535
32	0xbc7bc780	-0.015367389
33	0x3c06431a	0.008194709
34	0xbac89b20	-0.001530502
35	0xbcf27771	-0.02959797
36	0x3daee5d2	0.085399285
37	0x3bb97617	0.0056598294
38	0x3c63fb94	0.013914961
39	0x3d941296	0.072301075
40	0x3c8d0f3e	0.017219182
41	0x3c20f3db	0.009823765
42	0xbd52547a	-0.051350094
43	0xbd6c5b50	-0.05770427
44	0x3cc9c6d3	0.02463094
45	0x3d1e0398	0.038577646
46	0x3aaa91af	0.0013013388
47	0xbcfbc17f	-0.030731915
48	0xbcc0899f	-0.023503123
49	0x3c6418ab	0.013921897
50	0x3d62d447	0.055378225
51	0x3e137b73	0.14402561
52	0x3cf65c6c	0.030073367
53	0xbd3f45a2	-0.046697266
54	0x3cdba21a	0.026810694
55	0xbd861328	-0.065466225
56	0x3cd5ca61	0.026097478
57	0xbd664de0	-0.05622661
58	0x3bd38504	0.0064550657
59	0x3c308786	0.010774499
60	0x3c9a0e83	0.018805748
61	0xbcfc961b	-0.030833295
62	0xbdad40a7	-0.08459597
63	0xbd845113	-0.06460776

bn1.running_var f4 [64]
0	0x3a5f1f62	0.00085114513
1	0x3ae4490c	0.0017416789
2	0x3b3fd99c	0.0029273992
3	0x3a6a10a8	0.00089288736
4	0x3aba12c4	0.0014196266
5	0x3b7250e7	0.003697449
6	0x3a06a519	0.0005136296
7	0x3bc41120	0.005983487
8	0x3b26b517	0.0025437528
9	0x3b16fc13	0.0023038432
10	0x3aad77d9	0.001323457
11	0x3a93a3ea	0.001126406
12	0x3b126468	0.0022337679
13	0x3b44c06d	0.0030021921
14	0x3a3850b1	0.0007031067
15	0x3afda1a7	0.0019350544
16	0x3ae20d6b	0.001724643
17	0x3ad65dd9	0.0016354873
18	0x3ae1facc	0.0017240881
19	0x39e7b90d	0.00044197627
20	0x3a515a41	0.0007986166
21	0x3b158fa5	0.0022821215
22	0x3b219eb1	0.0024661238
23	0x3b363a3f	0.0027805713
24	0x3a95cab9	0.0011428214
25	0x3b187c9f	0.002326764
26	0x3b7fc8b2	0.0039029536
27	0x3b4621f0	0.003023263
28	0x3ada94b6	0.0016676399
29	0x3b8c0686	0.0042732386
30	0x3af16ca1	0.0018419215
31	0x3b29e98d	0.002592656
32	0x3a5eff9e	0.0008506718
33	0x3b931003	0.0044879927
34	0x3ad29169	0.0016065064
35	0x3ac42d8c	0.0014967187
36	0x3b469065	0.0030298468
37	0x39e4872f	0.00043588268
38	0x3a5c334a	0.00083999767
39	0x3af3a4ea	0.0018588577
40	0x3a629b65	0.00086443714
41	0x3b0d5caf	0.0021570136
42	0x3ad8cfd3	0.0016541429
43	0x3a834cc8	0.001001739
44	0x3a059379	0.00050955225
45	0x3a288c78	0.0006429623
46	0x3ad9dcc7	0.0016621583
47	0x3ab15fb0	0.0013532545
48	0x3b9e66cc	0.0048340317
49	0x3b19c1a8	0.0023461375
50	0x3a917c5b	0.0011099683
51	0x3b5f3638	0.0034059417
52	0x3af5d893	0.0018756561
53	0x3b2bfc9a	0.0026243092
54	0x3a1aadbd	0.0005900523
55	0x3a9ad15f	0.0011811665
56	0x3a86f77c	0.0010297145
57	0x3a935f49	0.0011243607
58	0x3a7a5908	0.000955001
59	0x3ae1f9d1	0.0017240589
60	0x3a204b16	0.00061147043
61	0x3a9538a6	0.001138468
62	0x3b09df5b	0.0021037671
63	0x3b25b31b	0.0025283757

conv2.weight f4 [32, 64, 3, 3]
0	0xbd8957d1	-0.06706203
1	0xbd7082e2	-0.05871857
2	0xbc9a2d59	-0.018820452
3	0xbd9d892d	-0.0769218
4	0xbd4ac8a7	-0.049507763
5	0x3eaf884a	0.34283668
6	0x3e24e8ba	0.16104403
7	0xbe5a9356	-0.21345267
8	0x3dfbc25c	0.122929305
9	0xbae05122	-0.0017114023
10	0xbe8045b1	-0.2505317
11	0xbe9582c2	-0.29201323
12	0x3ddb7f22	0.10717608
13	0xbe50cac9	-0.20389856
14	0xbdac0411	-0.08399213
15	0x3ec577d7	0.38567993
16	0x3eabf6e6	0.33586806
17	0x3e3b18d0	0.18271184
18	0xbee84c07	-0.45370504
19	0xbdb4d163	-0.08829
20	0xbc5a739b	-0.013333227
21	0xbea63e6c	-0.324695
22	0xbda67640	-0.08128023
23	0x3e633430	0.22187877
24	0x3dccd92d	0.100023605
25	0x3ec10b8c	0.37704122
26	0x3ebad095	0.3648726
27	0x3e0beded	0.1366498
28	0xbd8ce128	-0.06878883
29	0x3d0795d3	0.033101868
30	0x3e8707cb	0.26373133
31	0xbc8e44fa	-0.017366875
32	0x3e809c88	0.25119424
33	0xbe08fdd3	-0.13378076
34	0x3daefa5b	0.08543845
35	0x3e5c86ba	0.21535769
36	0xbe5e7ddb	-0.21727698
37	0x3cc03982	0.023464922
38	0xbea7d0a5	-0.3277637
39	0xbd751ee9	-0.05984393
40	0x3eded208	0.43519616
41	0xbe21f9b2	-0.15817907
42	0x3ed86d2c	0.42270792
43	0x3ef03687	0.469166
44	0xbe7eda79	-0.24888028
45	0xbe14a8fa	-0.14517584
46	0x3e92a6e8	0.28642964
47	0xbbec2378	-0.0072063766
48	0xbe32d028	-0.17462218
49	0xbe811e61	-0.2521849
50	0x3cd22e0d	0.025656724
51	0x3d255366	0.040362738
52	0x3b413378	0.002948014
53	0x3e6b784c	0.22995108
54	0x395d7775	0.00021120704
55	0x3e3adaa9	0.18247475
56	0x3e17ab1b	0.14811365
57	0xbca55ebb	-0.020186773
58	0xbdb45c3a	-0.08806653
59	0x3ecf4718	0.40483928
60	0x3e074513	0.13209943
61	0x3d0f13ed	0.034931112
62	0xba5d2989	-0.000843667
63	0xbe7bd0a9	-0.24591316
64	0xbe2bafda	-0.16766301
65	0xbce65a56	-0.028119247
66	0xbcf703ce	-0.030153181
67	0xbee0b740	-0.4388981
68	0x3e5484b5	0.20753749
69	0x3e5e13ad	0.21687193
70	0x3dd83a54	0.10558
71	0xbda47547	-0.080301814
72	0xbe5e9107	-0.21735011
73	0x3dd253bf	0.102698795
74	0x3e24c2d3	0.16089945
75	0xbe339f88	-0.17541325
76	0x3de8d24e	0.113682374
77	0x3ea53d55	0.32273355
78	0x3ec7a06b	0.38989577
79	0xbdcef91e	-0.10106109
80	0xbeed7200	-0.46376038
81	0xbe4b50b6	-0.19855008
82	0x3db38349	0.08765275
83	0x3edf7eac	0.4365133
84	0xbd05f154	-0.03270085
85	0x3e576fa0	0.21038675
86	0x3e0f2ef2	0.13982752
87	0x3d39833b	0.045291167
88	0xbf015e3c	-0.50534415
89	0xbef77334	-0.4833008
90	0xbe0e7d6b	-0.1391503
91	0x3d04a9eb	0.03238861
92	0xbe265f16	-0.1624721
93	0x3ddd9575	0.10819522
94	0xba515bf5	-0.000798642
95	0xbe3b165a	-0.18270245
96	0x3ec68e8d	0.38780633
97	0x3e22ecd9	0.15910663
98	0x3e8bcb70	0.27303648
99	0xbc85fb50	-0.016355187
100	0x3e740169	0.23828663
101	0xbc9527be	-0.018207427
102	0xbdae10d9	-0.08499307
103	0xbcdd3aeb	-0.027005633
104	0xbd8aae96	-0.06771581
105	0x3d3ed568	0.04659024
106	0x3dbbac3a	0.09163709
107	0x3eae0617	0.3398902
108	0x3de9f49c	0.11423609
109	0x3e8eedce	0.27915806
110	0xbe3aa2ff	-0.1822624
111	0x3cbed8b7	0.023296697
112	0x3ea50a15	0.32234254
113	0xbe5fca57	-0.2185453
114	0xbe010865	-0.12600859
115	0xbf3da4d9	-0.7407966
116	0xbda8e68f	-0.082471006
117	0xbe5d4331	-0.21607663
118	0xbdc85c2e	-0.09783207
119	0x3e97901b	0.2960213
120	0xbcd4a9f8	-0.025959954
121	0x3e8f2731	0.27959588
122	0x3ded754f	0.115946405
123	0x3d83bb19	0.064321704
124	0x3e35df68	0.17761004
125	0xbc350dbb	-0.011050637
126	0xbd85b29d	-0.065282084
127	0x3e2cfdf8	0.16893756
128	0x3c88216e	0.016617503
129	0xbe6834df	-0.22676419
130	0x3de219f1	0.11040104
131	0x3e38850e	0.18019506
132	0x3bb9d654	0.005671302
133	0x3e1547d8	0.14578187
134	0x3e48e3e8	0.1961819
135	0xba5b63d9	-0.00083690655
136	0x3d1e3572	0.03862519
137	0xbe727471	-0.23677231
138	0x3e2546c7	0.1614028
139	0xbd9df78b	-0.07713231
140	0x3e9e35d9	0.30900458
141	0x3ea6a5dd	0.3254842
142	0x3e99d8fe	0.30048364
143	0x3eafb879	0.3432043
144	0x3cb36777	0.021899922
145	0xbda3d8b3	-0.080003165
146	0x3dfee2f8	0.124456346
147	0xbe620d51	-0.22075392
148	0x3ec372ca	0.38173515
149	0x3ec6d079	0.38830927
150	0xbead4992	-0.33845192
151	0x3e572e44	0.21013743
152	0x3cae6d0a	0.021292228
153	0x3ea9a5b7	0.33134243
154	0x3bbd9e71	0.00578671
155	0x3eb9410c	0.3618244
156	0x3db3c5d3	0.08777966
157	0xbe0c9272	-0.1372774
158	0xbd263b69	-0.040584
159	0x3d2ae9d7	0.041726913
160	0x3e10aa0c	0.14127368
161	0xbecb5248	-0.39711213
162	0x3e08420c	0.13306445
163	0x3de4c777	0.111708574
164	0x3ed92de7	0.42417833
165	0xbe2e2afe	-0.17008588
166	0xbcbaad46	-0.022787701
167	0x3eb404b0	0.35159826
168	0xbeecd32d	-0.46254864
169	0xbbb6288f	-0.005559034
170	0x3d46c197	0.048524465
171	0xbd3a4ebc	-0.045485243
172	0xbca40bb2	-0.020025108
173	0x3c3e9939	0.011633211
174	0x3ea656b1	0.32488015
175	0xbd4f5956	-0.050622307
176	0xbd357ac2	-0.044306524
177	0x3ec60b2c	0.38680398
178	0xbd755eb2	-0.05990476
179	0x3da85758	0.082197845
180	0xbe12dc5a	-0.1434187
181	0x3e952b59	0.29134634
182	0xbe6d2e22	-0.2316213
183	0xbe799b76	-0.2437571
184	0x3e1c79a0	0.15280771
185	0x3e1fc7a9	0.15603508
186	0x3c24a096	0.010048052
187	0x3e3fb0ec	0.18719834
188	0x3ea83571	0.32853273
189	0xbd431772	-0.04762978
190	0xbe54ab6d	-0.20768519
191	0x3eb33f51	0.35009244
192	0xbcd65493	-0.026163375
193	0x3ebdb5a0	0.3705263
194	0xbde7b363	-0.11313512
195	0x3e136151	0.14392592
196	0x3e0252ab	0.12726848
197	0xbe02dd78	-0.12779796
198	0xbefbe921	-0.492013
199	0x3ef12f6c	0.47106493
200	0x3e55a0ae	0.20862076
201	0xbeb44ba9	-0.35213974
202	0x3e19eb5b	0.15031187
203	0x3c6b84ee	0.014374955
204	0xbe7ab294	-0.24482185
205	0xbed77a2a	-0.4208539
206	0x3e08140f	0.13288902
207	0xbece84aa	-0.4033559
208	0xbe734bfd	-0.23759456
209	0xbed14e28	-0.4087994
210	0x3d824ce2	0.063623205
211	0xbdf7f21d	-0.12106726
212	0xbe4d5872	-0.2005327
213	0x3eabb527	0.33536646
214	0x3e38556a	0.18001333
215	0x3e78b851	0.24289061
216	0x3e5c5895	0.21518166
217	0x3d8b6c6d	0.0680779
218	0x3c1f0c1b	0.009707476
219	0x3ec86090	0.3913617
220	0xbc4db0b3	-0.012554335
221	0xbc60075d	-0.013673631
222	0xbd55a6d8	-0.052161068
223	0xbcfad530	-0.030619234
224	0x3d86c1d4	0.065799385
225	0xbd82aeed	-0.06381021
226	0x3e8f6f81	0.28014758
227	0x3d8f6ee0	0.070035696
228	0x3e48992b	0.19589679
229	0x3db7dd42	0.089777485
230	0x3deaebff	0.11470794
231	0x3e847ba5	0.25875583
232	0x3d489e59	0.048979137
233	0xbe03a64d	-0.12856407
234	0x3ec50c9c	0.38486183
235	0xbb264b53	-0.0025374487
236	0x3e39ce03	0.18144993
237	0x3eca9c18	0.39572215
238	0x3bb061fb	0.005382774
239	0x3daad311	0.08341039
240	0x3e9f6793	0.31133708
241	0xbc9729aa	-0.018452484
242	0xbbf37136	-0.0074292673
243	0x3f174867	0.5909485
244	0x3bf34361	0.0074238037
245	0xbe6137ee	-0.21993992
246	0xbe6700fb	-0.22558968
247	0x3e5d066d	0.21584482
248	0x3e6222f2	0.22083643
249	0xbe53aadd	-0.20670648
250	0x3e9951d7	0.2994525
251	0xbc2df161	-0.010616631
252	0xbe0c3950	-0.13693738
253	0xbe096fe4	-0.13421589
254	0x3d9a7e46	0.07543616
255	0xbd899acf	-0.067189805

conv2.bias f4 [32]
0	0x3cffb159	0.031212496
1	0xbce6fc54	-0.028196491
2	0x3c7bc5af	0.015366956
3	0xbb8a280c	-0.0042161997
4	0xbcef1ba8	-0.029187992
5	0xbc306a4d	-0.010767532
6	0x3cb7185d	0.022350485
7	0xbd01d840	-0.031700373
8	0x3c95946a	0.018259246
9	0xbd3a932e	-0.045550518
10	0x3cd8ddbf	0.026472924
11	0xbc7e03e8	-0.015503861
12	0xbcb5468e	-0.02212837
13	0xbd5b9032	-0.053604312
14	0x3d185f7b	0.037200432
15	0x3d0e0a2d	0.034677673
16	0x3cd410bf	0.025886891
17	0x3d2011a6	0.03907933
18	0x3c6e0c20	0.014529258
19	0xbd4a69a2	-0.049417146
20	0x3d050af8	0.032481164
21	0xbd06822b	-0.03283898
22	0x3d7d2504	0.06180288
23	0x3c9c4c2e	0.019079294
24	0x3cf4e952	0.029896412
25	0x3c099c12	0.0083990265
26	0xbcca5b37	-0.024701698
27	0x3cb23602	0.021754269
28	0xbcb32cb6	-0.021871906
29	0xbce63ca4	-0.028105088
30	0xbd1438f3	-0.036187124
31	0xbcf679f7	-0.030087454

exp_avg f4 [64, 32, 3, 3]
0	0xbbb2e3ef	-0.0054593007
1	0xbb573b56	-0.0032841763
2	0xbb6d4dcb	-0.0036209698
3	0xbb245c54	-0.0025079446
4	0x393733b2	0.00017471498
5	0xbaa4b742	-0.0012566822
6	0xbaf2af20	-0.0018515326
7	0xb83eff51	-4.5537312e-05
8	0xbabda75d	-0.0014469434
9	0xbabb2e64	-0.0014280793
10	0xba8b32f3	-0.0010620042
11	0xba8c73c0	-0.0010715649
12	0xb8807d43	-6.1268474e-05
13	0x39a0009d	0.00030518035
14	0xb9c1e513	-0.00036982502
15	0x396666ab	0.00021972756
16	0x3a019a93	0.0004943993
17	0xb7ecc051	-2.8222947e-05
18	0xbbe66a4d	-0.007031715
19	0x3a85214f	0.0010157021
20	0x3a1cf799	0.00059878227
21	0xbc44923b	-0.011997755
22	0xbb5de403	-0.003385783
23	0xbae92ad2	-0.0017789251
24	0xbc3f8892	-0.011690276
25	0xbbb42940	-0.0054980814
26	0xbba2496f	-0.0049526016
27	0xbbb9191b	-0.0056487448
28	0xba292ef6	-0.0006453836
29	0xb94a0715	-0.0001926686
30	0xbbf177c8	-0.0073690154
31	0xbaf1d0a9	-0.0018449026
32	0xb9c97aca	-0.00038429193
33	0xbbefe72e	-0.00732126
34	0xbb494b8e	-0.00307152
35	0xbb27b425	-0.0025589552
36	0xbc7f30cc	-0.015575599
37	0xbb86f6ec	-0.004118791
38	0xbba0c9b6	-0.0049068583
39	0xbc853f07	-0.016265405
40	0xbb73082f	-0.0037083735
41	0xbb8a87f8	-0.0042276345
42	0xbc80fa73	-0.015744423
43	0xbbdfe2b2	-0.006832444
44	0xbbffa605	-0.0078017735
45	0x31125bf5	2.1298068e-09
46	0xb1cd0f43	-5.9680203e-09
47	0xb333ab99	-4.1832752e-08
48	0x34a84c5c	3.1347997e-07
49	0xb47f11aa	-2.3755152e-07
50	0xb371517a	-5.6186288e-08
51	0x333a83c1	4.342633e-08
52	0x33484d26	4.6636295e-08
53	0x348240bb	2.4261485e-07
54	0xb999ed10	-0.0002935906
55	0xb8459d04	-4.7114692e-05
56	0x388bbfdb	6.6637724e-05
57	0xb9165126	-0.00014335345
58	0xb95b033a	-0.0002088667
59	0x3921c09c	0.00015425909
60	0x380cd26c	3.357457e-05
61	0xb8aa8ccf	-8.132459e-05
62	0xb8accebd	-8.240107e-05
63	0xbb4ebb5c	-0.003154478
64	0x3a0ae675	0.0005298623
65	0xb981be9b	-0.0002474681
66	0xbba8f83b	-0.0051565445
67	0xbacb39ba	-0.0015504875
68	0xbab86b10	-0.0014069993
69	0xbba8f7f7	-0.005156513
70	0xbb34425c	-0.0027505374
71	0xbb2faab9	-0.002680464
72	0xbb82dff5	-0.003993983
73	0xba9be208	-0.0011892924
74	0xbaa60493	-0.0012666158
75	0xbb8ea430	-0.004353069
76	0xba8c9433	-0.0010725319
77	0xbac4d425	-0.0015016837
78	0xbb764e4e	-0.0037583294
79	0xbacff792	-0.0015866628
80	0xbb02c6da	-0.001995495
81	0x95cd21ff	-8.285248e-26
82	0x96bb38a3	-3.0247222e-25
83	0x16d60f2d	3.4583142e-25
84	0x95e9914b	-9.433718e-26
85	0x97113dcf	-4.693004e-25
86	0x95b489a4	-7.291858e-26
87	0x961faa8b	-1.2897732e-25
88	0x97ecad4e	-1.5294891e-24
89	0x1717ad34	4.9009345e-25
90	0x35f5c923	1.8312461e-06
91	0x351ac243	5.765216e-07
92	0xb53c4691	-7.0138145e-07
93	0x35cb3268	1.5139349e-06
94	0x366b3950	3.505109e-06
95	0xb63d59f8	-2.8215563e-06
96	0xb5947912	-1.1062095e-06
97	0x3689b4a3	4.103947e-06
98	0xb6b1bebc	-5.2972155e-06
99	0xbafa4daa	-0.0019096632
100	0xba9502a8	-0.001136859
101	0xba4bc075	-0.0007772514
102	0xba33e071	-0.00068617525
103	0x38a1bfa4	7.712774e-05
104	0xb936e81d	-0.00017443341
105	0xb89e567d	-7.550137e-05
106	0x39c5e5d0	0.00037745992
107	0x3910cd3a	0.00013809363
108	0x00000000	0.0
109	0x00000000	0.0
110	0x00000000	0.0
111	0x00000000	0.0
112	0x00000000	0.0
113	0x00000000	0.0
114	0x00000000	0.0
115	0x00000000	0.0
116	0x00000000	0.0
117	0xbc4bbc29	-0.012434998
118	0xbb83624b	-0.00400952
119	0xbb7fa25d	-0.0039006688
120	0xbc3d6146	-0.011558836
121	0xbb26597e	-0.0025382931
122	0xbb03f878	-0.0020137113
123	0xbc3b2ae8	-0.011423804
124	0xbb998868	-0.0046854503
125	0xbba27940	-0.004958302
126	0xbb4c0cc8	-0.0031135548
127	0xb928f247	-0.00016111984
128	0xba1bf5e2	-0.000594942
129	0xbb74ab21	-0.0037333446
130	0xba1f4a4f	-0.00060764415
131	0xba32c978	-0.00068201823
132	0xbb6f39b3	-0.0036502897
133	0xbac43c25	-0.0014971538
134	0xbace9bc0	-0.001576297
135	0x380b03b3	3.3143628e-05
136	0x38f5893e	0.00011708074
137	0x391869dd	0.00014535287
138	0xb9740434	-0.00023271219
139	0xb922beff	-0.00015520676
140	0x36fb025a	7.4806567e-06
141	0xb90c0215	-0.00013352216
142	0xb96742c6	-0.00022054752
143	0xb8b10474	-8.440847e-05
144	0xb951751e	-0.00019975423
145	0xb89fd940	-7.622177e-05
146	0x3793c33e	1.7614682e-05
147	0xb937baae	-0.00017521784
148	0xb91711e6	-0.0001440715
149	0x38f03cbd	0.00011455405
150	0xb87b61e7	-5.9934242e-05
151	0xb86d12bb	-5.6522647e-05
152	0x36f8808a	7.40594e-06
153	0xbc8097e3	-0.015697425
154	0xbbb2aa69	-0.0054524434
155	0xbba98dcc	-0.005174374
156	0xbc772b95	-0.015086074
157	0xbb5a5200	-0.0033313036
158	0xbb55b442	-0.0032608663
159	0xbc73d711	-0.014882819
160	0xbbc5d6f5	-0.0060375878
161	0xbbdd8137	-0.0067597884
162	0xbb4103ec	-0.00294518
163	0xbab59b7b	-0.0013855541
164	0xbad782a5	-0.0016442133
165	0xbac21185	-0.0014806247
166	0x38ba7ef6	8.8928195e-05
167	0xba3f931a	-0.00073079916
168	0xbaa3945e	-0.001248013
169	0xb983c93f	-0.00025136207
170	0xba36e1a2	-0.0006976371
171	0xbb440a07	-0.0029913203
172	0xba302331	-0.0006719111
173	0xb98e22c8	-0.00027110265
174	0xbb51bdef	-0.0032004078
175	0xba64313d	-0.0008704847
176	0x39615cec	0.00021492288
177	0xbb585cd0	-0.0033014305
178	0xbaaf283a	-0.0013363429
179	0xba689ff0	-0.000887393
180	0xbbc80db6	-0.00610515
181	0xbb58220a	-0.0032979273
182	0xbb35fca0	-0.0027768984
183	0xbb740ca1	-0.0037238973
184	0xb92f6a21	-0.00016728837
185	0xba3bae22	-0.00071594317
186	0xbb4afa21	-0.0030971842
187	0xb993e348	-0.00028207363
188	0xba83121b	-0.0009999903
189	0x00000000	0.0
190	0x00000000	0.0
191	0x00000000	0.0
192	0x00000000	0.0
193	0x00000000	0.0
194	0x00000000	0.0
195	0x00000000	0.0
196	0x00000000	0.0
197	0x00000000	0.0
198	0xb1fcf994	-7.362539e-09
199	0xb385cacc	-6.230184e-08
200	0x353cc4ec	7.0322017e-07
201	0xb525b312	-6.172787e-07
202	0xb5d3d562	-1.5782828e-06
203	0xb5b98824	-1.3823196e-06
204	0x361107a5	2.1611133e-06
205	0x34f81bad	4.6213736e-07
206	0x35c91e14	1.4984421e-06
207	0x89aa82d8	-4.1049056e-33
208	0x8a0daeab	-6.8217544e-33
209	0x0bc3f979	7.548663e-32
210	0x90cabc33	-7.996492e-29
211	0x8f8db597	-1.397362e-29
212	0x90cca13c	-8.0712233e-29
213	0x0e9c40ba	3.85193e-30
214	0x1021c178	3.1900694e-29
215	0x10fd314c	9.986686e-29
216	0xbb139d2d	-0.0022524104
217	0xba7775af	-0.00094398385
218	0xba64e1a2	-0.00087311317
219	0xbb1d0a7a	-0.0023962543
220	0xba6c5b07	-0.00090162497
221	0xba5b8d4b	-0.00083752413
222	0xbb15961c	-0.0022825068
223	0xba9ba800	-0.001187563
224	0xbaaf163c	-0.0013358067
225	0xbbff7ef1	-0.007797115
226	0xbaa263cb	-0.001238936
227	0xbae73a0d	-0.0017641202
228	0xbc14e0b8	-0.00908678
229	0xbb133055	-0.0022459228
230	0xbaf65577	-0.0018793781
231	0xbc12207b	-0.008918877
232	0xbb883878	-0.004157122
233	0xbb88e1af	-0.004177294
234	0xbc2d4cdf	-0.0105774095
235	0xbb77cb23	-0.0037810288
236	0xbb70bdfb	-0.003673433
237	0xbc24a2da	-0.010048592
238	0xbb1ca1ad	-0.0023900077
239	0xbb2bcd92	-0.0026215059
240	0xbc1a57a7	-0.009420312
241	0xbb854d71	-0.0040680696
242	0xbb95e8c5	-0.0045748674
243	0xb712e8b2	-8.756457e-06
244	0xb7778a35	-1.4754526e-05
245	0xb73a7421	-1.1113502e-05
246	0xb7b0352a	-2.1005591e-05
247	0xb7bed469	-2.2748676e-05
248	0x37cb8cb3	2.4265004e-05
249	0xb843dd8f	-4.6697965e-05
250	0xb89d61d4	-7.504565e-05
251	0xb5bf6c81	-1.4262188e-06
252	0xb2a2c652	-1.8949468e-08
253	0xb31185b1	-3.3882035e-08
254	0xb28196b2	-1.5086105e-08
255	0x31e780ee	6.7376424e-09

exp_avg_sq f4 [64, 32, 3, 3]
0	0x3da45cf0	0.08025539
1	0x3d6d4371	0.057925645
2	0x3dc2f554	0.09519449
3	0x3d8640ed	0.06555352
4	0x3d2b09f6	0.041757546
5	0x3d8b6469	0.06806261
6	0x3da5ca78	0.080952585
7	0x3d797396	0.060901247
8	0x3d9b0750	0.07569754
9	0x3c1f236e	0.009713037
10	0x3c085538	0.008321099
11	0x3c232046	0.009956425
12	0x3c1e6dcb	0.009669731
13	0x3c2b5e93	0.01045956
14	0x3c1c11d9	0.00952574
15	0x3c2da650	0.010598734
16	0x3c279317	0.01022794
17	0x3c12c330	0.008957669
18	0x3f493108	0.7859044
19	0x3f2b27ff	0.66857904
20	0x3f4090c8	0.7522092
21	0x3f055dac	0.52096057
22	0x3e2a6c38	0.16642845
23	0x3eacbd97	0.33738396
24	0x3f38e37e	0.72222126
25	0x3f25ee44	0.6481669
26	0x3f32aa00	0.6979065
27	0x3ec6d30c	0.3883289
28	0x3eab84bf	0.33499715
29	0x3eba7d4f	0.36423728
30	0x3e8c1847	0.27362272
31	0x3ddb9344	0.10721448
32	0x3e3882ac	0.18018597
33	0x3eb4911a	0.35266954
34	0x3ea67de7	0.3251793
35	0x3eb03567	0.34415743
36	0x3fac5761	1.3464166
37	0x3f81a413	1.0128196
38	0x3fa4f168	1.2886171
39	0x3f3ee408	0.745667
40	0x3c873812	0.016506229
41	0x3ec87d60	0.39158154
42	0x3f9f7eb0	1.2460537
43	0x3f6e746b	0.9314639
44	0x3f901f9d	1.1259648
45	0x32e459f0	2.6583592e-08
46	0x332520e6	3.8446977e-08
47	0x3295b4d0	1.7428107e-08
48	0x3422ee4e	1.517412e-07
49	0x34346d01	1.6803462e-07
50	0x34516ebb	1.9504925e-07
51	0x34393e74	1.7252188e-07
52	0x3421905c	1.5046811e-07
53	0x33b46816	8.400836e-08
54	0x3ba1698a	0.0049259113
55	0x3bd988f5	0.006638641
56	0x3bdb4cf8	0.006692525
57	0x3b9313ab	0.0044884286
58	0x3c0fac95	0.008769174
59	0x3c16ec03	0.009211543
60	0x3b889ba2	0.0041689435
61	0x3bedffe7	0.007263172
62	0x3bf74cda	0.007547003
63	0x3e02e949	0.12784304
64	0x3de52c21	0.111900575
65	0x3dffe827	0.124954514
66	0x3daf768f	0.08567535
67	0x3d0fa1cb	0.035066407
68	0x3d87d698	0.066327274
69	0x3e04ba1a	0.12961617
70	0x3dd840c9	0.10559232
71	0x3de6c1d5	0.11267439
72	0x3e439dd3	0.19103174
73	0x3e13ed3c	0.14445966
74	0x3e6123de	0.21986338
75	0x3e1093d5	0.14118893
76	0x3d760d10	0.06007105
77	0x3de5b63e	0.112164006
78	0x3e3e6610	0.18593621
79	0x3e139c16	0.14415011
80	0x3e43433d	0.19068618
81	0x31219960	2.3515767e-09
82	0x320d3e39	8.221428e-09
83	0x306f23fb	8.6998825e-10
84	0x31539471	3.078892e-09
85	0x317146a9	3.5110281e-09
86	0x311cf46c	2.2839926e-09
87	0x31c46391	5.71567e-09
88	0x31f06fc5	6.997626e-09
89	0x31aa6a2a	4.9597206e-09
90	0x38fed32f	0.00012151
91	0x39176c66	0.00014440864
92	0x390e8997	0.00013593432
93	0x3934b9a5	0.00017235296
94	0x39bbb930	0.00035805395
95	0x39b7ca1a	0.00035055057
96	0x392323ef	0.00015558278
97	0x398ebcb6	0.0002722495
98	0x39b6a1c6	0.00034834276
99	0x3da1702e	0.07882725
100	0x3d8c2d70	0.06844604
101	0x3dc187a4	0.094496995
102	0x3d91fcb3	0.07128277
103	0x3d6cbdb4	0.057798102
104	0x3d971d99	0.07378692
105	0x3d92a669	0.071606465
106	0x3d81691f	0.063188784
107	0x3da7c89c	0.0819256
108	0x00000000	0.0
109	0x00000000	0.0
110	0x00000000	0.0
111	0x00000000	0.0
112	0x00000000	0.0
113	0x00000000	0.0
114	0x00000000	0.0
115	0x00000000	0.0
116	0x00000000	0.0
117	0x3f5a50ea	0.85279715
118	0x3f30f4c7	0.691235
119	0x3f47f79c	0.78112197
120	0x3f061c59	0.52387005
121	0x3dcab30d	0.098974325
122	0x3ea075cd	0.31339875
123	0x3f4e4117	0.8056807
124	0x3f238018	0.6386733
125	0x3f34ce27	0.70627064
126	0x3da9f1ee	0.082980976
127	0x3d8ae902	0.06782724
128	0x3da99a5c	0.08281395
129	0x3d5f73f4	0.05455394
130	0x3cfb6202	0.030686382
131	0x3d530189	0.051515136
132	0x3d8e4c15	0.06948105
133	0x3d85c0fb	0.06530949
134	0x3d9005ad	0.070323326
135	0x3d04756d	0.03233855
136	0x3d05d04a	0.032669343
137	0x3d1e1e41	0.03860307
138	0x3d0fa271	0.035067026
139	0x3ceb5e4a	0.028731484
140	0x3cfd2cb7	0.03090511
141	0x3d070444	0.032963052
142	0x3cffd85c	0.031231098
143	0x3d160ed9	0.036635254
144	0x3b18c6e9	0.002331192
145	0x3b46e0e7	0.0030346455
146	0x3b453fff	0.003009796
147	0x3b3ce65e	0.0028823833
148	0x3b8fa8e0	0.004384145
149	0x3b8df8ca	0.0043326365
150	0x3b0f02ba	0.0021821694
151	0x3b69e32f	0.003568839
152	0x3b835ba1	0.0040087258
153	0x3f86cb03	1.0530704
154	0x3f4bbcb0	0.7958479
155	0x3f8424ce	1.0323732
156	0x3f1647ed	0.587035
157	0x3cc05ca9	0.023481684
158	0x3ea700e0	0.32617855
159	0x3f7d5348	0.989552
160	0x3f3d356d	0.73909646
161	0x3f6c0b06	0.9220432
162	0x3d2ef9e1	0.04271877
163	0x3d1432ff	0.036181446
164	0x3d58e032	0.052948184
165	0x3d012866	0.031532668
166	0x3cc1ecc2	0.023672465
167	0x3d0bfc60	0.03417623
168	0x3d17cd37	0.037060943
169	0x3d149c58	0.036281914
170	0x3d2dd00f	0.04243475
171	0x3dc1601b	0.09442159
172	0x3dbce5ec	0.092235416
173	0x3dc03502	0.093851104
174	0x3da711f2	0.0815772
175	0x3d8aa9ce	0.06770669
176	0x3dae5c39	0.08513684
177	0x3dc255ff	0.09489059
178	0x3dbfe2fb	0.09369465
179	0x3dbe10e5	0.09280566
180	0x3e444bb4	0.19169503
181	0x3e1dd858	0.1541456
182	0x3e666d28	0.22502577
183	0x3e149607	0.14510356
184	0x3db660ac	0.089051574
185	0x3e0aadea	0.13542905
186	0x3e34638c	0.17616099
187	0x3e1a3395	0.1505874
188	0x3e46c12e	0.1940963
189	0x00000000	0.0
190	0x00000000	0.0
191	0x00000000	0.0
192	0x00000000	0.0
193	0x00000000	0.0
194	0x00000000	0.0
195	0x00000000	0.0
196	0x00000000	0.0
197	0x00000000	0.0
198	0x37e110fe	2.6830003e-05
199	0x38969142	7.179614e-05
200	0x38a4d418	7.859635e-05
201	0x37cdf7fc	2.4553381e-05
202	0x38c025dd	9.162326e-05
203	0x38ac8cdd	8.227837e-05
204	0x38331dba	4.270461e-05
205	0x3882e406	6.241356e-05
206	0x3885a801	6.3732274e-05
207	0x1ba473e4	2.7206417e-22
208	0x26b811b5	1.2772364e-15
209	0x27329c2f	2.478713e-15
210	0x2c3046e5	2.5050459e-12
211	0x2b516bb4	7.4401184e-13
212	0x2c677056	3.2889433e-12
213	0x2a023c0e	1.1567155e-13
214	0x2af8ad1e	4.4173774e-13
215	0x2c74fcff	3.4814927e-12
216	0x3d7945cb	0.060857575
217	0x3d4d91e9	0.05018798
218	0x3d4773f2	0.04869456
219	0x3d48b3e8	0.048999697
220	0x3ce23384	0.027612455
221	0x3d150523	0.036381852
222	0x3d7e1a80	0.06203699
223	0x3d58b268	0.052904516
224	0x3d63326c	0.055468008
225	0x3ee6a10e	0.4504475
226	0x3ec32db5	0.3812081
227	0x3ed1b2bf	0.40956685
228	0x3e966f4b	0.29381785
229	0x3d9d2c4d	0.07674465
230	0x3e44533b	0.19172375
231	0x3ee24807	0.44195578
232	0x3eb2c664	0.34916985
233	0x3ec36974	0.38166392
234	0x3f1a7381	0.60332495
235	0x3ee49e34	0.4465195
236	0x3f106214	0.56399655
237	0x3eb74f00	0.3580246
238	0x3ca68104	0.020325191
239	0x3e35410a	0.17700592
240	0x3f12ad0d	0.57295305
241	0x3ed9a627	0.42509577
242	0x3f06838d	0.5254448
243	0x3b6e4b69	0.0036360866
244	0x3b63f624	0.0034784162
245	0x3b69cb62	0.0035674204
246	0x3b89a457	0.004200499
247	0x3b9881fc	0.004654167
248	0x3b7cd26b	0.0038577567
249	0x3b8a7509	0.0042253775
250	0x3b88f860	0.004179999
251	0x3b8af74a	0.004240905
252	0x361b8892	2.3176294e-06
253	0x371e62d2	9.440542e-06
254	0x36051462	1.9830409e-06
255	0x3610fbac	2.1604164e-06

exp_avg f4 [64]
0	0xafebd1a4	-4.289521e-10
1	0x30178f4f	5.5137134e-10
2	0xac6194fa	-3.2057122e-12
3	0x31905068	4.2000927e-09
4	0x2f1e6605	1.4406261e-10
5	0xafdf2da4	-4.0595893e-10
6	0xb07ae09d	-9.1268665e-10
7	0x308cd150	1.0245831e-09
8	0x30bacca2	1.3591441e-09
9	0x2fbafef8	3.401437e-10
10	0x305342de	7.6856377e-10
11	0xb085a398	-9.72352e-10
12	0xaff1270f	-4.3865397e-10
13	0x2ede3c86	1.0106142e-10
14	0x31a0ef90	4.683848e-09
15	0xaf7cbde5	-2.298673e-10
16	0x30b5a032	1.3215014e-09
17	0x305ea604	8.099905e-10
18	0xaf5af263	-1.9913098e-10
19	0xae2a4f39	-3.872389e-11
20	0xb0a02a16	-1.1653494e-09
21	0xaf02713f	-1.1863664e-10
22	0x31973358	4.4005155e-09
23	0xb11d2d80	-2.287237e-09
24	0xb158563d	-3.1481158e-09
25	0xafb8e0a4	-3.3629022e-10
26	0xb1069a80	-1.958739e-09
27	0x2d7eaf33	1.447713e-11
28	0x30922555	1.0633509e-09
29	0xb084ff08	-9.676748e-10
30	0xb0595bea	-7.907476e-10
31	0x30b11b20	1.2886154e-09
32	0x311076c9	2.102228e-09
33	0x3096d7a7	1.0975229e-09
34	0x304b2fc2	7.391884e-10
35	0xafb152de	-3.2254993e-10
36	0xafe48e4e	-4.1574072e-10
37	0x310d9fdc	2.060907e-09
38	0x30bc2bd0	1.3691253e-09
39	0xb0037e01	-4.7836585e-10
40	0x3117d2a9	2.2093138e-09
41	0x30bf85d1	1.3935112e-09
42	0xb161b0e8	-3.2842369e-09
43	0xb0ffe855	-1.8619725e-09
44	0x300bfc14	5.092613e-10
45	0xb1294292	-2.4630578e-09
46	0x2f67e1d5	2.1089559e-10
47	0xafac2ca2	-3.131833e-10
48	0x30efb19b	1.7440017e-09
49	0xb0a24c9e	-1.1808827e-09
50	0xb08636bd	-9.765341e-10
51	0xae8f3f33	-6.5141136e-11
52	0x3044a08a	7.1532524e-10
53	0xb02984a5	-6.167034e-10
54	0xb0313128	-6.446208e-10
55	0x31c22ce5	5.651247e-09
56	0xb029d7de	-6.178861e-10
57	0xae94a9a2	-6.7603936e-11
58	0xb113dd79	-2.1517208e-09
59	0xafd208c7	-3.8205014e-10
60	0xb084f2eb	-9.673305e-10
61	0xb120d167	-2.3402096e-09
62	0x30104489	5.248429e-10
63	0x30bee4e9	1.388938e-09

exp_avg_sq f4 [64]
0	0x2a2f8d53	1.5592154e-13
1	0x29491011	4.46449e-14
2	0x29a9b8e1	7.537179e-14
3	0x2a153535	1.3252318e-13
4	0x29ebe59d	1.0475928e-13
5	0x29664041	5.112599e-14
6	0x2a19913d	1.363952e-13
7	0x2981160a	5.732574e-14
8	0x29755825	5.447738e-14
9	0x29aa56bf	7.5645646e-14
10	0x29e97dc6	1.0369097e-13
11	0x299f0d8e	7.06337e-14
12	0x2a4f6496	1.8420191e-13
13	0x29339908	3.9878718e-14
14	0x29a9c0fd	7.538586e-14
15	0x29e2ef6b	1.00779485e-13
16	0x29c0c975	8.56146e-14
17	0x29b83b5b	8.181538e-14
18	0x293222a8	3.9554e-14
19	0x2a21348a	1.4317901e-13
20	0x29c77e46	8.85928e-14
21	0x29945bdc	6.5884554e-14
22	0x299d5d4f	6.988387e-14
23	0x293beca2	4.1727587e-14
24	0x2a4dc609	1.8276365e-13
25	0x29d488b8	9.438408e-14
26	0x2962c530	5.0353114e-14
27	0x29cfa7ad	9.221734e-14
28	0x295b8fbd	4.875244e-14
29	0x29544d67	4.7140592e-14
30	0x2999f1c1	6.8365025e-14
31	0x28daecc8	2.430555e-14
32	0x29a01ee3	7.1107853e-14
33	0x2912afa8	3.257087e-14
34	0x29937cb7	6.549746e-14
35	0x294df24d	4.5729306e-14
36	0x29978dac	6.730323e-14
37	0x2a33967b	1.5950602e-13
38	0x29ce757d	9.168619e-14
39	0x2a28c09f	1.4988226e-13
40	0x294d97e3	4.5650885e-14
41	0x2913f30f	3.2851377e-14
42	0x2a07608f	1.2023909e-13
43	0x29d43bc7	9.425061e-14
44	0x2a2bc346	1.52556e-13
45	0x2a207be0	1.4253832e-13
46	0x2a25540f	1.4684108e-13
47	0x299931f7	6.8032324e-14
48	0x2921ff48	3.5970603e-14
49	0x2979b4bb	5.5445865e-14
50	0x29a3fb3e	7.282238e-14
51	0x2a78bc92	2.2092248e-13
52	0x29afad44	7.801618e-14
53	0x29ff93a6	1.1349888e-13
54	0x2a34d03b	1.6059456e-13
55	0x29e24d11	1.0049785e-13
56	0x293ed40f	4.2372406e-14
57	0x29951b4f	6.6216665e-14
58	0x29f23ec0	1.0757844e-13
59	0x29933ca8	6.5386336e-14
60	0x2a3f23e9	1.6976667e-13
61	0x29980942	6.751762e-14
62	0x299ca9df	6.9572596e-14
63	0x2995e7ba	6.6571274e-14

exp_avg f4 [64]
0	0x39ce6ba3	0.00039371577
1	0xb9a7990c	-0.0003196675
2	0x3a3a9ac0	0.00071183965
3	0xb9461199	-0.00018889307
4	0xb8a1c7a4	-7.714264e-05
5	0x38e4d2c4	0.000109111454
6	0xb92e662e	-0.00016631998
7	0x3a202dd8	0.0006110347
8	0x3a549e8c	0.00081107835
9	0x369e4cde	4.7177155e-06
10	0xb8698fa0	-5.568529e-05
11	0xb989c86e	-0.00026280008
12	0x399a51df	0.00029434168
13	0x3a354c75	0.0006915995
14	0x3a1e195e	0.00060310017
15	0xb902a45d	-0.00012458996
16	0x39f769d9	0.00047190374
17	0x392297be	0.00015506052
18	0xb9584b3f	-0.00020627397
19	0x38d453f8	0.00010124588
20	0xb9c02c06	-0.00036653894
21	0x378628ef	1.5993106e-05
22	0xb966c682	-0.00022008459
23	0xb950fc8e	-0.0001993051
24	0xb954a31c	-0.00020278658
25	0x391132b2	0.00013847163
26	0xb9c04b52	-0.00036677212
27	0xb8ee6822	-0.000113681206
28	0x3a4bc934	0.0007773817
29	0x3891c1f9	6.950269e-05
30	0x390541fb	0.00012708448
31	0xb92955fe	-0.0001614913
32	0xb928f350	-0.0001611237
33	0xb9062a22	-0.00012794932
34	0xb9147932	-0.00014159529
35	0xba2440b9	-0.0006265748
36	0xb85e7e4b	-5.3046544e-05
37	0x3995bb4b	0.0002855904
38	0xb91bc4fb	-0.00014855333
39	0x39e41971	0.00043506504
40	0xb98fb87f	-0.00027412546
41	0x39b2124d	0.0003396444
42	0x38deda99	0.00010626502
43	0xb999f016	-0.00029361312
44	0xb7bf1583	-2.2778991e-05
45	0x39ca7a0d	0.00038619377
46	0x39e292f5	0.0004321557
47	0xb89b850c	-7.415758e-05
48	0x39d37474	0.0004033182
49	0x3971ca0a	0.00023058816
50	0x384b1c94	4.8425587e-05
51	0x3a211a64	0.0006145595
52	0xb8db9bf0	-0.000104717794
53	0x39045f09	0.00012623904
54	0x38a26ab2	7.7446355e-05
55	0x399a462f	0.0002942546
56	0x399bdd0f	0.00029728605
57	0xb8acb8a7	-8.235993e-05
58	0x38e69263	0.00010994521
59	0xb9b839f8	-0.00035138405
60	0x39d23853	0.00040096286
61	0xba010efc	-0.00049231923
62	0xb5abf4c7	-1.2811732e-06
63	0x37f7403b	2.9474604e-05

exp_avg_sq f4 [64]
0	0x3b3397c1	0.0027403685
1	0x3ba588e7	0.0050517204
2	0x3b9fad3b	0.0048729456
3	0x3b6d96d2	0.0036253226
4	0x3b422875	0.0029626165
5	0x3b5fc1dc	0.0034142649
6	0x3b2be440	0.0026228577
7	0x3c280c00	0.010256767
8	0x3b45c528	0.0030177329
9	0x3b140e8d	0.002259168
10	0x3b1fd753	0.0024389818
11	0x3b057912	0.0020366353
12	0x3b5c1a10	0.003358487
13	0x3b92a284	0.00447494
14	0x3b32b693	0.0027269467
15	0x3b41f229	0.0029593802
16	0x3b68eccd	0.0035541535
17	0x3b049cb9	0.0020235016
18	0x3b2ec173	0.0026665598
19	0x3b055f5d	0.002035103
20	0x3b2a190d	0.0025954873
21	0x3ab46cb2	0.0013765304
22	0x3b8a7e08	0.00422645
23	0x3b205215	0.0024462987
24	0x3ba87a3b	0.005141524
25	0x3b222395	0.0024740447
26	0x3bf43472	0.007452541
27	0x3b566923	0.0032716475
28	0x3b2de94b	0.0026536759
29	0x3b4df3cd	0.0031425834
30	0x3b3405e5	0.0027469334
31	0x3ace1810	0.0015723724
32	0x3adcc986	0.0016844727
33	0x3b6c717c	0.0036078384
34	0x3b8e9684	0.004351439
35	0x3b87d6c1	0.0041454737
36	0x3b5ba90b	0.0033517506
37	0x3b176de2	0.0023106267
38	0x3b3afb36	0.002853108
39	0x3bdf37bf	0.0068120654
40	0x3b41072b	0.0029453735
41	0x3b107a0c	0.0022045402
42	0x3b7ea994	0.00388584
43	0x3b85a878	0.004078921
44	0x3b146ae1	0.0022646713
45	0x3b380199	0.0028077124
46	0x3b3f9520	0.0029233173
47	0x3b00cbef	0.0019652804
48	0x3ba383fd	0.0049900995
49	0x3b3e84a1	0.0029070752
50	0x3b5bc5ff	0.0033534763
51	0x3b59f736	0.0033258921
52	0x3b556a7f	0.0032564697
53	0x3b40776f	0.0029368063
54	0x3b4b2be5	0.0031001505
55	0x3b02e8b0	0.0019975118
56	0x3ae6263f	0.0017559006
57	0x3b1032b2	0.0022002873
58	0x3b1f6caa	0.0024326243
59	0x3c01297c	0.007883426
60	0x3bdc5171	0.0067235758
61	0x3b1b7783	0.0023722358
62	0x3b4a4583	0.0030864186
63	0x3b6e2b46	0.003634171

exp_avg f4 [64]
0	0x393bd39d	0.00017912542
1	0xb94ef1db	-0.00019735789
2	0x3a90aa48	0.0011037076
3	0xb91d1f9e	-0.00014984465
4	0xb8080093	-3.242546e-05
5	0xb7908443	-1.7227727e-05
6	0xb9f5575c	-0.0004679513
7	0x3a02d394	0.0004990634
8	0x3a51dcfe	0.00080056477
9	0xb96be8e5	-0.00022498106
10	0xb9c434d1	-0.00037423384
11	0xb9c48ede	-0.00037490478
12	0x39a11a39	0.0003072785
13	0x3a30793b	0.0006731932
14	0x39c9168d	0.0003835451
15	0xb8fe9a37	-0.000121403886
16	0xb711353b	-8.655067e-06
17	0xb8bfa708	-9.138702e-05
18	0x3904d272	0.00012666898
19	0xb9161085	-0.00014311269
20	0x3800cfdc	3.0711162e-05
21	0x39041446	0.00012596053
22	0xb959eddb	-0.00020783341
23	0xba235ebb	-0.00062320725
24	0xba2f032d	-0.00066761934
25	0x392a55a3	0.00016244366
26	0xba3074ad	-0.0006731253
27	0x38eb71bd	0.000112268586
28	0x3a0787eb	0.00051700947
29	0xb79a1b24	-1.8370869e-05
30	0x38e443af	0.00010884494
31	0xb8eade22	-0.00011199365
32	0xb9a12bbd	-0.000307409
33	0xb8b12ccf	-8.448364e-05
34	0xb98186e2	-0.00024705293
35	0xba81dc21	-0.0009907522
36	0xb988ed36	-0.00026116677
37	0x39268a57	0.00015882529
38	0xb9e36b96	-0.00043376972
39	0x3a07de44	0.00051829615
40	0xb9ee6b72	-0.0004547495
41	0x39aab2b9	0.00032558086
42	0xba27f993	-0.0006407734
43	0xba54e2a6	-0.00081209315
44	0x3827f11e	4.004046e-05
45	0x3a4323f9	0.000744402
46	0x3962e6f9	0.00021639084
47	0xb9311297	-0.0001688696
48	0x39d4692e	0.00040514156
49	0x38f316d3	0.00011591394
50	0x39919fe1	0.00027775674
51	0x3a2112e9	0.00061444804
52	0xb9189ceb	-0.00014554306
53	0xb86641c5	-5.4897526e-05
54	0xb98248a1	-0.00024849645
55	0x3988a6ab	0.0002606412
56	0xb993cd5a	-0.00028191024
57	0xb842e42b	-4.6465702e-05
58	0x3996df97	0.00028776817
59	0xb9705493	-0.0002291969
60	0x39fd33d5	0.00048294538
61	0xb9f80aef	-0.00047310392
62	0xb9995b14	-0.00029250293
63	0xb8b06fd9	-8.413167e-05

exp_avg_sq f4 [64]
0	0x3b32a773	0.0027260452
1	0x3b99b15b	0.004690332
2	0x3bbab754	0.005698124
3	0x3c05a043	0.008155885
4	0x3bc457a5	0.0059918934
5	0x3b630621	0.0034641104
6	0x3bbeb4b6	0.0058198823
7	0x3c2078b9	0.0097944075
8	0x3b8166e8	0.003949035
9	0x3b1bd53d	0.0023778223
10	0x3b6ab1b2	0.003581148
11	0x3b4c9fe1	0.0031223225
12	0x3b6265a8	0.0034545455
13	0x3b6999c2	0.0035644625
14	0x3b612f90	0.0034360625
15	0x3bb62b64	0.005559372
16	0x3bb55823	0.0055341884
17	0x3b307e7b	0.0026930857
18	0x3b55a1ac	0.0032597585
19	0x3b34b548	0.0027573872
20	0x3b44ee3a	0.003004922
21	0x3adf662d	0.0017044
22	0x3b479898	0.0030455943
23	0x3b878e2f	0.0041368227
24	0x3c39ba48	0.011335917
25	0x3b55bc8f	0.003261361
26	0x3c1e0e36	0.009646943
27	0x3b80dc3e	0.003932505
28	0x3b64f219	0.003493434
29	0x3b80c61a	0.0039298655
30	0x3b6df0b9	0.0036306812
31	0x3b1ac651	0.002361674
32	0x3b2736e2	0.002551489
33	0x3bd8d2ff	0.0066169496
34	0x3bc46fdf	0.0059947814
35	0x3bd1ac00	0.006398678
36	0x3b8fb375	0.0043854066
37	0x3b081be1	0.002076857
38	0x3b947e41	0.004531652
39	0x3c24bd29	0.010054865
40	0x3b47a0de	0.0030460875
41	0x3b33f8e0	0.0027461573
42	0x3c079f0d	0.008277667
43	0x3bd72399	0.006565523
44	0x3b137684	0.002250106
45	0x3ba5da4d	0.005061424
46	0x3b8d6c1d	0.0043158666
47	0x3b148edc	0.0022668159
48	0x3be7381a	0.0070562484
49	0x3b7eabfb	0.0038859833
50	0x3b8faefb	0.004384873
51	0x3ba995d1	0.00517533
52	0x3b97cad0	0.0046323314
53	0x3b3b680c	0.0028595952
54	0x3bc42296	0.0059855683
55	0x3b0e1b49	0.0021683744
56	0x3afa951e	0.0019117927
57	0x3b4870bf	0.003058478
58	0x3b1f583d	0.0024314069
59	0x3c398de9	0.011325338
60	0x3c28d62b	0.010304968
61	0x3b681acd	0.0035416365
62	0x3b8073ee	0.00392007
63	0x3b930366	0.004486489
