checkpoint_decoder/check_point_2021_10_10_03:57:50/check_point_2021_10_10_03:57:50_epoch_40.pth (torch, 452917 bytes, 20 tensors)

conv1.weight f4 [64, 32, 3, 3]
00000000: c99f 85bc e0c9 bfbd 42de 3dbc a92e 1b3e
00000010: fe29 2fbb 2283 a1bb d99e d1bc 64d7 2f3d
00000020: 93d8 6f3d 29ca 04be 15ea e6bb 9005 e83d
00000030: 2626 0a3c 88ac 1d3e b31f 123e 4170 0abe
00000040: 9e38 8bbd 0129 15be 9ab5 813c f072 a5bc
00000050: 589c f2bc 82b8 dfbc 1993 3a3d b985 8d3c
00000060: d8cb 893d 7ac0 35bd ff13 a9bc 361f b73d
00000070: 3493 a03d 4160 71bc 31ac 8fbc cb9f 08bd
00000080: ea9a 263c e0ba 97bc 6143 57bc e51a 063d
00000090: 66fd fbba 6266 cabc 8934 093d eca0 563a
000000a0: 2a51 a6bd 1bf0 14bd 3206 833c 354f 913c
000000b0: 14ea 84bc 6a72 f93d bb78 3abd 00f5 d2bd
000000c0: 3016 18bc fdef 1ebe f007 013f e51d 4bbe
000000d0: fe72 05be 7ab5 c43b f501 193d 9e15 a4bd
000000e0: 66ba 47bd 28ff 31bd 16b4 0b3d a25b bc3d
000000f0: 9f6e 92bd 48e4 0bbd 6bc5 293d 9a8b 79bd
00000100: 6d71 1f3c debc 0a3d c4e4 913c 8f40 593c
00000110: b44a 853d af23 00bd e0f7 303d 9f9e d73c
00000120: d767 0abe c95b 083c 2e30 bfbc e948 8c3d
00000130: 93be 57bd 51cb a8bc a31d 04bc bba7 a33c
00000140: 7a70 013d eb80 563d ae12 cbbc fc08 873c
00000150: d9c4 473d 8393 063d d40d 06bd bb6d 5f3c
00000160: 4ab3 f73d f165 e9bc 18ef 433e eac7 233d
00000170: 0420 a33d e410 ad3d f5c8 853d 5d37 2e3e
00000180: 5fa9 903c d2ac 4b3e 0421 c43d dcaa 6b3d
00000190: 01a4 4b3d 7eae 9c3d 8d6f fcbc 60e8 953a
000001a0: e7eb cebc 9127 4abd 260b 3b3d 213a dfbd
000001b0: ced1 c9bc 9342 a83c e404 42bc fcc5 4e3c
000001c0: 844a 44bc b9f1 133d 8a0e 503d fe00 46bd
000001d0: 8ac6 2d3d 0db6 2b3d 2c30 35bd 5d2e c1bc
000001e0: b76a bdbc ac17 3b3d 3670 1abd f0a8 a6bb
000001f0: 9640 c93c 5cdd 2dbd 862b ab3d 222a 2c3e
00000200: cb49 7c3e b6b5 75bc 54f1 7a3c d29c bdbd
00000210: 3a78 6abe f36c 5b3c d225 2dbe 1c05 85bd
00000220: 12be ecbc cb0b 613d 1f38 e7bd 76d3 4dbb
00000230: cbb3 6cbd f0a5 54bd f1e4 a1bd 43b5 d9bd
00000240: d2cd 64bd 4165 0ebe d18b 19bd 1be0 b3bd
00000250: 2ae5 663d c324 4cbd 4be7 4dbe 20fd b8bd
00000260: ee9d b9bd 4416 483c 14dc 1f3d 3729 dbbc
00000270: 0684 9dbc 21b7 a5bd 04e3 823d 0eae 1cbd
00000280: e2ef 65bc ae9f e43d 79d2 a7bc d639 013e
00000290: dcf7 713e d694 093c 6bfc 21bd 6edf 063e
000002a0: 4ea1 20be 74fa cf3d 1e19 ffbd 6a24 9b3d
000002b0: eaac a2bd a876 e2bc 0f25 94bc 9f7c c73d
000002c0: f922 eaba bf56 19bd 830b 213c 4564 953d
000002d0: 7db0 ddbc e31d 31bd 8b64 51bd c311 8d3c
000002e0: 58f4 cbbc 85e3 9fbc c6a8 70bd 9430 c53c
000002f0: 3b61 953d 37eb 37bd 040d 4ebd ac41 6c3c
00000300: 04c0 70bd 0cbd 003d 6184 2cbd a1c2 6bbc
00000310: bf04 5f3a 4473 70bc 52ac 9d3a 6e1e 933d
00000320: 67e1 973e 3bc2 33be a7e9 db3e c3b6 a33d
00000330: aacd 00be 454f 3bbe 3e0a e73c be65 cebb
00000340: 7a3f e13d 815f 8fbd ae9e 5dbd e7a7 d0bc
00000350: 4742 f6bc 1964 9dbc e67d ccbc 11c7 f1bc
00000360: 5dba 35be 904f 16be 03bb b8be c5e2 a23c
00000370: f6ac 54bd b74f 6abc 99ad 373e 02ee 3e3c
00000380: 276f 2e3d aaa0 383d 057c 2e3c 817c 05bd
00000390: de41 283d 20d8 a03d e2ba 87bc c5b7 843c
000003a0: 41ed 8abc b096 613c 85a6 b8bd fce3 a33d
000003b0: 9bac 8bbd 65c4 dfbc 6672 dd3d 7d53 023d
000003c0: 6667 823d c9b3 c3bd d450 07bd 6b11 f03d
000003d0: 2778 0d3d 6dd4 393e f8db 86bd c60a 2a3d
000003e0: 967d 6c3e c621 0cbd 0238 90bd e942 61bd
000003f0: 67c4 5f3d 011a 5a3e f81e a6be 911c 96be
-0.016311543 -0.093646765 -0.011588635 0.15154518 -0.002672791 -0.0049289623 -0.02558844 0.042930022
0.05855615 -0.12967743 -0.0070469477 0.11329186 0.008431947 0.15397847 0.14269905 -0.13519384
-0.06797908 -0.14566423 0.015833665 -0.020196408 -0.029615566 -0.02730966 0.04555044 0.017275678
0.06728333 -0.044373013 -0.020639418 0.089415 0.07840577 -0.014732421 -0.017538162 -0.033355515
0.01016877 -0.018521726 -0.013138623 0.032740492 -0.0019225299 -0.024707023 0.033497367 0.00081874314
-0.081209496 -0.036361795 0.015994165 0.017737964 -0.016224898 0.12180026 -0.045525294 -0.10300636
-0.009282634 -0.15521236 0.50402737 -0.19835623 -0.13032147 0.006003079 0.037355382 -0.08011936
-0.048761748 -0.043456227 0.03410729 0.09197165 -0.071500055 -0.034153253 0.041448038 -0.06092415
0.009731633 0.033871524 0.01780928 0.013260021 0.06508389 -0.03128403 0.043205142 0.026320754
-0.13516174 0.008322665 -0.023338404 0.06849844 -0.05267198 -0.020604761 -0.008063707 0.019977441
0.031601407 0.05236904 -0.02478918 0.016483776 0.048771713 0.032855522 -0.03272803 0.013637002
0.120947435 -0.028490992 0.19134176 0.039985575 0.07965091 0.08450487 0.0653247 0.17013307
0.017658887 0.19890144 0.0957661 0.05753599 0.049716953 0.07650469 -0.03081491 0.0011437051
-0.025258971 -0.04935414 0.04566493 -0.10899759 -0.024636175 0.020539558 -0.011841986 0.012620445
-0.011980657 0.036119197 0.050795116 -0.04834079 0.04242567 0.041921664 -0.044235393 -0.023581678
-0.023122175 0.045676872 -0.03770467 -0.005086057 0.02456693 -0.042447433 0.08357911 0.16812947
0.24637525 -0.014996937 0.015316326 -0.09258427 -0.22897425 0.013392675 -0.16908959 -0.06495115
-0.028899226 0.054942887 -0.11290001 -0.0031406558 -0.05778865 -0.051916063 -0.07904995 -0.10630276
-0.055860348 -0.13905813 -0.037486855 -0.08782979 0.05637089 -0.049839746 -0.20107763 -0.09032655
-0.09063326 0.01221234 0.039028242 -0.026753051 -0.019227993 -0.0809157 0.06390956 -0.03825193
-0.014034243 0.11163269 -0.020486103 0.12619719 0.23629707 0.008397302 -0.039547365 0.13171169
-0.15686533 0.10155192 -0.124559626 0.07575305 -0.07943137 -0.02764447 -0.018084077 0.097405665
-0.0017863206 -0.037436243 0.009829405 0.072945155 -0.027061695 -0.043241393 -0.051121276 0.017220384
-0.024896786 -0.01951767 -0.058754705 0.024071015 0.07293936 -0.044902053 -0.05030538 0.014419954
-0.05877687 0.03143029 -0.042118434 -0.014389665 0.0008507482 -0.014675919 0.0012029505 0.071835384
0.29664156 -0.17554562 0.429517 0.079938434 -0.12578455 -0.18291958 0.028203126 -0.0062987497
0.10998435 -0.07000638 -0.054106407 -0.025470687 -0.0300609 -0.01921277 -0.024962377 -0.029513868
-0.17746873 -0.14678788 -0.3608018 0.019883523 -0.05192276 -0.014301232 0.17937316 0.011653425
0.042586472 0.045075096 0.010649686 -0.03258944 0.04107844 0.078537226 -0.016568605 0.01620091
-0.016958835 0.013768837 -0.09016136 0.08002469 -0.06820031 -0.027315328 0.108128354 0.031817902
0.06367378 -0.09555776 -0.033036068 0.11722072 0.034538414 0.1814744 -0.065849245 0.04151418
0.23094782 -0.034211896 -0.07041933 -0.05499545 0.054630663 0.21298982 -0.32445502 -0.2931867

conv1.bias f4 [64]
00000000: 4efe e2bb 2900 5cbc f0fe 26be f7c4 2bbd
00000010: 1ff1 c73c a0ee 39be 6fe2 433d 7f4a 60be
00000020: 5b09 efbd 21bc 1cbd ee19 cf3d 77fb 41bd
00000030: 5e5f 363e 8ab8 a1bc 1a16 b93d 6f2f d4bc
00000040: 8cd7 a1bd 9b73 15be 9388 c83d 72a6 c0bc
00000050: d57a 7c3c db06 a53e b4bf dfbd 909d 793d
00000060: ef9d b03d af15 e7bd 1968 d63d 3cb1 1fbd
00000070: 2d13 63bd c4b4 36be 69c7 343e ce18 ed3d
00000080: 58d3 0bbd 5af3 f5bd d032 bf3d 4dd7 cbbd
00000090: 6b93 49be 4799 82bc 4d1e a2bd 9a3e 1dbe
000000a0: 1869 05be 5220 dc3d 3183 cbbc 1e14 993c
000000b0: d37b 073c d2ff 043c c9c7 683c 6f13 933d
000000c0: cf34 d4bb 5ef0 08be 7653 0c3c 7a38 76be
000000d0: f13b 9f3d 0163 46bd a380 763b e193 3c3c
000000e0: 655f a03d 555d b33d 086e 25bd 498d 103c
000000f0: b080 593d adb2 0dbd 2a9c 1bbe ae7c 523c
-0.006927288 -0.013427773 -0.16308188 -0.041935887 0.024406968 -0.18157434 0.047823366 -0.21903418
-0.11671706 -0.03826535 0.101123676 -0.047358956 0.17809817 -0.019741315 0.09037419 -0.025901524
-0.079024404 -0.14594881 0.097916745 -0.023516867 0.015410145 0.32231793 -0.10925236 0.06094128
0.086238734 -0.11283433 0.10469074 -0.038987383 -0.05543821 -0.17842394 0.17654194 0.11576997
-0.0341371 -0.12009306 0.093358636 -0.09953175 -0.19685142 -0.015942229 -0.07915936 -0.15355912
-0.13028371 0.10748352 -0.02484283 0.01868635 0.008269268 0.008117633 0.014207789 0.07181441
-0.006476022 -0.13372943 0.0085648205 -0.24044982 0.07775105 -0.04843426 0.0037613295 0.011509866
0.07830695 0.08758036 -0.040388137 0.0088227475 0.05310124 -0.034594227 -0.1519629 0.012847109

bn1.weight f4 [64]
00000000: 874d 2340 7e65 1640 5ed1 0f40 e4dc 2640
00000010: 044b 3c40 ac17 4740 2232 3540 9859 0140
00000020: e2df 3440 b04a 4e40 ece3 3640 4615 3340
00000030: e459 6240 cb66 1940 28fe 4040 bec3 1c40
00000040: 1a6b 2a40 bcba 2740 59b7 3340 00b2 4340
00000050: aff6 3240 a05f 4140 d0db 2d40 8124 3640
00000060: 3436 1040 8a4a 4440 eb6b 1240 16f4 4d40
00000070: 3bec 1b40 a813 2040 f8b3 3640 d0e9 2740
00000080: bca0 3c40 91da 1640 2aa5 2140 2e91 0340
00000090: 3e83 3f40 4d7c 4140 4b24 4340 dc8b 1d40
000000a0: 7abf 1f40 addc 3140 77ad 2240 36dd 2140
000000b0: e68c 5940 1f0c 2640 bd1c 3240 819d 3c40
000000c0: b473 2a40 7aba 3640 b1c6 1840 4a70 3240
000000d0: bbcb 2040 02ff 3640 6a80 4240 d4a9 4440
000000e0: aa7b 2c40 ee9e 3040 bcdd 3740 6440 1340
000000f0: ed5d 1e40 8d67 2340 2bf9 1b40 0a45 2740
2.551607 2.3499446 2.2471538 2.607232 2.9420786 3.1108198 2.8311849 2.0210934
2.8261647 3.2233086 2.8576612 2.7981734 3.5367365 2.396899 3.0155125 2.4494472
2.662787 2.6207724 2.8080657 3.0577393 2.7963064 3.0214615 2.7165413 2.845978
2.2533083 3.0670495 2.2878368 3.2180228 2.4362934 2.5011997 2.8547344 2.6236458
2.9473104 2.3570902 2.5257058 2.055736 2.9923854 3.0232117 3.0490901 2.4616613
2.4960618 2.779094 2.5418375 2.5291266 3.3992248 2.5944898 2.783004 2.9471133
2.663312 2.8551316 2.3871272 2.7881036 2.5124347 2.8593144 3.0390878 3.0728655
2.6950479 2.7597003 2.8729086 2.300805 2.4744828 2.5531952 2.437083 2.6135888

bn1.bias f4 [64]
00000000: 6ca3 5d3f 09a5 1f3f 4747 e93e c6be 2b3f
00000010: a422 2a3f f42e ac3e 3627 573f 84a0 843e
00000020: fad8 323f 2c3f 353f 0263 283f 428c 3c3f
00000030: c5d7 4d3f c0b4 043f 957e 813f c4bd e13e
00000040: 4e39 203f 66df 1e3f 1b78 1b3f 2aca 6f3f
00000050: ba27 f43e 89ce 693f 50a8 183f 4488 353f
00000060: a9b1 c73e 20da 703f c579 b53e 6984 3a3f
00000070: d988 173f d09b f13e 30f2 343f 5fe0 ad3e
00000080: 0554 1d3f e573 bf3e 0290 233f a722 e03e
00000090: 0301 f13e c897 913f e70a 173f 0139 e03e
000000a0: 4e02 3e3f 9668 1f3f b541 eb3e 56c9 203f
000000b0: 328f 9c3f b1d5 103f 31bd 423f 0b9e 703f
000000c0: f353 be3e 504b 023f 4177 0c3f 7a76 143f
000000d0: 3e66 173f a9d9 683f e6c4 3f3f b401 5a3f
000000e0: 29f7 493f 469d 253f b683 273f 4742 9e3e
000000f0: 0e13 053f d033 0a3f 79e9 343f cd9f e13e
0.86577487 0.623612 0.45562193 0.6708797 0.6645911 0.33629572 0.84044206 0.25903714
0.6986233 0.7079952 0.65776074 0.73651516 0.80407363 0.518383 1.0116755 0.44090092
0.6258744 0.6205963 0.6073014 0.9366785 0.4768656 0.9133077 0.59631824 0.7091105
0.3900273 0.9408283 0.35444465 0.7285829 0.5919319 0.47189188 0.7068205 0.33960244
0.6145633 0.37393108 0.63891613 0.43776438 0.47071084 1.1374445 0.5900101 0.4379349
0.74222267 0.6226896 0.45948568 0.62807214 1.22312 0.5657607 0.76069933 0.93991154
0.37173423 0.5089617 0.5486947 0.5799328 0.59140384 0.90957123 0.7490982 0.8515885
0.7889276 0.64693105 0.6543535 0.3090994 0.519822 0.5398531 0.7066875 0.4406723

bn1.running_mean f4 [64]
00000000: 0af9 86bc 1f3f 2dbd 5fd8 d1bb a084 58bd
00000010: 230f d63d 2471 683d 7b4d 383b 903d 09bd
00000020: 87f8 263d bc56 32bd 8023 b83c d991 a2bd
00000030: 50d1 5fbd a021 e3bd b54c 113d ba65 0bbd
00000040: 8f85 f1bc 9b24 a7bb cf98 39bd dcb9 61bd
00000050: bf9d 9c3c 901a 98bc eb1e 4c3e cd4a 4fbd
00000060: 90cb 03bc b7cf 9f3c b241 3bbd 63b1 e83b
00000070: 5b24 a5bd 957a 1ebd c958 17bd f0b1 a3bd
00000080: bf48 46bd 13bc cc3d 77e6 a73c 5502 89bc
00000090: d3f5 913d 63c3 23ba 6ef5 24bc 4e24 c73d
000000a0: 6446 313c a921 2d3d dba1 c0bd 1e0d 3ebd
000000b0: ccf2 513d 37f0 953d 9b16 813d b949 64bc
000000c0: 3683 d3bd 422d 87bc af44 a73d 0383 1f3d
000000d0: 41a4 c93b 3513 c1bd 0264 8f3d f0a6 80bd
000000e0: 901a 4bbc eb8a fbbd 9462 d13a 1b83 c63b
000000f0: 1633 cebc 9e5a 3fbb c774 7dbd 0825 9abc
-0.016476173 -0.042296525 -0.0064039673 -0.052860856 0.10452106 0.056748524 0.0028122354 -0.033505976
0.040764358 -0.043539748 0.022477865 -0.079379745 -0.054642975 -0.11090398 0.035473544 -0.03403256
-0.029482631 -0.0051007993 -0.045311745 -0.05510889 0.019118188 -0.018567353 0.1993367 -0.050608445
-0.008044139 0.019508226 -0.04571695 0.0071012243 -0.08063575 -0.038691122 -0.036949906 -0.07992923
-0.04840922 0.0999681 0.020495636 -0.016724745 0.071269654 -0.00062470714 -0.010068281 0.097237214
0.010820005 0.04226843 -0.094058715 -0.04639923 0.05125694 0.07321208 0.0630314 -0.0139335925
-0.10327761 -0.016501073 0.08167397 0.038943302 0.006153614 -0.094274916 0.07001497 -0.06281841
-0.01239647 -0.12282356 0.0015974813 0.0060581095 -0.025170844 -0.00291983 -0.061878946 -0.018816486

bn1.running_var f4 [64]
00000000: 3972 6d3a e245 563b 7c00 ad3b 02e5 c93a
00000010: ad1c 723b ae3a b43b cfe2 a83a 283b ba3b
00000020: 7ad2 633b 33b3 623b 6ba7 f83a 1243 0e3b
00000030: 00fd 8c3b a6dc 5e3b a97a 9e3a 33b5 1a3b
00000040: 1b95 153b 2719 183b 273b 813b 8df8 5e3a
00000050: 3692 043b b1d6 ba3b 1a46 cf3b ef79 a63b
00000060: 6adf d53a 33fc e43a 89ae 9a3b b33b cf3b
00000070: bd13 0d3b 49fd e43b da93 6f3b ab8d 913b
00000080: 62d9 b43a 7c27 173c 2cf1 003b 0b65 493b
00000090: 1a5c b33b 2904 183a 4ca1 bf3a 46be 5c3b
000000a0: 72cd bf3a e1fb 853b 4d5d 1b3b a604 e03a
000000b0: 66a3 a13a 2472 9a3a b6b6 103b fecb 043b
000000c0: 93d8 043c f787 5b3b 883c 013b a287 483b
000000d0: a2be 2c3b 32e8 5d3b 26bd 8a3a d266 0a3b
000000e0: 0df5 383b 87c6 573b 3cd0 e83a ad05 553b
000000f0: 71f0 b43a c15f 2e3b 649d 8c3b 7d7d 913b
0.0009057853 0.0032695462 0.0052795988 0.0015403333 0.0036943362 0.005500159 0.0012884977 0.0056833215
0.0034762905 0.0034591674 0.0018970793 0.0021707457 0.004302621 0.0034006028 0.0012090999 0.0023606538
0.002282447 0.0023208351 0.003943819 0.0008505665 0.002022875 0.0057018627 0.0063254954 0.0050804536
0.0016317193 0.0017470181 0.0047205132 0.0063242554 0.0021526658 0.0069882018 0.0036556632 0.004441937
0.0013797695 0.009225722 0.0019675 0.0030730392 0.005473626 0.000579896 0.0014620214 0.0033682748
0.0014633371 0.004088864 0.0023706735 0.0017091229 0.0012332022 0.0011783284 0.002208156 0.002026319
0.008108276 0.003349779 0.0019719917 0.0030598422 0.0026358743 0.0033860323 0.0010584935 0.0021118415
0.0028222234 0.0032924728 0.0017762254 0.0032504604 0.0013804567 0.0026607367 0.0042912234 0.004440008

conv2.weight f4 [32, 64, 3, 3]
00000000: ae88 edbc 342b b23c 58f5 2cbd b748 c1bd
00000010: 4a5d 8a3c 1da2 b73e 715e 033e e59e 5cbe
00000020: f397 eb3c 743f 6dbd 71da 93be 1894 b2be
00000030: 8560 003e 237d 73be 3d96 a1bd f168 c33e
00000040: 81d7 c63e bd6b 083e 8a8a e6be 1e93 9dbd
00000050: 43b6 17bd 1ec8 a8be e47f 99bd 8bdd 873e
00000060: 8ce1 263e ed22 ef3e d51b c53e 497a 3f3e
00000070: 562c 09be a338 86bd 5721 913e 6ba0 79bc
00000080: 0cb0 973e 901e 55be e94b ce3d 580d 843e
00000090: 1d96 38be 0901 043d 571b d8be dd1b b1bd
000000a0: 4b45 033f 21f4 4bbe 25bf fc3e 612f e03e
000000b0: 3108 b3be 3910 16be 2757 cb3e 3d50 5a3d
000000c0: 06c3 dcbd bf27 87be 8937 d73d 936b 833d
000000d0: 11ed d63c 16a6 503e 0f66 debc 0ec0 7d3e
000000e0: 56b5 173e 93dd a5bd c41d 34be f03c d83e
000000f0: 320d 253e 629a 453d 8b3f 813c 3152 8abe
00000100: 7ed1 41be 0d6f 11bd 1e34 bcbc c611 ffbe
00000110: 91bd 933e d098 923e 637b 413e 9f8e 19be
00000120: 03fd 84be af7c b03d 5457 0b3e bd06 81be
00000130: ad73 2f3e c76d d83e 5749 f53e dc0f 01be
00000140: b478 19bf fd4b 6ebe 67c9 8a3d c813 f03e
00000150: 88f3 91bd 7549 923e 4af9 233e 3531 823d
00000160: 2ff4 1ebf 7a30 11bf d6a7 2abe f069 3c3d
00000170: d05d 72be dbdb 5b3d 0f7d e3bc 905f 60be
00000180: 036f d73e 0a39 443e 7c8b a13e 905a 753d
00000190: 1c88 a23e 89de 353c 8769 a5bd 62c6 913c
000001a0: 4452 23bd a2af ca3c 97a6 683d 5932 ab3e
000001b0: a550 113e 5121 653e 6600 3fbe 57f4 41bd
000001c0: 7738 c03e 821c 8fbe a4ff 23be a748 7fbf
000001d0: cdef d8bd 9350 48be 34c8 b4bd f31a bf3e
000001e0: c034 bbbd 799e e13e 8a26 eb3d 89fa ff3d
000001f0: 2db5 4a3e 249c 2fbd 8ee4 123c bc09 ba3d
00000200: 6b3b 6d3c 92fa 63be 0d61 453e 2982 833e
00000210: 83f0 98bc d9ee b93d 4768 8c3e 564c bc3c
00000220: 2f82 983d a954 83be 9006 273e 43a7 00be
00000230: fae7 bd3e 5d0c a13e 1fbe b43e 43b3 af3e
00000240: 841f 7f3d d882 16be 1c3e b03d 5dcd 94be
00000250: 19d7 db3e cb95 e93e 4c74 c5be ea6d 433e
00000260: 2dd4 e83b 974a d43e 7183 963d a4d9 ae3e
00000270: c893 af3d 672d 2cbe cdd5 32bd 984d 2f3d
00000280: da27 1f3e 5db9 d1be 6f1e ae3d 561e fc3d
00000290: 9796 ed3e fa93 8ebe 8e7c 97bc ef52 be3e
000002a0: 0dbf f9be 08e7 23bc e7e8 1abd f937 07be
000002b0: ef4b 1c3d 308f 61bc e2fd cd3e 62d6 47bd
000002c0: ed4c 7d3c 4df7 ae3e c508 52bd 7655 173e
000002d0: 6397 6bbd 16f6 ae3e bad3 9fbe 0969 8dbe
000002e0: 9adc 313e efb9 6d3e d87a 333d 22b0 533e
000002f0: 41bd b93e 85eb 40bd b754 86be 4e89 dd3e
00000300: 8a61 c7bb f80b df3e 7190 cabd 3226 133e
00000310: 068f 363d c169 97bd a39a 13bf f745 043f
00000320: 4a27 603e fe1e eabe 1265 233e f525 8dbc
00000330: 1e57 c3be 5c47 03bf 0d51 753d 0139 1cbf
00000340: f6ba cabe 7547 1cbf 20a4 793d 93f8 67be
00000350: bbe6 71be b08f aa3e eff8 353e 830a 843e
00000360: 59c6 623e 6daa f73c ae39 b6bd c38d bb3e
00000370: 1b4d 29bd 4270 a93c 82ac 94bd e5af a4bd
00000380: cf08 233c 3cef ebbd 1866 9a3e 34a1 bb3d
00000390: 8e34 8a3e 95a8 363d 981a 003e e542 963e
000003a0: 8e42 393d a27b d5bd f35d e63e 5342 7ebd
000003b0: 5b07 613e 817e de3e 8508 7bbd 31b8 a53d
000003c0: efe9 a33e f5bb debc 21e4 ee3b f0cf 503f
000003d0: 9d0c cf3c a810 9abe 788f 77be c074 733e
000003e0: 8b34 6b3e b8f9 f7bd 3d03 983e 73fc 543b
000003f0: 5ab6 11be ed14 21be a4b5 a43d d6e4 2c3c
-0.028995838 0.021749116 -0.042226166 -0.094376974 0.016890187 0.3586587 0.12828995 -0.21544988
0.028758978 -0.05792184 -0.28877595 -0.34878612 0.1253682 -0.23778205 -0.07889984 0.38166
0.3883629 0.13322349 -0.45027572 -0.07694076 -0.037039053 -0.32965177 -0.07495096 0.2653621
0.16296977 0.46706334 0.38497797 0.18698992 -0.13395819 -0.06553771 0.2834575 -0.0152360005
0.296265 -0.2081244 0.100730725 0.2579143 -0.18026014 0.03222755 -0.4220836 -0.086478926
0.5127761 -0.19917347 0.49364582 0.43786147 -0.34967187 -0.14654626 0.3971493 0.053299177
-0.10779385 -0.2639751 0.10508639 0.064170025 0.026236089 0.20375857 -0.027148275 0.24780294
0.14815268 -0.080989026 -0.1758948 0.42233992 0.16118315 0.048242934 0.01577737 -0.27015832
-0.18927571 -0.035506297 -0.02297407 -0.49818248 0.28855565 0.28632212 0.18894725 -0.14995812
-0.25974283 0.086175315 0.13607532 -0.25200453 0.1713397 0.42271253 0.47907516 -0.12603706
-0.59949803 -0.23271175 0.06776696 0.46890092 -0.07126528 0.28571668 0.16013065 0.06357042
-0.62091345 -0.56714594 -0.16665587 0.045999467 -0.23668599 0.053676467 -0.027769594 -0.21911454
0.42076883 0.19162384 0.3155173 0.05990082 0.31744468 0.01110042 -0.08076768 0.017794792
-0.039873376 0.024741951 0.056799497 0.3343685 0.1419092 0.2237599 -0.18652496 -0.04735216
0.3754308 -0.27951437 -0.16015488 -0.99720234 -0.10592613 -0.19561987 -0.08827248 0.37325248
-0.09140921 0.44066218 0.1148196 0.12498958 0.19795676 -0.042873517 0.0089656245 0.09083888
0.014479498 -0.22263554 0.19275303 0.25685242 -0.018669372 0.0907876 0.27423307 0.022985619
0.074467055 -0.25650528 0.16311097 -0.12563805 0.37091047 0.31454745 0.353013 0.34316453
0.062285915 -0.1469835 0.086055964 -0.2906293 0.42937544 0.45622095 -0.3856529 0.19084898
0.0071053714 0.41463158 0.07349289 0.34150422 0.08573109 -0.16814195 -0.043660928 0.04279861
0.15542546 -0.40961733 0.085018985 0.123104736 0.46403953 -0.27847272 -0.01849201 0.37172648
-0.48778573 -0.010003813 -0.03781977 -0.13204946 0.038158353 -0.013767049 0.4023276 -0.048788436
0.015460235 0.3417305 -0.051277895 0.14778695 -0.05751742 0.34172124 -0.31216222 -0.27619198
0.17369309 0.2321546 0.043818325 0.20672658 0.36277202 -0.04709961 -0.26236507 0.43268818
-0.0060846256 0.4356382 -0.09890831 0.14370039 0.04456999 -0.07393218 -0.5765783 0.5166926
0.21889988 -0.4572677 0.15956524 -0.017230013 -0.38152403 -0.5128076 0.05989175 -0.6102448
-0.39595765 -0.61046535 0.060947537 -0.22653417 -0.23623173 0.3331275 0.17770742 0.2578927
0.22145976 0.030232633 -0.0889772 0.36631593 -0.0413333 0.020683412 -0.07259466 -0.08041362
0.009950831 -0.1152024 0.30156016 0.091616064 0.2699322 0.044594366 0.12510145 0.2934791
0.045229487 -0.10423972 0.44993553 -0.06207497 0.21975462 0.4345589 -0.06128742 0.08091772
0.32014415 -0.027189234 0.0072903787 0.8156729 0.02527457 -0.30090833 -0.24175823 0.23775005
0.22969262 -0.12108177 0.2968997 0.0032499104 -0.14229718 -0.15730639 0.08042458 0.010552606

conv2.bias f4 [32]
00000000: 4d07 bb3b 6e57 05bd b541 943a 0c28 8abb
00000010: 8c85 06bd 63dc 32bc fe69 a33c e243 2cbd
00000020: e10f 913c 2e93 3abd bfdd d83c ae1e ecbc
00000030: 8e46 b5bc dc3f 87bd 0731 113d c1df 063d
00000040: db6a af3c 4e2c e63c ea32 4c3c d4b4 5abd
00000050: 248b f13c 2b82 06bd 8c79 9f3d b926 9a3c
00000060: aeb2 e73c 3cbf 313c 375b cabc 172a c73c
00000070: a8a4 80bc 94f0 e3bc 40db 53bd f779 f6bc
0.0057076574 -0.032554083 0.0011311086 -0.0042161997 -0.032842204 -0.010916802 0.019948002 -0.042056926
0.017707767 -0.045550518 0.026472924 -0.028823223 -0.02212837 -0.06603977 0.035447147 0.032928232
0.021413257 0.028097298 0.012463311 -0.053395107 0.029485293 -0.03283898 0.07786855 0.018817293
0.028283443 0.0108488165 -0.024701698 0.024312062 -0.015703514 -0.027824678 -0.051722765 -0.030087454

exp_avg f4 [64, 32, 3, 3]
00000000: 9899 f6ba df03 b73a cb74 0339 e3e5 4abb
00000010: 561c 6039 fc73 81ba f640 49bb c8ee 74ba
00000020: ef7b c7ba ddd0 1dba c56a 4038 0546 f9b9
00000030: 6842 49ba b024 deb9 e01b 5fba bb76 e0b9
00000040: 5afb 48b9 0fd0 c5b9 89db ee3a fd90 193c
00000050: 387c fa3b 1fc4 27bb 2fa8 b53b 4213 9c3b
00000060: d8ec 14bc 408b 52bb 9b29 66bb 109c 643a
00000070: ff08 b03b 3513 973b b1e5 08bb ac91 443b
00000080: 2bba 323b 707c c2bb 3b4e 0bbb 56e2 10bb
00000090: 9924 52ba e2d0 3a3c 7cae 023c 046c d4bb
000000a0: 9478 c03b 131e 7f3b 4203 60bc fe6d abbb
000000b0: 08f1 c3bb da56 7531 79c6 c4ae 8d34 6cb1
000000c0: 701c 3634 9c66 e8b3 71c8 feb3 3731 8232
000000d0: d39d b032 9d1d 6233 fcbb 0a38 a00d 1eb6
000000e0: 7d72 92b7 2a70 2eb8 95e1 2fb8 4068 eab4
000000f0: 2c55 1838 f716 c0b6 b8f2 11b8 ccec 133a
00000100: b820 7d3b f29f 3d3b da65 40ba 5730 173b
00000110: 190f 073b 8607 61bb 0695 b7ba 2824 bbba
00000120: 1e03 86b9 7de4 603b cfed 1d3b 5366 16bb
00000130: 104b b23a 21bb 073a 37d8 8cbb 2883 f0ba
00000140: 9736 05bb fc54 a795 8a69 8d95 0f73 7c13
00000150: 2399 4f95 433b 4795 44e7 b795 c150 9195
00000160: abfb 6a95 b854 8e16 7305 1535 8b67 4bb5
00000170: 763b 5035 71a3 3934 7514 9035 22d2 d9b4
00000180: 2ad5 d4b5 1c04 b334 149d 0eb6 2756 1cba
00000190: dce4 2b3a a793 e839 7be2 93ba 5a11 05b9
000001a0: 7f64 f4b9 b541 9fba bad9 1fba 0fb5 43ba
000001b0: 0000 0000 0000 0000 0000 0000 0000 0000
000001c0: 0000 0000 0000 0000 0000 0000 0000 0000
000001d0: 0000 0000 bfba e2b9 902b fa3b 1503 bb3b
000001e0: aef4 95bb 47ed 6a3b cbba 393b 4363 1ebc
000001f0: 522c 81bb 666c 86bb 6620 34b9 9dc9 323b
00000200: e9e2 013b 380b 86ba 3a3a ee3a 7560 aa3a
00000210: 8ca7 2ebb 3f15 3bba ce66 82ba a90f d539
00000220: 8875 083a 693b c339 a60c 0ab9 1bf1 84b8
00000230: e5fe aab8 fdaf afb9 1ff6 bbb9 f6e9 79b9
00000240: 5f41 8f38 ded2 55b7 85e4 86b8 631f 7bb7
00000250: feec 4b37 e818 d6b6 4a63 66b7 9384 99b7
00000260: d923 b6b6 fd2c b3ba 4f94 1f3c 9bfd e33b
00000270: bb43 e2bb 8ba0 a93b 29d4 573b d465 5abc
00000280: 3507 9ebb 7731 bcbb 7088 88ba a001 7b3a
00000290: ca91 eb39 6903 aaba 9ce1 2239 614c abb9
000002a0: 9dc3 c7ba c2dd 28ba aabf 48ba cb43 b639
000002b0: 03af f63a da08 f03a 663a 36ba e0e4 8e3a
000002c0: fe24 a83a 6e2b 17bb da24 69ba edd6 5aba
000002d0: ea51 d7ba 5f9a 113b 9ace c43a afef 5cbb
000002e0: bdd0 393a 5778 e3b9 bb5f 8dbb 6eb0 b3ba
000002f0: 67d4 feba 0000 0000 0000 0000 0000 0000
00000300: 0000 0000 0000 0000 0000 0000 0000 0000
00000310: 0000 0000 0000 0000 b722 23b4 f4fa 4535
00000320: 77e8 be35 3008 21b6 72b5 46b5 56ef e433
00000330: 07c1 4a36 6f52 7c35 6c01 2836 8bc7 048d
00000340: 9017 2b8c 2aee a50c 3c6d 8b8f 7b81 a710
00000350: 5bc3 1213 2755 1a91 1ce5 c70f 9dde 5712
00000360: 738b 9139 3871 dc3a e4d0 9c3a 7bfb 85ba
00000370: 00f0 e539 6e0c cf39 29f2 12bb d5fe a6ba
00000380: 0981 92ba 314d b439 4367 d13b 7fdd 983b
00000390: 4607 27bb 682f 603b 6fd7 3b3b 5280 dfbb
000003a0: 4d19 36bb 156f 3cbb a446 36ba 96bf dd3b
000003b0: f2a9 973b 1b37 9bbb b16f 413b fab3 e03a
000003c0: a3e2 14bc 21d1 7ebb 034a 89bb cd37 0138
000003d0: 16d4 83b7 652c 20b7 b56f 8937 27ba afb7
000003e0: 4a96 5c36 1d4b 7537 fb88 21b8 33dc d136
000003f0: 632c 30b3 9430 cdb3 ffbd b6b2 1b5d 82b3
-0.0018814085 0.0013962946 0.00012536642 -0.0030959777 0.0002137286 -0.0009876485 -0.0030708886 -0.00093434425
-0.001521943 -0.0006020198 4.5875804e-05 -0.0004754515 -0.0007677437 -0.00042370474 -0.00085109286 -0.0004281307
-0.00019167122 -0.00037729784 0.0018223386 0.009372947 0.0076442026 -0.0025599075 0.0055437307 0.004763038
-0.009089671 -0.0032126456 -0.0035120014 0.0008720765 0.005372166 0.004610444 -0.002088886 0.0029994054
0.002727161 -0.0059352443 -0.0021256346 -0.0022107563 -0.0008016318 0.011402341 0.007976171 -0.006482603
0.005873749 0.0038927838 -0.013672652 -0.005231618 -0.005979661 3.5701562e-09 -8.948304e-11 -3.4372392e-09
1.6960416e-07 -1.08220064e-07 -1.1864257e-07 1.5156372e-08 2.0560867e-08 5.264666e-08 3.3076838e-05 -2.3551765e-06
-1.7457869e-05 -4.1589294e-05 -4.193334e-05 -4.3661748e-07 3.6318947e-05 -5.7247194e-06 -3.4796743e-05 0.00056428905
0.0038624238 0.0028934446 -0.0007339396 0.0023069584 0.0020608364 -0.003433676 -0.0014006204 -0.0014277743
-0.00025560794 0.0034315877 0.0024098044 -0.0022949174 0.0013602693 0.00051777257 -0.0042982358 -0.0018349634
-0.0020326728 -6.7584845e-26 -5.711596e-26 3.18636e-27 -4.192412e-26 -4.023448e-26 -7.4277984e-26 -5.869244e-26
-4.7454455e-26 2.2994802e-25 5.5514755e-07 -7.577407e-07 7.7572565e-07 1.7288927e-07 1.073479e-06 -4.0572291e-07
-1.585727e-06 3.3344338e-07 -2.125108e-06 -0.00059637654 0.0006557235 0.00044360498 -0.0011282706 -0.00012690332
-0.00046614182 -0.001215032 -0.00060978124 -0.00074656395 0.0 0.0 0.0 0.0
0.0 0.0 0.0 0.0 0.0 -0.00043245216 0.0076345876 0.0057071545
-0.004576287 0.0035846995 0.0028340097 -0.0096672205 -0.003942051 -0.0041022776 -0.00017178207 0.0027280815
0.0019819087 -0.0010226732 0.0018175312 0.0012998717 -0.0026650159 -0.000713665 -0.0009948851 0.00040638194
0.0005205502 0.00037237562 -0.00013165417 -6.33916e-05 -8.1537095e-05 -0.00033509723 -0.00035850794 -0.00023833648
6.830948e-05 -1.2744886e-05 -6.432183e-05 -1.4968074e-05 1.2154922e-05 -6.3805965e-06 -1.3732186e-05 -1.8300756e-05
-5.428196e-06 -0.0013670024 0.009739949 0.0069577224 -0.0069050468 0.005176609 0.0032932854 -0.013329942
-0.0048226365 -0.0057432014 -0.0010416638 0.0009575132 0.00044931314 -0.0012970987 0.0001553357 -0.00032672568
-0.0015240792 -0.0006441736 -0.00076579547 0.00034764255 0.0018820468 0.0018313185 -0.0006951451 0.001090195
0.0012828407 -0.0023066658 -0.0008893736 -0.00083480665 -0.001642761 0.0022217256 0.0015015185 -0.0033712198
0.00070882944 -0.00043386474 -0.0043143905 -0.0013709196 -0.0019441963 0.0 0.0 0.0
0.0 0.0 0.0 0.0 0.0 0.0 -1.5193187e-07 7.3753404e-07
1.4223759e-06 -2.3995635e-06 -7.4024786e-07 1.0660612e-07 3.0212702e-06 9.399727e-07 2.5034778e-06 -4.091583e-31
-1.3180451e-31 2.5565615e-31 -1.3748534e-29 6.606938e-29 1.8524108e-27 -1.2174698e-28 1.9711165e-29 6.811643e-28
0.00027760453 0.001681841 0.001196411 -0.0010222042 0.00043857098 0.00039491378 -0.002242217 -0.0012740741
-0.0011177371 0.00034389787 0.0063904836 0.0046650763 -0.0025486513 0.0034207944 0.0028662344 -0.006820717
-0.0027786077 -0.0028752733 -0.00069532753 0.0067672236 0.0046284134 -0.0047367937 0.0029516036 0.0017143481
-0.0090872375 -0.0038881975 -0.004189731 3.0807965e-05 -1.5715177e-05 -9.54708e-06 1.638369e-05 -2.094831e-05
3.2870034e-06 1.4620627e-05 -3.8512964e-05 6.25432e-06 -4.1018563e-08 -9.554893e-08 -2.1273989e-08 -6.0705325e-08

exp_avg_sq f4 [64, 32, 3, 3]
00000000: 50ab 423d 1149 3e3d 126c 883d 3c1f 323d
00000010: 6e54 f83c 6ce2 273d cad9 2f3d 453d 123d
00000020: f407 333d d02b 8c3b 3010 a43b b000 a93b
00000030: 0c2b b53b 218e b93b 68b3 af3b 405a a63b
00000040: 21fa a03b 14e1 9c3b 2fb7 473f 4c2d 133f
00000050: de82 2a3f 8e66 ed3e f0f5 d93d 67d7 6c3e
00000060: 60fb 073f 153e d53e 6ca8 d73e ab69 c43e
00000070: 9a53 923e 360d a43e d7bc 6c3e 8117 903d
00000080: 594b 023e 6b79 843e 0ecd 5c3e 9b11 5b3e
00000090: e3be a23f 4333 653f 455f 933f c6b4 373f
000000a0: 2333 a93c 56f2 873e f8c3 653f a15d 103f
000000b0: f177 203f 6694 4432 f234 c232 662b 3633
000000c0: 0280 8434 20e9 f534 03f0 7c34 6f54 1133
000000d0: b15f 1434 2158 8433 a649 8a3b c1b0 a83b
000000e0: 3e24 9b3b 96f1 8b3b aab0 c63b b2f8 b53b
000000f0: efad 333b f96f ad3b cb2d 9e3b 1fec f63d
00000100: 0c9f bc3d 7c0c de3d c370 9a3d 64c1 c33c
00000110: 68a1 2b3d 457d b13d 1fdc 833d 2be3 823d
00000120: ee29 1d3e 27df f63d e1de 233e 4f0b ee3d
00000130: 92a1 273d 99c5 8f3d 8b04 f23d 7d2a b63d
00000140: 2454 e03d 74c4 d730 061b f430 93b0 262d
00000150: e0f8 2530 c612 7830 f58c ab32 d6a9 a930
00000160: dc38 5330 12b2 ac32 5691 f838 29cc ff38
00000170: 272b 2639 a4aa 1439 9ea5 3439 6c79 7739
00000180: 3b2b 0b39 c7f3 2e39 f07f 3639 1ae4 663d
00000190: e94c 673d 56dc 863d cbec 5b3d 59d2 283d
000001a0: 989a 483d 6db8 393d dbca 3a3d b4b4 563d
000001b0: 0000 0000 0000 0000 0000 0000 0000 0000
000001c0: 0000 0000 0000 0000 0000 0000 0000 0000
000001d0: 0000 0000 cc2e 553f 1648 143f bfd7 323f
000001e0: d5a8 f13e 85a5 903d 4ca5 593e b096 113f
000001f0: 7328 ce3e ba33 d43e 7754 903d d8bd 783d
00000200: 31a4 973d 2781 323d d12c 9e3c 2f31 fa3c
00000210: 5abb 453d 9114 343d 5ed8 2d3d cfe2 c13c
00000220: 06ea ce3c 3b9f c93c 61d6 c43c 0656 a63c
00000230: 818b b03c bd29 9c3c ef2b a93c 0ab7 b13c
00000240: a3ad 053b 42dc 113b b547 1c3b 7350 103b
00000250: 69c2 453b 494c 4b3b f702 e43a a986 2f3b
00000260: 9a17 333b af78 803f 223e 343f 7f3b 6d3f
00000270: 416d 133f 4883 dc3c d8aa 683e b76d 3b3f
00000280: e06c ee3e 9d5c 073f 8bb3 f53c 1ef0 f23c
00000290: 16c8 283d 9e93 c43c b136 8a3c 48d0 b13c
000002a0: 6ea5 c43c 222d b53c 0d58 ce3c 580f ae3d
000002b0: 2b03 893d 4d61 933d a8ce 7e3d 1595 323d
000002c0: 6d6c 553d f788 793d d49b 7e3d df9b 713d
000002d0: 3423 193e 894e 033e bb6d 323e 14b5 e33d
000002e0: 0a7e 723d 5116 b63d 245a ea3d da58 d03d
000002f0: 4e67 f23d 0000 0000 0000 0000 0000 0000
00000300: 0000 0000 0000 0000 0000 0000 0000 0000
00000310: 0000 0000 0000 0000 05f3 f437 c656 1838
00000320: 8175 8538 5f9f aa37 2e80 5b38 639d 9138
00000330: 4b36 b537 2dfc ef37 13f1 2e38 6db9 a721
00000340: ff20 1c20 ecb9 2221 3960 c529 0045 ea2b
00000350: 172d a730 8578 b42c efec 632a a7f7 312f
00000360: 307e 483d b8d2 0b3d 90c3 133d b459 1c3d
00000370: 1be6 9d3c 7292 c03c 538a 243d fd11 f73c
00000380: 8981 023d 5efb de3e 91f6 a03e 7c77 ba3e
00000390: 0d46 853e 2fd9 573d bd51 013e a937 9e3e
000003a0: be70 5f3e 28ad 5f3e 2bbd 0e3f 4f07 c53e
000003b0: 0b28 f63e 5dc8 ab3e 5710 b13c d1c8 ff3d
000003c0: d670 d13e 8ed6 813e e68b 943e 078d 0a3b
000003d0: ff35 263b eb9a 123b 2017 1e3b d99a 263b
000003e0: caf0 1c3b f9cc 0b3b 863c 0a3b 5bf9 173b
000003f0: 4610 2f35 6427 fe35 4f2f 2b35 e9df 3535
0.047526658 0.0464564 0.06661238 0.04348682 0.030313697 0.040987417 0.04293231 0.035702962
0.043708757 0.004277684 0.0050068125 0.0051575527 0.005528813 0.005662695 0.005361963 0.0050766766
0.00491263 0.0047875736 0.7801389 0.5749099 0.6660594 0.46367306 0.10642612 0.23129044
0.5311794 0.41648927 0.42120683 0.38361868 0.28579408 0.3204133 0.23118912 0.07035733
0.12724055 0.25873885 0.21562597 0.21393435 1.2714504 0.89531344 1.1513449 0.71760213
0.020654267 0.26552075 0.8975215 0.56392866 0.62683016 1.1442443e-08 2.260865e-08 4.2414648e-08
2.4680054e-07 4.5804427e-07 2.3556645e-07 3.3837235e-08 1.3818386e-07 6.1627595e-08 0.0042202054 0.005148024
0.004734545 0.0042707426 0.0060635405 0.0055533284 0.0027416905 0.005292889 0.0048272363 0.12056755
0.09210023 0.10842225 0.07541039 0.023895927 0.041901976 0.086664714 0.06438469 0.06390985
0.15348026 0.12054282 0.1600299 0.11623251 0.04092557 0.07020111 0.11817273 0.08894823
0.109535486 1.5699144e-09 1.7761017e-09 9.475215e-12 6.0380323e-10 9.0248553e-10 1.997112e-08 1.2344639e-09
7.6842155e-10 2.0104412e-08 0.000118526325 0.00012197375 0.00015847069 0.00014177948 0.00017227835 0.00023600989
0.00013272178 0.00016684747 0.00017404533 0.05636988 0.05646983 0.065849945 0.05369262 0.04121623
0.048975557 0.045341898 0.045603614 0.052418426 0.0 0.0 0.0 0.0
0.0 0.0 0.0 0.0 0.0 0.8327453 0.57922494 0.6986045
0.4719912 0.0706282 0.21254462 0.56870556 0.40265235 0.41445714 0.070473604 0.060727924
0.07404364 0.0435802 0.01930848 0.03054103 0.048274375 0.043964926 0.042442672 0.023667721
0.025258075 0.02461206 0.024028005 0.020304691 0.021550896 0.019062871 0.020650832 0.021693725
0.0020397685 0.0022256528 0.0023846452 0.0022020608 0.0030175692 0.0031020811 0.0017395903 0.0026783145
0.00273273 1.003683 0.7040731 0.9266891 0.57588583 0.026918069 0.22721422 0.73214287
0.4656744 0.5287569 0.02999284 0.029655512 0.04120644 0.02399617 0.016871782 0.021705762
0.024004664 0.022116248 0.02518847 0.0849902 0.06690057 0.07196293 0.0622088 0.043599207
0.052105356 0.060921635 0.062160328 0.05898654 0.14954835 0.12822928 0.17424671 0.11118522
0.05920223 0.08890975 0.11442974 0.10173197 0.1183611 0.0 0.0 0.0
0.0 0.0 0.0 0.0 0.0 0.0 2.9200231e-05 3.6320438e-05
6.363821e-05 2.0339792e-05 5.2333045e-05 6.943454e-05 2.1602164e-05 2.8608449e-05 4.170935e-05 1.1365442e-18
1.3224631e-19 5.51338e-19 8.7652494e-14 1.6645851e-12 1.2163665e-09 5.129288e-12 2.0243853e-13 1.618604e-10
0.048948467 0.034136504 0.036075175 0.038171485 0.019274762 0.02350733 0.04017098 0.030159945
0.031861816 0.43551153 0.31438115 0.36419284 0.26030007 0.052697357 0.12628837 0.3090184
0.21820351 0.21843398 0.557574 0.3848214 0.48077425 0.33551303 0.021614237 0.124894746
0.409064 0.25359005 0.29012984 0.0021141188 0.0025361774 0.002237017 0.002412267 0.0025421886
0.0023947232 0.002133189 0.0021093204 0.00231894 6.521626e-07 1.8935939e-06 6.377131e-07 6.7753587e-07

exp_avg f4 [64]
00000000: 71ed 9e31 20eb c1ad 7243 0430 eaf4 c730
00000010: be2c fc2e 810f 7bad 4018 92b0 0dab 8eaf
00000020: 90b0 abb0 620a 112f 764b 1aaf c1b3 2730
00000030: 5fee 7daf 5b7c 50b0 c892 31b1 71fc 582f
00000040: b46c 54b0 a34b 53b0 3c41 a1af f8bc 9b31
00000050: 2f48 1daf 5c11 38b0 42c5 8630 5c5d 82b0
00000060: 957d cfb0 2ae2 b0b0 0a4b 3330 26c5 18b0
00000070: 3855 4530 0488 6faf 4235 d3b0 1994 08b0
00000080: acdf ae2f 070f e92e c13f 1cb1 8554 98b0
00000090: f8f0 d02f e837 35b1 2b0b 7bb0 ac7e 41b1
000000a0: 1917 23b0 38cd cbaf eb33 a630 6561 49b0
000000b0: ff5e 8430 4a12 97b0 a93c 0ab1 c79b fd30
000000c0: 462d 0b30 02e7 10b1 9626 cd30 2033 b3af
000000d0: 13c3 4330 7d77 952e 3936 2331 6a2d 0131
000000e0: db8f 02b0 26fc 3030 b91c 16b0 2355 3b2f
000000f0: ee4c 8cb0 a004 092f afda 49b0 8c5a 7030
4.625399e-09 -2.2045976e-11 4.8117166e-10 1.4548764e-09 1.1467581e-10 -1.4271141e-11 -1.062979e-09 -2.5951188e-10
-1.249207e-09 1.3191362e-10 -1.4033028e-10 6.100969e-10 -2.3094902e-10 -7.584668e-10 -2.5840325e-09 1.9734771e-10
-7.7279627e-10 -7.686884e-10 -2.933208e-10 4.532577e-09 -1.4304712e-10 -6.696348e-10 9.805847e-10 -9.485279e-10
-1.5096925e-09 -1.2869965e-09 6.522646e-10 -5.557744e-10 7.1789286e-10 -2.1785246e-10 -1.5367407e-09 -4.968697e-10
3.1809344e-10 1.0598283e-10 -2.2737228e-09 -1.1083477e-09 3.8006198e-10 -2.6370746e-09 -9.132914e-10 -2.81572e-09
-5.933188e-10 -3.7071302e-10 1.2092846e-09 -7.326178e-10 9.631264e-10 -1.0991894e-09 -2.0116124e-09 1.8452447e-09
5.0632243e-10 -2.108607e-09 1.492668e-09 -3.2596237e-10 7.1217804e-10 6.796961e-11 2.3750444e-09 1.8797786e-09
-4.7498155e-10 6.438675e-10 -5.46105e-10 1.7037798e-10 -1.0208205e-09 1.246172e-10 -7.343414e-10 8.7440166e-10

exp_avg_sq f4 [64]
00000000: 48b7 af29 bc69 4529 d415 5c29 ac04 302a
00000010: 11a7 a92a c3d5 7c29 b396 0a2a af29 b229
00000020: b024 b329 7444 e529 b75d b229 1698 b929
00000030: 0602 432a bf8e 7d29 6cf7 032a a216 da29
00000040: 08e4 cc29 ffaf b729 95ef 7b29 5472 952a
00000050: c26b c829 a1fa dc29 145b 782a 180d 8729
00000060: 6cda 042a 21ae 032a 6e3a 8c29 283d 002a
00000070: 176b b729 54e2 2a29 7001 8829 422e 0b29
00000080: 2736 dc29 7352 8129 621a 7729 442b 6229
00000090: 2f11 b129 ef57 212a daef c029 ae12 ff29
000000a0: 9358 4b29 c161 1a29 4b0f 1b2a 6e7e 9e29
000000b0: 6747 1b2a 0e88 122a d4d2 482a 13d3 b129
000000c0: a354 4e29 e070 6d29 078c 0a2a 359e da29
000000d0: 4262 a329 d757 f329 be8e 502a de54 fb29
000000e0: 487f 3229 bda9 8029 4c41 032a 5c00 7229
000000f0: 87a0 4e2a e684 8e29 d7d1 8229 5768 e029
7.8033554e-14 4.3834497e-14 4.8868746e-14 1.5633561e-13 3.0136356e-13 5.614065e-14 1.2309146e-13 7.912019e-14
7.955561e-14 1.01815176e-13 7.921045e-14 8.242033e-14 1.7320181e-13 5.6301098e-14 1.1720979e-13 9.685071e-14
9.098977e-14 8.157363e-14 5.5941e-14 2.6547048e-13 8.900477e-14 9.81344e-14 2.2058424e-13 5.997476e-14
1.1799735e-13 1.169555e-13 6.227385e-14 1.1389902e-13 8.14541e-14 3.794389e-14 6.0398626e-14 3.0904322e-14
9.7793566e-14 5.7430535e-14 5.48679e-14 5.0219608e-14 7.86336e-14 1.433018e-13 8.5681204e-14 1.1327515e-13
4.515188e-14 3.4279657e-14 1.3772071e-13 7.0385416e-14 1.3791538e-13 1.3014608e-13 1.7836714e-13 7.8969946e-14
4.58146e-14 5.2722475e-14 1.2305444e-13 9.708589e-14 7.255699e-14 1.08066056e-13 1.8523635e-13 1.1161361e-13
3.963434e-14 5.713787e-14 1.1657792e-13 5.3735106e-14 1.835217e-13 6.329121e-14 5.809561e-14 9.9656984e-14

exp_avg f4 [64]
00000000: b624 d2b8 46ff 8cb8 8ed6 b139 1c09 f8b8
00000010: 457a 89b8 ef49 a238 ff00 ebb8 cdc7 3338
00000020: d131 fa39 1b5c 9a38 e7a9 ecb8 f964 af37
00000030: 93c2 2339 08cb 8639 4065 c838 95e7 b4b8
00000040: d5c2 f038 f5a7 4a39 37a7 4db8 b45a 86b8
00000050: c64f 60b9 9d21 aeb7 7e3c bc38 fa73 2cb9
00000060: 2955 2fb9 2b85 9c39 8a31 1cb9 6b1d 72b8
00000070: 9b1a 8839 132c ca38 f5b8 3538 8f2d 2338
00000080: 38aa 9238 c8f0 41b9 4bd5 0bb9 2346 e1b9
00000090: 741c b3b6 2061 4d39 a461 f6b8 f15c c539
000000a0: 7752 37b9 4dd2 a239 c791 e538 6741 59b9
000000b0: bedf a7b7 a3df c439 3b0f a039 ca0e 0ab9
000000c0: 1c4e 4d36 ea2b cb38 6a46 6938 bdb2 6239
000000d0: 8ea0 6fb7 2686 ba37 ef06 ae36 f6f0 9939
000000e0: 404c a7b8 9873 92b8 ba47 c437 774f 8cb9
000000f0: b774 1b39 7137 d7b9 ad19 90b9 b630 fdb8
-0.00010020418 -6.7232686e-05 0.00033919926 -0.00011827258 -6.5554435e-05 7.738533e-05 -0.00011205859 4.2863005e-05
0.00047720832 7.360448e-05 -0.00011285004 2.0908645e-05 0.00015617376 0.00025709742 9.5556024e-05 -8.626204e-05
0.00011480382 0.0001932679 -4.903154e-05 -6.406513e-05 -0.00021392023 -2.0758069e-05 8.975806e-05 -0.00016446403
-0.00016721025 0.00029853857 -0.00014895774 -5.7724694e-05 0.00025959764 9.64032e-05 4.3326017e-05 3.8904658e-05
6.993528e-05 -0.00018495612 -0.00013335531 -0.000429676 -5.337928e-06 0.00019586505 -0.00011748381 0.00037644015
-0.0001748296 0.00031055734 0.00010946724 -0.00020719097 -2.001214e-05 0.00037550656 0.00030528926 -0.00013166215
3.0592846e-06 9.687974e-05 5.5617107e-05 0.00021619625 -1.4282892e-05 2.2235396e-05 5.1864113e-06 0.00029361964
-7.977383e-05 -6.9833535e-05 2.3398421e-05 -0.00026762087 0.00014825432 -0.00041049303 -0.0002748495 -0.00012073053

exp_avg_sq f4 [64]
00000000: 0b32 f53a 2e47 843b 2f28 bb3b 7151 813b
00000010: 21a3 4e3b 6828 473b 39d0 593b ca0d 1f3c
00000020: 4c6a 863b f2c4 153b 60eb 273b beb3 1d3b
00000030: 1a78 3b3b 2093 923b 32f7 413b 5e36 233b
00000040: 4c36 813b ba2a f33a ade5 583b 22db 0c3b
00000050: 767f 573b 879d c83a 30ea 973b 5a23 1f3b
00000060: 093b c73b 1c2d 273b 2d95 c83b 7f2e 7b3b
00000070: b9fa 4e3b ce5d 593b 6898 223b 1138 043b
00000080: 0575 113b d50f b23b 6bd2 843b 34ab b63b
00000090: 4beb 7d3b 6ad3 fc3a ce65 383b 67c3 ac3b
000000a0: a2cd 433b 2e42 013b 91a4 773b 530a 813b
000000b0: 4f24 333b 759b 553b 1ac9 4d3b af6c 0f3b
000000c0: 3e7f b13b 4965 583b d5fd 973b 86c9 343b
000000d0: 5e1c 4f3b b0fc 223b 0bc1 7a3b d6a5 003b
000000e0: c91a ea3a f0ea 033b 328c 1c3b a4d3 073c
000000f0: c015 fe3b 90ac 413b 8223 413b 58ed 9d3b
0.001870693 0.0040368056 0.0057115774 0.003946476 0.0031530338 0.0030389074 0.0033235683 0.009707877
0.004102027 0.0022852984 0.0025622472 0.0024063434 0.0028605522 0.004473105 0.0029596803 0.0024904232
0.0039432403 0.0018552162 0.0033095882 0.0021492918 0.003288237 0.0015305736 0.0046360716 0.0024282546
0.0060800356 0.0025509065 0.0061212988 0.0038327274 0.0031582548 0.0033167484 0.002481008 0.002017502
0.0022194993 0.005434016 0.004053404 0.005574608 0.0038744982 0.001928908 0.0028136852 0.005272317
0.0029877205 0.0019723284 0.0037787298 0.0039379983 0.0027334874 0.003259388 0.0031400383 0.0021884849
0.00541678 0.0033019355 0.0046384134 0.0027585938 0.0031602602 0.0024869852 0.0038262035 0.0019630096
0.0017860766 0.0020129047 0.0023887274 0.008290205 0.0077540576 0.0029552318 0.0029470627 0.0048195533

exp_avg f4 [64]
00000000: 76df cf39 64d0 2db8 2171 cc39 609b acb9
00000010: 9fff 9139 ebcd b138 f21a 6bb9 14ef 75b7
00000020: 3c3c 9939 5609 cb36 5443 f7b8 ef54 efb8
00000030: 3d20 6e39 4448 e639 a151 7b39 a691 25b8
00000040: 3bde 2ab9 8d33 79b8 370a 8637 7104 c8b8
00000050: dd25 76b8 121a cd38 3085 9db8 8757 19ba
00000060: 0fd2 acb9 aed5 9538 f6dd efb7 f0a7 d438
00000070: 7d3b 9339 6c9d b1b5 6283 ea38 7723 4fb8
00000080: efb1 06b9 9b0c eab9 4756 93b9 02ad 0aba
00000090: f89e dbb8 f3a9 b938 9889 4fb9 34e3 7939
000000a0: d82b b2b9 b6b3 5e39 989d ceb8 d80c 3fba
000000b0: 93f7 0fb8 30e2 103a 768b d839 049b 3137
000000c0: 01b4 3db8 05f9 87b4 0597 6939 3310 6a39
000000d0: 7eba a5b7 72da 8238 0bcd e7b6 ab77 ac39
000000e0: 80b8 77b8 241a 2fb8 36a4 f338 9be7 6bb9
000000f0: c313 8039 83ad 0eba 5390 f9b9 6d7f 90b7
0.00039648608 -4.1440493e-05 0.000389942 -0.0003292216 0.00027847008 8.478373e-05 -0.00022421384 -1.4658803e-05
0.00029227312 6.0509583e-06 -0.00011790419 -0.00011412228 0.00022709458 0.0004392286 0.00023967634 -3.947471e-05
-0.0001629525 -5.9414237e-05 1.5978801e-05 -9.5375704e-05 -5.8686233e-05 9.780018e-05 -7.5111515e-05 -0.00058495294
-0.00032962902 7.1446746e-05 -2.8594379e-05 0.000101402286 0.00028082347 -1.3233343e-06 0.000111824615 -4.9385675e-05
-0.00012845521 -0.0004464135 -0.00028102307 -0.00052900624 -0.00010472344 8.853143e-05 -0.00019792316 0.0002383113
-0.00033983472 0.00021238517 -9.8521996e-05 -0.00072879856 -3.432443e-05 0.00055268686 0.00041302637 1.05861145e-05
-4.5228753e-05 -2.5326895e-07 0.00022276871 0.00022322014 -1.9756375e-05 6.239572e-05 -6.9082066e-06 0.00032895556
-5.9061218e-05 -4.1747597e-05 0.000116177296 -0.00022497626 0.00024428786 -0.00054427254 -0.0004760051 -1.7225475e-05

exp_avg_sq f4 [64]
00000000: 8b97 2d3b 1cd0 813b 677e cd3b 782a 0b3c
00000010: e98f c43b 4dd1 3b3b 5061 d83b 4572 0b3c
00000020: 92fd c13b d7c8 383b 8822 4a3b f544 993b
00000030: 488b 753b 3f49 933b 8381 973b e699 a93b
00000040: f6e8 ab3b ad24 203b af70 793b ee8c 373b
00000050: 0f42 633b 1ed0 053b 2ea9 823b f648 8f3b
00000060: cf47 513c 50d7 453b e459 063c 7b5d a13b
00000070: d6fe 913b 57bc 7d3b 0dd3 5f3b 8096 643b
00000080: 9278 4c3b d2ae 1d3c 71ac a63b 4ca6 fe3b
00000090: 5372 a03b a05e 093b b44a 993b 0f63 df3b
000000a0: 21b0 413b e4f7 373b 8451 f03b af0f e33b
000000b0: cb6b 363b b7df cd3b 214e 993b 1a4f 503b
000000c0: 0aae 023c dbde 993b 201a a73b 2e32 803b
000000d0: 701c 983b b76a 3a3b 9c66 de3b ec4b 183b
000000e0: 5312 103b fa4a 3d3b 142a 293b 38ed 4e3c
000000f0: b810 3e3c 7bc3 703b 3a91 833b e825 ba3b
0.0026488032 0.003961576 0.006271172 0.008494012 0.0059986007 0.0028658689 0.0066033974 0.008511131
0.0059201205 0.0028195882 0.0030843336 0.00467741 0.0037467051 0.0044948156 0.0046235933 0.005175817
0.005246277 0.0024435923 0.003806155 0.0028007585 0.0034676825 0.0020418237 0.003987453 0.0043727113
0.012773468 0.003018815 0.0082001425 0.004924474 0.0044554276 0.0038716996 0.0034152896 0.0034879744
0.0031199795 0.0096242 0.0050864746 0.007771289 0.004896441 0.0020960942 0.0046780948 0.0068172286
0.0029554444 0.0028071338 0.007333936 0.00692936 0.0027835246 0.0062827724 0.004678503 0.003178543
0.007976064 0.004695756 0.00509955 0.003912232 0.004642062 0.0028444955 0.0067871343 0.0023238612
0.0021983578 0.00288838 0.0025812434 0.0126298 0.011600666 0.003673761 0.004015115 0.0056807883
