checkpoint_decoder/check_point_2021_10_10_03:57:50/check_point_2021_10_10_03:57:50_epoch_10.pth (torch, 452917 bytes, 20 tensors)

conv1.weight f4 [64, 32, 3, 3]
0.03248979 -0.0139924465 -0.00258512 0.106950834 -0.019395791 0.0017087334 -0.036764532 0.009977376
0.007930377 -0.06369132 0.0032734643 0.06758878 0.06223767 0.06037134 0.021233616 -0.033674326
0.031363696 -0.10934338 0.0064432924 -0.019022616 -0.005844089 -0.04692385 0.046518322 0.04041448
0.06814206 -0.027153317 -0.011082926 0.05942717 0.05964018 -0.007227345 -0.007222714 -0.023459109
0.021242404 -0.010456483 -0.0047158604 0.023093764 0.0018376712 -0.026493367 0.03996258 -0.0022301818
-0.052478846 -0.006953821 0.0038403932 0.02632017 -0.01719732 0.025402687 0.021757878 0.11752493
0.013203725 -0.022497565 0.12552397 -0.13329905 -0.013328786 0.010872133 0.10503045 -0.0093587255
-0.051363412 -0.07726307 0.013954944 0.007804952 -0.041521244 -0.0510326 0.003527409 -0.056516454
0.012750001 0.022397608 -0.0010504761 0.022565374 0.040598575 -0.050583888 0.03771383 0.041012246
-0.096064754 0.031451657 0.014523771 0.04448222 -0.028155234 -0.015419737 -0.010677944 0.03507947
0.045710113 0.045383427 -0.06001421 0.020812867 0.021928608 -0.03167511 -0.018788282 0.010627243
0.0127309365 0.02745445 0.06019918 -0.06637325 0.015775833 0.1080468 -0.02527485 0.07329545
-0.021486906 0.11422963 0.115838274 0.04078369 0.016355786 0.035134804 -0.015096026 -0.035124827
-0.018375842 -0.015055966 0.049722422 -0.09109839 -0.024636175 0.020539558 -0.011841986 0.012620445
-0.011980657 0.036119197 0.050795116 -0.04834079 0.04242567 0.029641215 -0.049106125 -0.02588914
-0.008494987 0.06744788 -0.041534957 -0.01069728 0.022365887 -0.051460966 0.046519842 0.10147854
0.14883798 -0.015097712 -0.027445614 -0.05779311 -0.15905474 0.028898431 -0.119050376 -0.04996825
-0.03247842 0.04713082 -0.055807207 0.01946955 -0.0059158206 -0.013431298 -0.02338174 -0.07444352
-0.022163805 0.005724823 0.017147997 -0.033349887 0.02981751 -0.011177526 -0.11780903 -0.003858051
0.031962685 0.014513571 0.041264888 -0.02852714 -0.003930966 -0.018957742 0.07738097 -0.04424175
-0.019050399 0.049417872 0.0060385354 0.078171015 0.14330757 0.046888333 -0.030687165 0.08294211
-0.11155314 0.08886298 -0.087525114 0.04752173 -0.06482771 -0.026554001 -0.00064457546 0.06670279
-0.028996676 0.010570658 -0.018864367 0.027897151 0.003741279 -0.009575627 -0.01301728 0.0143887745
-0.06645117 0.0013524642 -0.00531598 0.013675472 0.029952304 -0.044902053 -0.05030538 0.014419954
-0.05877687 0.03143029 -0.042118434 -0.014389665 0.0008507482 -0.014675919 -0.003108685 0.008825053
0.019469291 -0.07573212 0.07116514 -0.000251581 -0.07341782 0.029932085 0.027813956 -0.016222792
0.043620884 -0.023741815 -0.0148589425 -0.016441954 0.016219636 -0.0027486747 0.040071618 0.053636182
-0.14371072 -0.08568867 -0.216059 0.012910647 0.025729157 -0.032097206 0.09614865 0.031008823
0.04416734 0.027192757 -0.00982287 -0.035967916 0.05422568 0.07317016 -0.026027171 0.00540278
0.0036751083 0.030983584 -0.07321651 0.07941526 -0.051102698 -0.013472071 0.10006596 0.03755924
0.044492852 -0.07411624 -0.044181075 0.069954224 -0.06482665 0.065801986 -0.010114191 0.0046124645
0.13341959 -0.035101455 0.032617245 -0.031111713 0.07359626 0.10624147 -0.17645393 -0.120864734
00000000: 0414 053d 9340 65bc 1e6b 29bb 0a09 db3d
00000010: ece3 9ebc 94f7 df3a 6896 16bd 2678 233c
00000020: 69ee 013c 9870 82bd 9e87 563b fc6b 8a3d
00000030: edec 7e3d f047 773d 1ff2 ad3c 17ee 09bd
00000040: 3877 003d 6cef dfbd 4122 d33b 51d5 9bbc
00000050: c67f bfbb 3933 40bd ff89 3e3d a789 253d
00000060: 108e 8b3d a270 debc 2995 35bc e769 733d
00000070: 4349 743d 5dd3 ecbb 84ac ecbb 512d c0bc
00000080: 8d04 ae3c ab51 2bbc 8187 9abb 222f bd3c
00000090: 03de f03a 9e08 d9bc cdaf 233d 3e28 12bb
000000a0: 0ff4 56bd e1dc e3bb 1baf 7b3b 669d d73c
000000b0: 65e1 8cbc 4c19 d03c 943d b23c e9b0 f03d
000000c0: 7054 583c d04c b8bc 5b89 003e 8c7f 08be
000000d0: fb60 5abc 0821 323c 341a d73d 5755 19bc
000000e0: 7162 52bd 1a3c 9ebd 47a3 643c afc0 ff3b
000000f0: 2e12 2abd 8f07 51bd 1a2c 673b cc7d 67bd
00000100: 61e5 503c 307b b73c 21b0 89ba 05db b83c
00000110: b14a 263d 0d31 4fbd d179 1a3d 75fc 273d
00000120: 99bd c4bd 74d3 003d 1cf5 6d3c fd32 363d
00000130: cea5 e6bc 11a3 7cbc 8bf2 2ebc 7eaf 0f3d
00000140: 873a 3b3d f9e3 393d 76d1 75bd bf7f aa3c
00000150: a0a3 b33c c3bd 01bd e2e9 99bc e31d 2e3c
00000160: 6b95 503c 28e8 e03c 6a93 763d b3ee 87bd
00000170: 523c 813c a447 dd3d 340d cfbc ed1b 963d
00000180: 4f05 b0bc 39f1 e93d 9e3c ed3d cc0c 273d
00000190: 92fc 853c 83e9 0f3d 5255 77bc 0ddf 0fbd
000001a0: ef88 96bc 4cad 76bc bda9 4b3d cb91 babd
000001b0: ced1 c9bc 9342 a83c e404 42bc fcc5 4e3c
000001c0: 844a 44bc b9f1 133d 8a0e 503d fe00 46bd
000001d0: 8ac6 2d3d 22d2 f23c 8123 49bd 7615 d4bc
000001e0: 8f2e 0bbc 1d22 8a3d 8f20 2abd a543 2fbc
000001f0: aa38 b73c bcc8 52bd 978b 3e3d fbd3 cf3d
00000200: fc68 183e 655c 77bc a0d5 e0bc 78b8 6cbd
00000210: 3fdf 22be 67bc ec3c afd0 f3bd 82ab 4cbd
00000220: 1708 05bd 3f0c 413d 1996 64bd 9b7e 9f3c
00000230: 80d9 c1bb f20e 5cbc 108b bfbc d875 98bd
00000240: de90 b5bc 4c97 bb3b f579 8c3c e499 08bd
00000250: da43 f43c f121 37bc dc45 f1bd 5bd7 7cbb
00000260: 4eeb 023d 54ca 6d3c 5f05 293d c0b1 e9bc
00000270: 55cf 80bb 444d 9bbc ea79 9e3d d636 35bd
00000280: 950f 9cbc 656a 4a3d e8de c53b 2018 a03d
00000290: 38bf 123e fb0d 403d a663 fbbc 8edd a93d
000002a0: f975 e4bd cbfd b53d 5e40 b3bd 25a6 423d
000002b0: 64c4 84bd c787 d9bc baf8 28ba 799b 883d
000002c0: 708a edbc 8e30 2d3c 7289 9abc 9188 e43c
000002d0: 3f30 753b 17e3 1cbc 6e46 55bc e5be 6b3c
000002e0: 8d17 88bd 2b45 b13a ac31 aebb 160f 603c
000002f0: 895e f53c 37eb 37bd 040d 4ebd ac41 6c3c
00000300: 04c0 70bd 0cbd 003d 6184 2cbd a1c2 6bbc
00000310: bf04 5f3a 4473 70bc 14bb 4bbb f596 103c
00000320: 107e 9f3c 7119 9bbd 07bf 913d a1e6 83b9
00000330: 155c 96bd 2234 f53c 18da e33c a9e5 84bc
00000340: d0ab 323d 327e c2bc ec72 73bc 47b1 86bc
00000350: 0bdf 843c 1c23 34bb 2322 243d 9db1 5b3d
00000360: e728 13be 8b7d afbd 923e 5dbe 2e87 533c
00000370: f4c5 d23c 5c78 03bd 95e9 c43d 3706 fe3c
00000380: d0e8 343d 58c3 de3c 1af0 20bc 1853 13bd
00000390: bf1b 5e3d 3dda 953d ef36 d5bc ce09 b13b
000003a0: 16da 703b 49d1 fd3c 8af2 95bd 78a4 a23d
000003b0: 1051 51bd f6b9 5cbc 62ef cc3d b8d7 193d
000003c0: 233e 363d 41ca 97bd 37f7 34bd 2944 8f3d
000003d0: d6c3 84bd 31c3 863d feb5 25bc 2824 973b
000003e0: 259f 083e 8bc6 0fbd a999 053d fedd febc
000003f0: a3b9 963d 2195 d93d 57b0 34be ee87 f7bd

conv1.bias f4 [64]
-0.055255577 0.049970526 -0.09601394 0.01568387 0.06507716 -0.170275 0.029553404 -0.15285043
-0.107784204 -0.028220855 0.07104423 0.012038663 0.07907545 -0.0361717 -0.03396888 0.018589297
-0.06658212 -0.028078586 0.065167956 -0.01786188 -0.019810995 0.09884822 -0.013227279 0.015570115
0.03053103 -0.13458778 0.027536634 -0.027493747 -0.031976856 -0.08383071 0.12332154 -0.00089437683
-0.033344474 -0.055660356 0.06799243 -0.065470435 -0.007997395 -5.8353347e-05 0.012273061 -0.09179599
-0.018446503 0.05896463 0.040797893 0.022309955 0.03150699 0.019353999 0.027364917 0.037352484
-0.020779558 -0.07490225 0.016170776 -0.07498742 0.023941671 0.009701617 0.006529181 -0.028756572
0.04644576 0.0263562 0.018007925 -0.020550983 -0.04786965 -0.013723665 -0.035452414 -0.094993204
00000000: ac53 62bd e5ad 4c3d f5a2 c4bd 767b 803c
00000010: 2d47 853d 925c 2ebe fb19 f23c d384 1cbe
00000020: f7bd dcbd 6c2f e7bc a37f 913d d03d 453c
00000030: 4ff2 a13d c728 14bd f422 0bbd 9548 983c
00000040: 355c 88bd 1005 e6bc c776 853d 1453 92bc
00000050: ab4a a2bc f070 ca3d 3bb7 58bc cc19 7f3c
00000060: 361c fa3c 61d1 09be 8294 e13c 913a e1bc
00000070: 2afa 02bd 6faf abbd 0190 fc3d 9d74 6aba
00000080: 3794 08bd 1dfc 63bd 9d3f 8b3d 5d15 86bd
00000090: 8107 03bc 6ec0 74b8 f314 493c 89ff bbbd
000000a0: 1f1d 97bc e584 713d b11b 273d 5ec3 b63c
000000b0: 790d 013d 478c 9e3c 642c e03c ebfe 183d
000000c0: e439 aabc 5a66 99bd 9378 843c 0193 99bd
000000d0: 5321 c43c 88f3 1e3c bdf2 d53b e792 ebbc
000000e0: e93d 3e3d f5e8 d73c 5b85 933c 895a a8bc
000000f0: f712 44bd 39d9 60bc 8d36 11bd cc8b c2bd

bn1.weight f4 [64]
2.044398 1.7163826 1.693754 1.942306 2.0711365 1.9675294 2.0243485 1.5297313
1.9604263 2.1810584 2.0241928 2.072752 2.316698 1.7459847 1.9784793 1.7399926
1.857842 1.8596997 1.9742308 2.2027185 1.9950795 2.100337 2.0271327 1.9382621
1.7794933 2.1712744 1.735046 2.2223604 1.7937516 1.8198225 2.0117266 1.803475
2.1040556 1.639645 1.8226076 1.6416847 2.0999486 2.146434 2.03401 1.7780269
1.8603262 1.9495488 1.8999863 1.867773 2.3137605 1.9278901 2.0296407 2.1038246
1.7975422 2.086518 1.766987 1.9724009 1.8482721 2.1603045 2.1071527 2.1254008
2.0468924 2.0170162 1.9278042 1.7790415 1.8370655 1.8069686 1.9141545 1.6947181
00000000: 6bd7 0240 6db2 db3f eecc d83f 7c9d f83f
00000010: 808d 0440 01d8 fb3f ed8e 0140 3cce c33f
00000020: 40ef fa3f 7696 0b40 608c 0140 f8a7 0440
00000030: c844 1440 6d7c df3f cf3e fd3f 14b8 de3f
00000040: c4cd ed3f a40a ee3f 98b3 fc3f 57f9 0c40
00000050: c45e ff3f ec6b 0640 8bbc 0140 f918 f83f
00000060: 70c6 e33f 29f6 0a40 fd15 de3f 273b 0e40
00000070: a799 e53f f2ef e83f 21c0 0040 45d8 e63f
00000080: d9a8 0640 e3df d13f 354b e93f b922 d23f
00000090: 8f65 0640 2d5f 0940 382d 0240 6396 e33f
000000a0: 2b1f ee3f d18a f93f c032 f33f 3013 ef3f
000000b0: a714 1440 1ac5 f63f a2e5 0140 10a5 0640
000000c0: dd15 e63f 8389 0540 a12c e23f a277 fc3f
000000d0: 2e94 ec3f 6e42 0a40 97db 0640 9106 0840
000000e0: 4900 0340 cb16 0140 4ac2 f63f a2b7 e33f
000000f0: f624 eb3f bf4a e73f 0403 f53f 86ec d83f

bn1.bias f4 [64]
0.5868232 0.44780955 0.40064073 0.49085912 0.4317485 0.3525504 0.58282965 0.24788539
0.5681294 0.66194963 0.55476594 0.6001008 0.64782214 0.35178235 0.6165226 0.37962815
0.4593727 0.55856115 0.55183846 0.7432079 0.49860647 0.6307566 0.49303767 0.5931345
0.37758803 0.73695594 0.33489665 0.56554127 0.43881884 0.45207486 0.5674297 0.37818667
0.53720516 0.3037859 0.4505269 0.37525573 0.5078524 0.75304735 0.52437973 0.39817724
0.6237824 0.50320894 0.38712204 0.46845505 0.95294493 0.44458205 0.6271732 0.6269498
0.29279926 0.52416945 0.47286567 0.47300854 0.47374392 0.8543654 0.61471707 0.7289057
0.60734135 0.53748846 0.5861842 0.36806744 0.4398225 0.43861052 0.507223 0.31750166
00000000: 0c3a 163f 4b47 e53e c820 cd3e e351 fb3e
00000010: 240e dd3e 7c81 b43e 5334 153f abd5 7d3e
00000020: ee70 113f 8875 293f 2405 0e3f 35a0 193f
00000030: acd7 253f d11c b43e 6dd4 1d3f 9f5e c23e
00000040: e632 eb3e ddfd 0e3f 4945 0d3f df42 3e3f
00000050: 5949 ff3e 4479 213f 6f6f fc3e aad7 173f
00000060: 3853 c13e 25a9 3c3f 9377 ab3e 50c7 103f
00000070: ddac e03e 5b76 e73e 1343 113f afa1 c13e
00000080: 4786 093f d389 9b3e 76ab e63e 8521 c03e
00000090: 9d02 023f b6c7 403f c03d 063f e3dd cb3e
000000a0: 34b0 1f3f 4dd2 003f dc34 c63e 57d9 ef3e
000000b0: 33f4 733f 42a0 e33e 6c8e 203f c87f 203f
000000c0: c9e9 953e f82f 063f 731b f23e 2d2e f23e
000000d0: 908e f23e b1b7 5a3f 195e 1d3f 9099 3a3f
000000e0: b97a 1b3f d898 093f 2b10 163f 5673 bc3e
000000f0: 6a30 e13e 8f91 e03e 5ed9 013f 948f a23e

bn1.running_mean f4 [64]
0.032108866 -0.033774644 0.017226337 0.014353125 -0.03830781 0.05642662 0.04182607 0.09789481
0.059741784 -0.008965809 -0.0314135 -0.02456184 -0.00090657035 -0.026254991 0.015041288 -0.039474264
-0.012651077 0.050141685 0.038247325 -0.021450115 -0.014703521 -0.003764938 0.0033417558 0.01070112
-0.014141948 0.067270696 0.06426194 0.0042387703 0.014998446 -0.007891811 0.043816224 -0.023118624
0.012658097 -0.031742413 0.0022255708 -0.024151744 0.063059516 0.008737186 0.023886718 0.058896556
0.022851655 0.028324857 -0.03664784 -0.028606353 0.018499022 -0.004977985 -0.019314233 -0.0031707245
-0.026282346 -0.034948204 0.025757665 0.12998566 0.038101025 -0.036456935 0.014879826 -0.038496193
0.048337456 0.0030131906 0.0026981612 0.020668928 0.018237201 -0.023817861 -0.004279593 -0.07370472
00000000: 9684 033d 4857 0abd 3f1e 8d3c 5f29 6b3c
00000010: a6e8 1cbd 991f 673d d051 2b3d 137d c83d
00000020: cdb3 743d 54e5 12bc 71ab 00bd e935 c9bc
00000030: e8a6 6dba b514 d7bc bc6f 763c c4af 21bd
00000040: 7646 4fbc 5e61 4d3d 3aa9 1c3d 27b8 afbc
00000050: 09e7 70bc 2ebd 76bb 5c01 5b3b c053 2f3c
00000060: a1b3 67bc 38c5 893d c49b 833d 62e5 8a3b
00000070: 0bbc 753c a84c 01bc a478 333d 4563 bdbc
00000080: e863 4f3c 5504 02bd e2da 113b e1d9 c5bc
00000090: 5925 813d 6a26 0f3c 14ae c33c 843d 713d
000000a0: 6533 bb3c 8809 e83c 0c1c 16bd df57 eabc
000000b0: 438b 973c 5d1e a3bb e238 9ebc eecb 4fbb
000000c0: 134e d7bc d925 0fbd bd01 d33c f61a 053e
000000d0: d20f 1c3d de53 15bd 84ca 733c 2fae 1dbd
000000e0: 7ffd 453d f378 453b a2d3 303b e251 a93c
000000f0: 2f66 953c ad1d c3bc d43b 8cbb 80f2 96bd

bn1.running_var f4 [64]
0.00096961117 0.001092632 0.0019235839 0.0005764892 0.0013793386 0.003136076 0.0005378674 0.0036829845
0.0025106072 0.001600582 0.0010059674 0.0010087835 0.0012823816 0.001834591 0.0006916253 0.0013666289
0.0015466516 0.0016369404 0.0013314605 0.00031558707 0.0006989152 0.0012168395 0.0015444297 0.002069653
0.00068044843 0.0020721117 0.002911562 0.0017725393 0.0013651232 0.0022907262 0.0009362675 0.001384891
0.0005626938 0.002504413 0.0008710477 0.000915158 0.0014692846 0.00036740923 0.0006929719 0.0015021733
0.00063532067 0.0016596725 0.0015655234 0.0005833267 0.00034732948 0.00033672794 0.00065681787 0.0007874813
0.0029586824 0.0013034114 0.00050746236 0.001848789 0.0010251044 0.0013357734 0.0004145009 0.0010119681
0.0014270308 0.00039328943 0.0006489515 0.0009766112 0.0009855413 0.0007791922 0.0015429567 0.0016465145
00000000: 812d 7e3a a536 8f3a c420 fc3a 891f 173a
00000010: ecca b43a a086 4d3b acff 0c3a 3a5e 713b
00000020: 0089 243b 9fca d13a aada 833a 2839 843a
00000030: 9615 a83a a976 f03a 304e 353a 7520 b33a
00000040: 04b9 ca3a 9b8e d63a 6784 ae3a 6175 a539
00000050: 6837 373a 5c7e 9f3a 766e ca3a 04a3 073b
00000060: 1f60 323a 44cc 073b e8cf 3e3b 8d54 e83a
00000070: efed b23a 0220 163b d96f 753a 3b85 b53a
00000080: be81 133a 1421 243b 0657 643a 37e7 6f3a
00000090: 0395 c03a d5a0 c039 8fa8 353a 92e4 c43a
000000a0: a68b 263a 5e89 d93a 4032 cd3a 64ea 183a
000000b0: c619 b639 dc8a b039 4d2e 2c3a fa6e 4e3a
000000c0: 74e6 413b 3bd7 aa3a 3907 053a 1153 f23a
000000d0: cc5c 863a 1e15 af3a 5e51 d939 04a4 843a
000000e0: 350b bb3a 6a32 ce39 661e 2a3a a201 803a
000000f0: 472d 813a b442 4c3a 093d ca3a dccf d73a

conv2.weight f4 [32, 64, 3, 3]
-0.107750274 -0.12155856 -0.018110236 -0.07302909 -0.11952447 0.29409793 0.16755629 -0.17090796
0.19608441 0.01331201 -0.18193606 -0.2455558 0.09479787 -0.13310988 -0.06775619 0.3710899
0.31840098 0.20335735 -0.4177411 -0.07219427 -0.020676358 -0.3148991 -0.05745314 0.18028581
0.028690394 0.2936778 0.2914095 0.119477965 -0.05362302 0.07860917 0.22416516 -0.034013778
0.21349719 -0.06539918 0.09128954 0.20186396 -0.20456016 0.009325001 -0.26182288 -0.03680772
0.3921231 -0.1222054 0.36218372 0.4518359 -0.14782976 -0.12863575 0.18710138 -0.049836777
-0.2083718 -0.22172262 -0.0018861713 -0.00574152 0.00067025673 0.23567817 1.2042148e-05 0.12242731
0.13652134 -0.006199752 -0.032465965 0.35386083 0.1255977 0.01878728 -0.014864022 -0.21136792
-0.1825333 -0.059229005 -0.034638524 -0.3550248 0.15595149 0.15841125 0.03988059 -0.0072496547
-0.18894005 0.10808974 0.18518284 -0.13307002 0.0934418 0.28009728 0.27728435 -0.089748405
-0.3143242 -0.15588035 0.13497764 0.4055987 -0.04227887 0.14813036 0.10824204 0.06546368
-0.37019834 -0.39841884 -0.13061588 0.020259434 -0.14471999 0.13862912 0.018259298 -0.1555298
0.34237742 0.11401001 0.23208591 -0.0048227874 0.22216158 -0.009360372 -0.049233906 -0.044489797
-0.069470644 0.07979757 0.094755165 0.3082991 0.07901531 0.31304502 -0.12868457 0.047362052
0.24106273 -0.14207214 -0.08976814 -0.54448444 -0.05576653 -0.1923494 -0.07988044 0.22210185
-0.04121062 0.20319566 0.12162927 0.01355054 0.18586735 0.019362632 -0.11602828 0.18994881
0.03529395 -0.22938882 0.044802073 0.096129775 0.047373377 0.14135613 0.11651367 -0.015549633
-0.0044805966 -0.18672448 0.16138227 -0.01511142 0.24420664 0.28895247 0.23959443 0.34675583
-0.0037703307 -0.0018924235 0.1332582 -0.17207412 0.35299638 0.32113197 -0.2787487 0.22625865
0.0027014397 0.2791425 -0.036590032 0.33529213 0.07858533 -0.10730832 -0.024826286 0.018323425
0.117307894 -0.41244704 0.16742672 0.12708613 0.37973803 -0.11426165 -0.03703358 0.32761082
-0.413898 0.00015766344 0.11727546 -0.014470197 -0.032205604 0.030157795 0.26163927 -0.059604436
-0.12478013 0.39570484 -0.066491306 0.011396155 -0.16543773 0.24420592 -0.14883772 -0.23456815
0.14971521 0.12532711 -0.033146698 0.16233899 0.321354 -0.06445091 -0.158579 0.313644
-0.052777227 0.30884597 -0.09008083 0.12353764 0.17214087 -0.16817066 -0.40127954 0.42249402
0.19509335 -0.28614157 0.12219777 0.011036512 -0.17382456 -0.36740962 0.1341771 -0.23973978
-0.1347563 -0.30366567 0.09823099 -0.03670237 -0.16515154 0.31671503 0.16592406 0.22135198
0.20610157 0.081250876 0.034531143 0.3698957 -0.0013144645 -0.02222737 -0.04411705 -0.01298198
0.09095014 -0.034308232 0.24492732 0.044611532 0.12888993 0.097240545 0.091006204 0.21646376
0.026942031 -0.14061742 0.34265494 0.03185392 0.15620142 0.35841882 0.029660234 0.07709881
0.28903967 -0.005641841 0.0040799323 0.41290617 0.006196877 -0.15404005 -0.16308865 0.18115641
0.18203774 -0.22669278 0.2616173 -0.026220415 -0.11093993 -0.09763663 0.07172512 -0.0877862
00000000: 2dac dcbd b2f3 f8bd eb5b 94bc 4790 95bd
00000010: 3fc9 f4bd 0194 963e e093 2b3e 7f02 2fbe
00000020: 5aca 483e 9e1a 5a3c 724d 3abe fb72 7bbe
00000030: 6325 c23d f54d 08be c2c3 8abd 7fff bd3e
00000040: 7405 a33e e93c 503e 29e2 d5be 97da 93bd
00000050: 7761 a9bc 743a a1be fc53 6bbd d89c 383e
00000060: 1e08 eb3c f05c 963e a033 953e ddb0 f43d
00000070: d0a3 5bbd d8fd a03d 8d8b 653e 0852 0bbd
00000080: 029f 5a3e 01f0 85bd 03f6 ba3d 6db5 4e3e
00000090: 3878 51be e4c7 183c a60d 86be b1c3 16bd
000000a0: 5cc4 c83e d346 fabd 2570 b93e 0957 e73e
000000b0: af60 17be 17b9 03be 8197 3f3e a621 4cbd
000000c0: 6b5f 55be 410b 63be 6839 f7ba 5c23 bcbb
000000d0: 2bb4 2f3a 9e55 713e a208 4a37 2bbb fa3d
000000e0: 40cc 0b3e 4a27 cbbb 08fb 04bd 3f2d b53e
000000f0: af9c 003e c8e7 993c 3a88 73bc d570 58be
00000100: 02ea 3abe 1d9a 72bd 20e1 0dbd d0c5 b5be
00000110: bfb1 1f3e 8f36 223e d459 233d 838e edbb
00000120: 8079 41be 275e dd3d 92a0 3d3e 8243 08be
00000130: 6a5e bf3d e968 8f3e 37f8 8d3e 03ce b7bd
00000140: 1aef a0be 199f 1fbe 9437 0a3e a2aa cf3e
00000150: 9c2c 2dbd 7caf 173e 01ae dd3d d211 863d
00000160: a38a bdbe 8efd cbbe 2bc0 05be 1df7 a53c
00000170: 7a31 14be cbf4 0d3e 8694 953c 3443 1fbe
00000180: 184c af3e 157e e93d eea7 6d3e 7908 9ebb
00000190: 537e 633e 3f5c 19bc 7ea9 49bd ef3a 36bd
000001a0: a046 8ebd e96c a33d ff0e c23d 61d9 9d3e
000001b0: c7d2 a13d 7047 a03e e3c5 03be b6fe 413d
000001c0: 26d9 763e 5c7b 11be 5cd8 b7bd 5563 0bbf
000001d0: 726b 64bd 3ef7 44be 5b98 a3bd ab6e 633e
000001e0: 78cc 28bd 8612 503e c418 f93d 1603 5e3c
000001f0: 0354 3e3e 629e 9e3c 3ca0 edbd f181 423e
00000200: 6490 103d e7e4 6abe 6182 373d b0df c43d
00000210: 960a 423d a9bf 103e b89e ee3d e3c3 7ebc
00000220: f8d1 92bb b434 3fbe 6541 253e e495 77bc
00000230: 4e11 7a3e 94f1 933e 3e58 753e fb89 b13e
00000240: a717 77bb 320b f8ba d674 083e 3334 30be
00000250: f1bb b43e 696b a43e 26b8 8ebe 59b0 673e
00000260: a30a 313b c4eb 8e3e 6edf 15bd 69ab ab3e
00000270: 58f1 a03d 77c4 dbbd 7f60 cbbc 021b 963c
00000280: 1f3f f03d 422c d3be e971 2b3e de22 023e
00000290: 066d c23e 0302 eabd 86b0 17bd 9bbc a73e
000002a0: 70ea d3be 7552 2539 1e2e f03d 6814 6dbc
000002b0: 06ea 03bd 7b0d f73c 95f5 853e c823 74bd
000002c0: ba8c ffbd d399 ca3e 982c 88bd f0b6 3a3c
000002d0: 8268 29be 1e11 7a3e ea68 18be a232 70be
000002e0: f24e 193e c055 003e d5c4 07bd 313c 263e
000002f0: 8388 a43e d7fe 83bd 8962 22be f295 a03e
00000300: ef2c 58bd 0f21 9e3e 4c7c b8bd 4d01 fd3d
00000310: b245 303e ee34 2cbe 8374 cdbe 2351 d83e
00000320: 8dc6 473e 2681 92be d342 fa3d 7dd2 343c
00000330: 11ff 31be 1d1d bcbe b965 093e 587e 75be
00000340: 8efd 09be 117a 9bbe 542d c93d 3955 16bd
00000350: 7c1d 29be 7928 a23e ffe7 293e 18aa 623e
00000360: 4a0c 533e dc66 a63d 8770 0d3d f862 bd3e
00000370: 1c4a acba 2c16 b6bc 14b4 34bd 5fb2 54bc
00000380: 1144 ba3d ca86 0cbd 3ace 7a3e 95ba 363d
00000390: b9fb 033e 0d26 c73d 7661 ba3d ada8 5d3e
000003a0: 89b5 dc3c 03fe 0fbe 7870 af3e 4279 023d
000003b0: 44f3 1f3e ac82 b73e 05fa f23c fbe5 9d3d
000003c0: 02fd 933e 31df b8bb f4b0 853b 7068 d33e
000003d0: 2c0f cb3b adbc 1dbe b600 27be 1181 393e
000003e0: 1a68 3a3e 2722 68be b4f2 853e 32cc d6bc
000003f0: 7934 e3bd b7f5 c7bd 9fe4 923d 40c9 b3bd

conv2.bias f4 [32]
0.050791886 -0.023655826 0.024187183 -0.0042161997 -0.026529519 -0.010767532 0.02353829 -0.026075834
0.014528935 -0.045550518 0.026472924 -0.01132397 -0.02212837 -0.049255688 0.038410176 0.029107284
0.025250316 0.047480263 0.006941954 -0.048601758 0.035564043 -0.03283898 0.058124967 0.019119106
0.024043508 0.003396342 -0.024701698 0.01363166 -0.02205393 -0.027115515 -0.03387373 -0.026952783
00000000: 270b 503d ddc9 c1bc 3324 c63c 0c28 8abb
00000010: 6f54 d9bc 4d6a 30bc 5fd3 c03c fd9c d5bc
00000020: c50a 6e3c 2e93 3abd bfdd d83c 2c88 39bc
00000030: 8e46 b5bc 55c0 49bd fd53 1d3d 6672 ee3c
00000040: c0d9 ce3c aa7a 423d 5579 e33b a312 47bd
00000050: 9aab 113d 2b82 06bd 7214 6e3d ac9f 9c3c
00000060: e4f6 c43c 2a95 5e3b 375b cabc 5357 5f3c
00000070: 72aa b4bc 5b21 debc 2ebf 0abd 15cc dcbc

exp_avg f4 [64, 32, 3, 3]
-0.002360028 -0.001025691 -0.0015397192 -0.0021639126 -2.0970003e-05 -0.00037254713 -0.0017365015 0.0004445303
-0.00038540282 -0.0006797456 -0.00028182616 -0.0005691301 -0.0006967622 -4.1462343e-05 -0.00035950448 -0.00032132363
0.0003139908 1.5577565e-05 -0.0077452417 0.0011256906 0.0044717537 -0.006888581 0.00047369822 0.004918428
-0.0075519294 -0.0036530923 0.0015837973 -0.005346676 0.0005372638 0.002762694 -0.004380621 0.00027463175
0.0035954593 -0.004431989 -0.0019727768 0.001661131 -0.013336038 -0.0017957062 0.002444179 -0.012895096
-0.0014389979 0.004463942 -0.012145692 -0.0029205661 0.0028676637 1.0601585e-09 -6.238726e-08 -1.3786743e-07
8.57765e-09 -8.810298e-07 -5.358515e-07 -7.853323e-08 -2.4201823e-08 -1.603074e-07 -0.0013484362 7.634895e-05
0.0007658948 -0.00065794407 -0.00013943377 0.0012614033 0.00028173695 -0.00046761538 0.00021798228 -0.003974423
0.00021538745 0.0016128853 -0.004274309 -0.00047021385 0.0018530858 -0.0042702896 -0.0020893398 0.00069498376
-0.0024048414 -0.0007482305 0.00014354881 -0.0023309046 -0.00028246324 -1.6901417e-05 -0.0023363594 0.00016820598
8.832766e-05 -5.075444e-26 -2.115732e-25 2.095341e-24 1.243088e-27 -4.3586414e-25 -1.1142896e-25 4.5564014e-26
-1.7632873e-24 -3.4560238e-25 2.1731873e-06 1.01547926e-07 1.2060738e-07 2.845945e-06 3.6661088e-06 -1.5190594e-06
4.0507314e-07 3.94349e-06 -2.7059489e-06 -0.0006818884 -0.00076093525 -0.00036427175 -6.344218e-05 -5.4304553e-05
-0.00032381658 -5.3073356e-05 0.0004926667 -7.855452e-05 0.0 0.0 0.0 0.0
0.0 0.0 0.0 0.0 0.0 -0.010187553 -0.0010899948 0.0018892201
-0.00953451 -0.0014346392 0.00377634 -0.008971438 -0.0032568632 0.0025975353 -0.0030752167 0.00020231544
0.0012550706 -0.0029297464 0.0008615117 0.0021819347 -0.002938283 -0.0011523934 0.00076752744 0.00013785553
-0.00012797289 -1.2809216e-05 0.00026853711 -0.00029202667 -0.00019620825 -0.000117149 -0.00018925707 -0.0002644111
-0.0014296263 -0.00021562309 0.0004007067 -0.00092566165 -0.0006034339 0.0009562556 -1.9588648e-05 5.1509098e-05
0.0007356604 -0.013702018 -0.002555484 0.0024623168 -0.012683129 -0.0016797107 0.0051503344 -0.010681465
-0.0013513361 0.004066104 -0.001131105 -0.0005060838 -0.0006084629 -0.0013459284 0.0002643125 -7.4432224e-05
-0.0010680541 2.4147625e-05 -0.000121517274 -0.0031575705 9.325812e-05 0.0013689084 -0.002675648 -0.00033867758
0.0020492696 -0.0024858913 -0.0018844398 0.0011716675 -0.0027010224 -0.0012478693 -0.00054953276 -0.002041029
0.0006132142 0.00044619085 -0.001596513 0.0005012285 0.000350211 0.0 0.0 0.0
0.0 0.0 0.0 0.0 0.0 0.0 -1.5089553e-06 1.4184003e-07
2.6218643e-07 1.1942169e-06 4.2424513e-06 -1.4398112e-06 -1.8552772e-07 2.2627187e-06 6.0803706e-07 -3.1481525e-32
-8.4536346e-32 1.6704334e-31 4.9412236e-28 -1.8301912e-27 1.0598233e-27 -3.007785e-28 -1.9214861e-28 1.9329595e-28
-0.0018334315 -0.0005915837 -5.967012e-05 -0.001853273 -0.0013457896 -0.00038732516 -0.0018138604 -0.00034179923
0.0002748763 -0.0077796406 -0.00017863415 0.0021547226 -0.007588982 -0.000897928 0.0032578532 -0.0072989743
-0.0028683217 0.0019556426 -0.00877072 -0.0019772924 0.000906564 -0.008424243 -0.0019266858 0.0019923826
-0.0073855147 -0.0010161026 0.0023914983 -2.9519733e-05 1.8090277e-05 -6.7655387e-06 -0.00031863592 -8.338434e-05
-3.246965e-05 -0.0005348858 -0.00017290439 3.7781225e-05 -2.4835032e-09 -2.7001331e-08 -8.005254e-09 3.453698e-08
00000000: b3aa 1abb 7b70 86ba 67d0 c9ba 6ed0 0dbb
00000010: bde8 afb7 6e52 c3b9 529b e3ba d90f e939
00000020: e40f cab9 f430 32ba 11c2 93b9 ad31 15ba
00000030: eba6 36ba dae7 2db8 e07b bcb9 5477 a8b9
00000040: 229f a439 91ac 8237 cccb fdbb e98b 933a
00000050: ca87 923b 9bb9 e1bb b35a f839 c42a a13b
00000060: 2d76 f7bb b868 6fbb 6b97 cf3a 2b33 afbb
00000070: 2ad7 0c3a 500e 353b 508b 8fbb 73fc 8f39
00000080: cca1 6b3b 383a 91bb b449 01bb 4fba d93a
00000090: 667f 5abc e75d ebba 852e 203b f445 53bc
000000a0: c29c bcba 4246 923b b9fe 46bc f866 3fbb
000000b0: 6aef 3b3b 03b5 9130 c2f9 85b3 b608 14b4
000000c0: e75c 1332 e87f 6cb5 6fd7 0fb5 1aa6 a8b3
000000d0: 5fe4 cfb2 f620 2cb4 03be b0ba 881d a038
000000e0: 54c6 483a e179 2cba f834 12b9 ac55 a53a
000000f0: 18b6 9339 462a f5b9 2c92 6439 e03b 82bb
00000100: a1d9 6139 7367 d33a 810f 8cbb 0987 f6b9
00000110: 3ee3 f23a c9ed 8bbb 4eed 08bb 922f 363a
00000120: 8b9a 1dbb e624 44ba 9785 1639 17c2 18bb
00000130: 9317 94b9 84c7 8db7 9b1d 19bb 7360 3039
00000140: 8d3c b938 e552 7b95 1df5 8296 811e 2218
00000150: a4f9 c412 b7e4 0697 3ff1 0996 409f 6115
00000160: 816d 0898 e2ea d596 13d7 1136 9012 da33
00000170: 4e80 0134 f6fc 3e36 4507 7636 7ce2 cbb5
00000180: d478 d934 5252 8436 d997 35b6 c2c0 32ba
00000190: 8079 47ba bafb beb9 430c 85b8 12c5 63b8
000001a0: edc5 a9b9 159b 5eb8 4d26 013a a3bd a4b8
000001b0: 0000 0000 0000 0000 0000 0000 0000 0000
000001c0: 0000 0000 0000 0000 0000 0000 0000 0000
000001d0: 0000 0000 b2e9 26bc 28de 8eba b59f f73a
000001e0: a236 1cbc 810a bcba 797c 773b f0fc 12bc
000001f0: 1971 55bb 693b 2a3b 9389 49bb a324 5439
00000200: 2e81 a43a fd00 40bb 12d7 613a cafe 0e3b
00000210: 3590 40bb e80b 97ba e533 493a 508d 1039
00000220: 7630 06b9 2ae7 56b7 71ca 8c39 281b 99b9
00000230: 40bd 4db9 e4ad f5b8 4f73 46b9 a8a0 8ab9
00000240: 4c62 bbba e218 62b9 f115 d239 1aa8 72ba
00000250: c32f 1eba 3aad 7a3a 4d52 a4b7 790b 5838
00000260: 55d9 403a 6e7e 60bc e879 27bb d25e 213b
00000270: e6cc 4fbc bd29 dcba 23c4 a83b 5001 2fbc
00000280: 511f b1ba f43c 853b 9641 94ba b5aa 04ba
00000290: 4181 1fba dd69 b0ba 6c93 8a39 7f18 9cb8
000002a0: f3fd 8bba a190 ca37 17d7 feb8 3eef 4ebb
000002b0: 9293 c338 f26c b33a ed59 2fbb 8990 b1b9
000002c0: 0a4d 063b 56ea 22bb 4fff f6ba a392 993a
000002d0: a303 31bb 8c8f a3ba 850e 10ba c9c2 05bb
000002e0: 1cc0 203a b9ee e939 1642 d1ba e064 033a
000002f0: 869c b739 0000 0000 0000 0000 0000 0000
00000300: 0000 0000 0000 0000 0000 0000 0000 0000
00000310: 0000 0000 0000 0000 4f87 cab5 b14c 1834
00000320: a1c2 8c34 fb48 a035 615a 8e36 893f c1b5
00000330: 7935 47b4 36d9 1736 fd37 2335 2076 238b
00000340: 0a78 db8b acd5 580c f897 1c12 b000 1193
00000350: 8aef a712 1aa4 be91 ca93 7391 1f08 7511
00000360: c14f f0ba 8314 1bba 4e46 7ab8 86e9 f2ba
00000370: 3565 b0ba e711 cbb9 0ebf edba 8433 b3b9
00000380: 461d 9039 5bec febb bd4f 3bb9 3f36 0d3b
00000390: ffac f8bb ee62 6bba b581 553b 3c2c efbb
000003a0: 74fa 3bbb 3d2a 003b 11b3 0fbc 7695 01bb
000003b0: 7ba6 6d3a d605 0abc d988 fcba a292 023b
000003c0: 3002 f2bb bf2e 85ba afba 1c3b 25a1 f7b7
000003d0: 93c0 9737 8903 e3b6 970e a7b9 a0de aeb8
000003e0: 0530 08b8 9437 0cba ab4d 35b9 4877 1e38
000003f0: 40aa 2ab1 8ef0 e7b2 7b87 09b2 d055 1433

exp_avg_sq f4 [64, 32, 3, 3]
0.08526237 0.058113605 0.091995016 0.081438154 0.043508254 0.07814506 0.10169474 0.06667978
0.09476124 0.009628972 0.009341229 0.008968995 0.0119709205 0.011327247 0.009713841 0.01257023
0.011161 0.010712295 0.6985766 0.6074647 0.6842422 0.51513726 0.18308306 0.42541385
0.7832401 0.6498696 0.7200403 0.3550914 0.3169761 0.3305011 0.2746821 0.11982441
0.22405452 0.3902586 0.33147228 0.3403777 1.1470776 0.8637064 1.164693 0.7121342
0.017248768 0.57862806 1.3243577 0.93746156 1.3328733 1.4586105e-07 1.8802435e-08 6.7274133e-09
5.1892044e-07 4.2596858e-07 3.1908934e-07 3.975998e-07 6.852792e-07 3.4784924e-07 0.0041939956 0.0063206106
0.0059425277 0.0038398562 0.009429652 0.007516784 0.0036104445 0.007279465 0.0061073415 0.108114645
0.096763335 0.11630307 0.089645855 0.035446033 0.079788014 0.13172407 0.10910179 0.12698121
0.18893385 0.13456571 0.2048589 0.15297738 0.060396995 0.13370813 0.23241332 0.14776936
0.2124214 1.2078882e-09 5.200706e-10 2.200469e-07 1.0773565e-09 2.3408288e-07 6.1411587e-09 1.7178561e-09
3.2226277e-09 1.8289388e-08 8.78989e-05 0.00012774432 8.101386e-05 0.00018468709 0.0002666703 0.00021126
0.00012788127 0.00022314116 0.00015410548 0.08566755 0.07034214 0.0932834 0.092260234 0.058595862
0.08484204 0.10288681 0.06565098 0.08963963 0.0 0.0 0.0 0.0
0.0 0.0 0.0 0.0 0.0 0.7309625 0.610444 0.6938321
0.5046433 0.10064601 0.41215682 0.828665 0.6490748 0.768058 0.07441034 0.06413718
0.07456198 0.0544214 0.03123097 0.058273908 0.07005174 0.06408076 0.08086871 0.039751403
0.03826896 0.039612137 0.041448373 0.031480607 0.036681868 0.049253456 0.037758242 0.03464803
0.0023737948 0.0032586863 0.0023864235 0.0030048608 0.0047052023 0.0039002819 0.002513492 0.0038522396
0.0031165031 0.91604984 0.67554355 0.9335043 0.5657202 0.025198989 0.4721954 1.0670737
0.7297114 1.0875165 0.044536505 0.035062205 0.050295375 0.039781176 0.023708327 0.040518958
0.049128752 0.037503418 0.051222764 0.08614148 0.08706254 0.08214843 0.08658196 0.06928084
0.08403807 0.09664133 0.09496687 0.08681557 0.20302428 0.14961913 0.21567921 0.17680547
0.08858515 0.16751449 0.22935766 0.15147448 0.21136095 0.0 0.0 0.0
0.0 0.0 0.0 0.0 0.0 0.0 2.2114353e-05 6.581475e-05
6.423579e-05 2.34225e-05 8.9053916e-05 5.43122e-05 3.840455e-05 6.4284126e-05 3.9651517e-05 1.6256918e-20
1.9567567e-13 7.1429075e-14 8.067586e-11 1.2475446e-09 3.3251907e-10 3.016347e-11 1.4114334e-11 1.2321547e-11
0.052346535 0.04297616 0.043080907 0.04408394 0.027251922 0.04035614 0.067928396 0.059300803
0.063659936 0.37685207 0.32747558 0.36572286 0.2905045 0.07479341 0.24056807 0.45081103
0.36259684 0.4241095 0.5228828 0.37955707 0.5004365 0.33774778 0.022002341 0.26128677
0.6316214 0.43169045 0.61032057 0.0030162274 0.0031209826 0.002969546 0.004356709 0.004374799
0.003872368 0.0039568124 0.004242764 0.0034184707 2.0113337e-05 9.715965e-06 2.933215e-06 2.8413157e-05
00000000: 0a9e ae3d 8808 6e3d e267 bc3d 0cc9 a63d
00000010: b635 323d 840a a03d 5545 d03d 698f 883d
00000020: 2e12 c23d d6c2 1d3c f40b 193c b1f2 123c
00000030: ae21 443c eb95 393c cd26 1f3c 5ef3 4d3c
00000040: a0dc 363c 9f82 2f3c ebd5 323f ce82 1b3f
00000050: 7f2a 2f3f 09e0 033f 207a 3b3e d8cf d93e
00000060: 6c82 483f db5d 263f 9054 383f 8ace b53e
00000070: b14a a23e 7137 a93e 22a3 8c3e 8066 f53d
00000080: 8c6e 653e facf c73e bcb6 a93e fc45 ae3e
00000090: 70d3 923f dd1b 5d3f a914 953f 6d4e 363f
000000a0: 4a4d 8d3c f820 143f 8e84 a93f 7bfd 6f3f
000000b0: 989b aa3f fb9d 1c34 fe82 a132 f426 e731
000000c0: f14b 0b35 adb0 e434 4e4f ab34 b375 d534
000000d0: 07f4 3735 09c0 ba34 c96d 893b 201d cf3b
000000e0: 89b9 c23b 19a6 7b3b d47e 1a3c 5b4f f63b
000000f0: 359d 6c3b 9488 ee3b 1820 c83b 366b dd3d
00000100: db2b c63d 4e30 ee3d 3f98 b73d dc2f 113d
00000110: e667 a33d ade2 063e c270 df3d 5d07 023e
00000120: e077 413e 98cb 093e 88c6 513e 1aa6 1c3e
00000130: d762 773d c9ea 083e c2fd 6d3e da50 173e
00000140: ff84 593e ca02 a630 b7f4 0e30 0846 6c34
00000150: 1d12 9430 3658 7b34 3402 d331 b019 ec30
00000160: 1175 5d31 ca1a 9d32 5d56 b838 1bf3 0539
00000170: fce5 a938 90a8 4139 e2cf 8b39 ad85 5d39
00000180: de17 0639 00fb 6939 6097 2139 7872 af3d
00000190: 8a0f 903d 5e0b bf3d eff2 bc3d 3702 703d
000001a0: aac1 ad3d 52b6 d23d 0574 863d fb94 b73d
000001b0: 0000 0000 0000 0000 0000 0000 0000 0000
000001c0: 0000 0000 0000 0000 0000 0000 0000 0000
000001d0: 0000 0000 5c20 3b3f 0f46 1c3f fb9e 313f
000001e0: 4e30 013f 7f1f ce3d 3806 d33e 6423 543f
000001f0: c429 263f 739f 443f 7364 983d 5b5a 833d
00000200: f4b3 983d f9e8 5e3d 17d8 ff3c 9fb0 6e3d
00000210: 4977 8f3d c63c 833d 7f9e a53d 5ed2 223d
00000220: eabf 1c3d 5640 223d c5c5 293d cff1 003d
00000230: ba3f 163d febd 493d 63a8 1a3d 18eb 0d3d
00000240: ab91 1b3b af8f 553b 8b65 1c3b 33ed 443b
00000250: 192e 9a3b df9b 7f3b 66b9 243b db75 7c3b
00000260: 3f3e 4c3b 3e82 6a3f 6cf0 2c3f 23fa 6e3f
00000270: 0ad3 103f 1c6e ce3c 98c3 f13e df95 883f
00000280: 5ece 3a3f be33 8b3f e96b 363d 639d 0f3d
00000290: 8602 4e3d 96f1 223d f737 c23c 35f7 253d
000002a0: 3b3b 493d 2f9d 193d f6ce 513d f26a b03d
000002b0: d84d b23d 703d a83d e251 b13d 1de3 8d3d
000002c0: 271c ac3d e4eb c53d fe7d c23d 5dcc b13d
000002d0: 99e5 4f3e c235 193e 03db 5c3e 7e0c 353e
000002e0: 226c b53d eb88 2b3e bcdc 6a3e 201c 1b3e
000002f0: 016f 583e 0000 0000 0000 0000 0000 0000
00000300: 0000 0000 0000 0000 0000 0000 0000 0000
00000310: 0000 0000 0000 0000 3682 b937 0606 8a38
00000320: 54b6 8638 707b c437 75c2 ba38 48cd 6338
00000330: 9214 2138 47d0 8638 7e4f 2638 d18a 991e
00000340: ac4f 5c2a 0fd8 a029 7968 b12e 1376 ab30
00000350: e6cd b62f 0ca9 042e 4f4d 782d 51c3 582d
00000360: 5269 563d c507 303d 9b75 303d 5d91 343d
00000370: 6c3f df3c 7b4c 253d 0b1e 8b3d 66e5 723d
00000380: 2460 823d c1f2 c03e e1aa a73e 0740 bb3e
00000390: 01bd 943e 4a2d 993d 7a57 763e b4d0 e63e
000003a0: 4ba6 b93e e124 d93e a6db 053f 4e55 c23e
000003b0: 9b1c 003f 47ed ac3e 413e b43c 61c7 853e
000003c0: f1b1 213f 8806 dd3e f83d 1c3f e6ab 453b
000003d0: 6689 4c3b b79c 423b b9c2 8e3b 795a 8f3b
000003e0: 8ec7 7d3b 26a8 813b e206 8b3b 6c08 603b
000003f0: 10b9 a837 c001 2337 40d8 4436 ca58 ee37

exp_avg f4 [64]
7.0170614e-10 -1.0621889e-09 8.8065283e-10 -9.1339586e-10 -5.3278454e-10 -1.4743378e-09 -7.679588e-09 -9.1734687e-10
1.1462603e-09 1.0409732e-09 -8.7548957e-10 2.8670288e-11 1.4371523e-09 5.8800376e-10 1.7100498e-09 3.0959524e-10
-1.8181295e-11 -1.6834842e-09 -8.7630886e-10 3.1544083e-09 -4.000287e-09 1.9309972e-10 4.2924073e-09 -3.9176234e-10
-1.0313845e-09 5.715666e-10 4.0054564e-11 -2.8867408e-09 1.0300167e-09 -9.521994e-10 3.538834e-09 -1.6368464e-09
1.7707938e-09 7.34791e-10 -8.260242e-10 6.974411e-10 5.40623e-10 1.4558733e-09 3.732156e-09 1.374583e-09
-2.1039737e-09 1.8263781e-10 -1.4742472e-09 -2.4144267e-09 -1.06035e-09 -5.257868e-09 1.2325495e-09 2.4943003e-09
1.1487716e-09 -2.750016e-10 3.2866678e-09 3.763827e-10 -1.2599027e-09 5.1373295e-10 3.8761386e-10 -2.9238953e-09
-2.7815485e-09 1.7578982e-09 -1.5603304e-09 2.679837e-09 1.1051551e-09 3.7173926e-09 -6.4532835e-10 6.916217e-10
00000000: 2ee2 4030 73fc 91b0 6f12 7230 8512 7bb0
00000010: 6173 12b0 a6a1 cab0 2fef 03b2 8c28 7cb0
00000020: 738a 9d30 fd11 8f30 1aa7 70b0 c02f fc2d
00000030: 4d85 c530 16a1 2130 0707 eb30 a833 aa2f
00000040: a3ec 9fad 5660 e7b0 c1e0 70b0 f0c4 5831
00000050: e672 89b1 bd50 542f 6a7c 9331 a65f d7af
00000060: 9ec0 8db0 6d1c 1d30 6e29 302e 1560 46b1
00000070: 7e90 8d30 8ade 82b0 d32f 7331 6af7 e0b0
00000080: 4560 f330 52fa 4930 490e 63b0 0eb6 3f30
00000090: f69a 1430 fd17 c830 643c 8031 d7eb bc30
000000a0: 7f95 10b1 f9cf 482f 769e cab0 0beb 25b1
000000b0: c0bb 91b0 b2a8 b4b1 7b66 a930 3268 2b31
000000c0: cfe2 9d30 092f 97af acdb 6131 28eb ce2f
000000d0: e328 adb0 be36 0d30 cd17 d52f b6ed 48b1
000000e0: 8525 3fb1 8b9a f130 3f73 d6b0 3128 3831
000000f0: 30e4 9730 1075 7f31 f262 31b0 8d1c 3e30

exp_avg_sq f4 [64]
1.6442108e-13 4.3557856e-14 6.192169e-14 1.3355129e-13 6.539334e-14 5.45601e-14 8.993904e-14 1.021489e-13
4.3505726e-14 4.782645e-14 6.0866886e-14 6.389752e-14 1.2172716e-13 4.5377195e-14 8.954385e-14 5.1260052e-14
7.0224195e-14 5.543303e-14 3.806198e-14 1.9303707e-13 6.928524e-14 5.640548e-14 5.414533e-14 4.9672272e-14
1.8449149e-13 7.8188595e-14 7.3090094e-14 5.706075e-14 4.8174907e-14 3.6935275e-14 8.346368e-14 1.6582303e-14
6.304677e-14 4.1861673e-14 6.822511e-14 4.9198208e-14 5.5717268e-14 1.2612466e-13 9.9303276e-14 1.4211442e-13
4.8464742e-14 2.1974737e-14 7.9816924e-14 9.0712004e-14 1.11665316e-13 1.513501e-13 1.2638267e-13 6.837488e-14
2.8437244e-14 4.4034746e-14 7.152556e-14 2.0976432e-13 1.0210098e-13 1.4195168e-13 1.4571845e-13 9.2364606e-14
4.9310243e-14 5.3230034e-14 9.767455e-14 9.1225394e-14 1.03717856e-13 5.967337e-14 5.6522132e-14 6.3700754e-14
00000000: 261f 392a ca2a 4429 6d6f 8b29 8a5d 162a
00000010: b240 9329 83b7 7529 5486 ca29 d504 e629
00000020: b0ee 4329 2564 5729 5f0f 8929 6ae2 8f29
00000030: 770d 092a 585c 4c29 84a2 c929 d1da 6629
00000040: 7e21 9e29 efa5 7929 7a6a 2b29 2657 592a
00000050: 3904 9c29 1707 7e29 51d9 7329 3bb4 5f29
00000060: 0db8 4f2a a810 b029 9295 a429 487d 8029
00000070: e3f5 5829 7957 2629 89f1 bb29 305c 9528
00000080: fdf7 8d29 3987 3c29 19a1 9929 ac91 5d29
00000090: a3ed 7a29 f500 0e2a 719c df29 b101 202a
000000a0: 0b44 5a29 4bee c528 53bb b329 e943 cc29
000000b0: ac72 fb29 b267 2a2a 534b 0e2a 6ff7 9929
000000c0: e911 0029 9b50 4629 ae0f a129 732c 6c2a
000000d0: 35e9 e529 c9d2 1f2a 7c10 242a 92fc cf29
000000e0: d712 5e29 0dba 6f29 8bf1 db29 dc6b cd29
000000f0: 468d e929 5b5f 8629 958d 7e29 fc70 8f29

exp_avg f4 [64]
0.00045750252 0.0002448865 0.0007490615 -0.0003408987 0.00018267245 0.0007225071 -0.000600457 0.00028235
0.00023126269 0.0002902424 -8.1991726e-05 0.000107456326 0.00027054636 0.00064511615 -0.00016306934 0.00044647334
0.00038444958 0.00058497937 -0.0003455149 -0.00029069645 -0.0003049929 0.0004949688 -0.0001440422 5.0433428e-06
-9.414694e-05 0.00034560828 -0.00026536407 -8.5331e-06 0.0006486376 -0.00012764493 2.6047283e-05 -8.19247e-05
-0.00019068297 -0.00012853945 -0.00025053605 5.754461e-05 0.00028042434 8.2049984e-05 -0.00033754573 0.00026486313
-0.00016435627 0.00030927046 -0.00017341743 0.0001762696 0.00020931159 1.3031562e-05 0.0005779328 0.00013103943
0.0003572076 0.0002933913 0.0003518423 0.00080839277 -0.00029437963 -1.4080614e-05 0.00024657598 -2.5703892e-07
0.0005409351 -0.00020130769 0.0002908428 -0.0011727186 0.00082010834 -0.000121763245 0.0006159974 0.00038231513
00000000: f3dc ef39 1c64 8039 ab5c 443a a6ba b2b9
00000010: c38b 3f39 a166 3d3a fd67 1dba 6008 9439
00000020: 1b7f 7239 ad2b 9839 f9f2 abb8 2d5a e138
00000030: 1ed8 8d39 031d 293a 98fd 2ab9 a314 ea39
00000040: f38f c939 4d59 193a 3a26 b5b9 9e68 98b9
00000050: 74e7 9fb9 cbc0 013a 090a 17b9 fc39 a936
00000060: c170 c5b8 c232 b539 9020 8bb9 6329 0fb7
00000070: 5509 2a3a 6dd8 05b9 1d80 da37 fdce abb8
00000080: 12f2 47b9 8cc8 06b9 615a 83b9 0e5c 7138
00000090: eb05 9339 4012 ac38 9ff8 b0b9 54dd 8a39
000000a0: 0d57 2cb9 9425 a239 63d7 35b9 03d5 3839
000000b0: a77a 5b39 22a2 5a37 6a80 173a a167 0939
000000c0: 9847 bb39 50d2 9939 7977 b839 52ea 533a
000000d0: f756 9ab9 c73b 6cb7 de46 8139 29ff 89b4
000000e0: 8acd 0d3a 1f16 53b9 437c 9839 e8b5 99ba
000000f0: 8afc 563a 255b ffb8 e37a 213a 7871 c839

exp_avg_sq f4 [64]
0.0032654153 0.0048152674 0.005002851 0.0036123325 0.0029843252 0.0035001903 0.0019933789 0.0077568535
0.0026294887 0.0019200507 0.0021171414 0.001833565 0.002789573 0.004570323 0.0033432622 0.0029139214
0.003570058 0.002066473 0.0023961077 0.002018199 0.0023343372 0.0016384345 0.0036036414 0.002609533
0.0049614273 0.0023053626 0.010197833 0.0029739807 0.0026569066 0.0027250762 0.0028646293 0.0015863361
0.0016307641 0.0034195387 0.003730973 0.0040458683 0.0031796063 0.0023074578 0.0036528069 0.0077338805
0.0031046136 0.0023026646 0.0030024273 0.0039982074 0.0020246587 0.0024604069 0.0023190365 0.0019283472
0.0039914465 0.0024719234 0.0032211023 0.003464716 0.0029079781 0.0025694626 0.002495628 0.001726829
0.0018117647 0.001794989 0.0024161949 0.0059618596 0.0070994482 0.0023419284 0.003462378 0.004144787
00000000: 9400 563b 64c9 9d3b f5ee a33b e2bc 6c3b
00000010: ab94 433b 7363 653b 59a3 023b 342d fe3b
00000020: 8053 2c3b 36aa fb3a bdbf 0a3b 3b54 f03a
00000030: 45d1 363b a6c2 953b a21a 5b3b 7df7 3e3b
00000040: a2f7 693b aa6d 073b 0408 1d3b c343 043b
00000050: aefb 183b bdc0 d63a 122b 6c3b b304 2b3b
00000060: 7893 a23b 9115 173b d014 273c 1ee7 423b
00000070: 7f1f 2e3b 3197 323b 81bc 3b3b 9bec cf3a
00000080: 5dbf d53a 571a 603b 5783 743b 3493 843b
00000090: f160 503b b838 173b ee63 6f3b 7e6c fd3b
000000a0: c676 4b3b 4de8 163b 5fc4 443b 6503 833b
000000b0: 23b0 043b c73e 213b fafa 173b 98c0 fc3a
000000c0: aeca 823b feff 213b 2119 533b 4a10 633b
000000d0: c793 3e3b 6e64 283b b18d 233b c456 e23a
000000e0: bc78 ed3a d645 eb3a 0659 1e3b b45b c33b
000000f0: 7da2 e83b 0a7b 193b 10e9 623b fed0 873b

exp_avg f4 [64]
0.0003073832 0.0002544141 0.00084106 -0.00018065033 0.00010763612 0.00022782394 -0.00077363447 0.00011984017
0.00023590929 -0.0003334405 -0.00089786807 -0.00012213079 0.00047670497 0.00043642992 0.00011016357 0.00023033166
0.00011544861 0.00044165834 -0.00025586365 -0.00018749911 -0.0004907198 3.6153878e-07 -0.00051350635 -0.00033114772
-0.0006804837 0.00015802942 -0.0008594454 0.00019369398 0.00046093014 -0.00023041881 0.00010142032 -6.7166484e-06
-0.00018183548 0.00036781156 -0.00039702348 -0.00035794228 0.00017258315 -2.2257504e-05 -0.00039723027 0.0005055881
-0.00026350634 0.00044359177 -0.00035543626 -0.00029121828 0.00026809936 0.0001341288 0.00015542947 0.00033849856
0.0003471506 3.3964152e-05 0.0003031862 0.00032688514 -0.00030179694 1.6961965e-05 2.4464616e-05 -5.7069712e-05
0.00030580175 -0.00014143845 9.2548406e-05 -0.00058517844 0.0005885155 -8.689865e-06 9.247798e-05 8.672471e-05
00000000: 4628 a139 e262 8539 957a 5c3a f46c 3db9
00000010: b4ba e138 06e4 6e39 bbcd 4aba b452 fb38
00000020: 6b5e 7739 a0d1 aeb9 e85e 6bba 3c10 00b9
00000030: 42ee f939 a2d0 e439 9e07 e738 2f85 7139
00000040: 001d f238 618e e739 7025 86b9 699b 44b9
00000050: a6a3 00ba 8319 c234 d49c 06ba e59d adb9
00000060: 7d62 32ba b3b4 2539 684c 61ba 551a 4b39
00000070: ffa8 f139 949c 71b9 9fb1 d438 925f e1b6
00000080: 17ab 3eb9 d5d6 c039 9727 d0b9 33aa bbb9
00000090: 70f7 3439 a0b5 bab7 5843 d0b9 7189 043a
000000a0: 3927 8ab9 e191 e839 d959 bab9 a8ae 98b9
000000b0: b08f 8c39 eda4 0c39 c8fa 2239 8278 b139
000000c0: c401 b639 bb74 0e38 f7f4 9e39 c861 ab39
000000d0: 803a 9eb9 8b49 8e37 5d39 cd37 235e 6fb8
000000e0: 0454 a039 184f 14b9 8c16 c238 a966 19ba
000000f0: 9b46 1a3a b0ca 11b7 bdf0 c138 f9df b538

exp_avg_sq f4 [64]
0.0033018962 0.004552639 0.0060483753 0.007728518 0.0044425786 0.004107341 0.004184412 0.0077084647
0.00283006 0.001752127 0.0019503391 0.003175988 0.0025716664 0.0039669415 0.0034284934 0.0055440096
0.0050214096 0.0024333864 0.0029895974 0.0021332589 0.002663005 0.0013548891 0.0029262796 0.0038805841
0.010293073 0.002690871 0.011693663 0.0031072577 0.003291192 0.0029835624 0.0042857416 0.0021644533
0.002186777 0.0065033752 0.006014531 0.0058826776 0.0040661762 0.0022298463 0.0053253355 0.010808933
0.0033675479 0.0025801968 0.0060581877 0.005822414 0.0016126969 0.004364565 0.0029547731 0.0020208785
0.0051331986 0.0026854025 0.0042383946 0.00523008 0.004424093 0.0022675656 0.004637033 0.0019687058
0.002047891 0.0023855711 0.0023848924 0.009831226 0.01055163 0.0041950583 0.0040949187 0.004559903
00000000: a064 583b 4e2e 953b 7331 c63b 823f fd3b
00000010: 0d93 913b e096 863b 641d 893b 4a97 fc3b
00000020: 8778 393b a0a7 e53a 85a2 ff3a 3d24 503b
00000030: 6789 283b 1efd 813b 93b0 603b 86aa b53b
00000040: a38a a43b 7379 1f3b 1fed 433b 25ce 0b3b
00000050: cf85 2e3b 8996 b13a d3c6 3f3b 6651 7e3b
00000060: 47a4 283c 5359 303b c796 3f3c 22a3 4b3b
00000070: 0ab1 573b df87 433b 686f 8c3b 80d9 0d3b
00000080: 0850 0f3b 441a d53b 8b15 c53b 7ac3 c03b
00000090: 8f3d 853b 9d22 123b 2780 ae3b f317 313c
000000a0: 14b2 5c3b 8518 293b c383 c63b f3c9 be3b
000000b0: 2161 d33a a004 8f3b dea4 413b b770 043b
000000c0: 6434 a83b 94fd 2f3b 3be2 8a3b 1761 ab3b
000000d0: fbf7 903b 709b 143b 41f2 973b 6705 013b
000000e0: e935 063b 3e57 1c3b db4b 1c3b 2713 213c
000000f0: bee0 2c3c b376 893b ab2e 863b 3d6b 953b
