checkpoint_decoder/check_point_2021_10_10_03:57:50/check_point_2021_10_10_03:57:50_epoch_50.pth (torch, 452917 bytes, 20 tensors)

conv1.weight f4 [64, 32, 3, 3]
-0.015176382 -0.1041938 -0.004816217 0.15431221 -0.00588776 -0.009530031 -0.029732276 0.033534132
0.06195034 -0.14256981 -0.03702054 0.09113053 0.0022539748 0.17262343 0.13555701 -0.16714945
-0.0910191 -0.16797595 0.018505327 -0.020363165 -0.022561114 -0.029629348 0.05595338 0.008568744
0.063985996 -0.04681413 -0.018274698 0.095984355 0.08466903 -0.010989232 -0.02674219 -0.02312685
0.0068652686 -0.01857947 -0.012583191 0.03563959 0.0011989455 -0.029407265 0.036633454 0.001632161
-0.068909585 -0.044893794 0.019977223 0.015406799 -0.016172288 0.15756913 -0.06497163 -0.1871479
-0.016239233 -0.2249085 0.5977214 -0.18967548 -0.1469102 -0.018066723 -0.015207514 -0.0982566
-0.006507624 -0.03861853 0.050913453 0.11486706 -0.095136605 -0.0237999 0.040635005 -0.06252965
-0.007456302 0.04663076 0.014426671 -0.0018280011 0.06280781 -0.03560035 0.035253644 0.01982724
-0.12925982 -0.0017873375 -0.029975776 0.07216356 -0.049161967 -0.015744703 -0.0055297497 0.02373002
0.039194617 0.0839778 0.0029788495 0.046107784 0.03340219 0.0069344975 -0.06498288 0.03642157
0.108842984 -0.068393745 0.18066604 0.052582 0.11415529 0.06301691 0.06442552 0.16017102
-0.028327104 0.2466115 0.0974968 0.08048232 0.074633695 0.0758402 -0.04675864 0.026318839
-0.040253654 -0.04058691 0.05641061 -0.112553746 -0.024636175 0.020539558 -0.011841986 0.012620445
-0.011980657 0.036119197 0.050795116 -0.04834079 0.04242567 0.04468755 -0.046606097 -0.021757023
-0.03279056 0.03866448 -0.044801712 -0.0012693859 0.01762094 -0.04859486 0.08379341 0.17901006
0.27795747 -0.02454525 0.043916564 -0.10691626 -0.24578036 0.00976063 -0.17391932 -0.046745345
-0.025459383 0.056421023 -0.10722558 -0.018028574 -0.08339964 -0.038233656 -0.09931242 -0.12095238
-0.047592685 -0.16622633 -0.024812529 -0.0889275 0.07611309 -0.071626805 -0.21464342 -0.082364954
-0.11893068 0.012567168 0.02964572 -0.025405306 -0.015662272 -0.0870998 0.059820905 -0.03234044
-0.0084113935 0.13080628 -0.019254105 0.11046114 0.26095903 -0.024206923 -0.047983885 0.15170169
-0.17605038 0.09917785 -0.13112447 0.06485171 -0.087447084 -0.026051298 -0.03539753 0.09640987
-0.021893125 -0.054626625 0.0028541745 0.077569135 -0.030329641 -0.05568495 -0.053367455 0.009748118
-0.008842337 -0.019173052 -0.06977471 0.02246861 0.090452045 -0.044902053 -0.05030538 0.014419954
-0.05877687 0.03143029 -0.042118434 -0.014389665 0.0008507482 -0.014675919 -0.02200546 0.13141863
0.36300868 -0.19416633 0.5725263 0.06388916 -0.11845288 -0.23357272 0.028760752 -0.0059596035
0.108775675 -0.07507806 -0.07951534 -0.056997363 -0.061741814 -0.013175324 -0.05257904 -0.061127536
-0.16697092 -0.15839009 -0.4001068 0.024701608 -0.08162085 -0.017017964 0.2025528 0.0050852415
0.024753893 0.04983364 0.014390316 -0.027125202 0.034104828 0.07488187 -0.021842448 0.017690958
-0.024626201 0.0018896715 -0.08673264 0.07812221 -0.073343076 -0.023466192 0.1326703 0.030004587
0.07484243 -0.09431314 -0.030112782 0.1351657 0.05455858 0.18956557 -0.12899123 0.03807394
0.2523604 -0.03996793 -0.115019344 -0.07059958 -0.039263327 0.18927819 -0.4600118 -0.34997088
00000000: 5ca6 78bc 8f63 d5bd 5bd1 9dbb 0504 1e3e
00000010: 1cee c0bb d923 1cbc 1a91 f3bc 165b 093d
00000020: a4bf 7d3d d2fd 11be daa2 17bd a5a2 ba3d
00000030: 6cb7 133b 32c4 303e 75cf 0a3e 3a29 2bbe
00000040: 3968 babd e301 2cbe 7c98 973c a7d0 a6bc
00000050: 16d2 b8bc 3fb9 f2bc 5f2f 653d eb63 0c3c
00000060: 170b 833d 2cc0 3fbd d2b4 95bc 7293 c43d
00000070: f566 ad3d 2e0c 34bc 7012 dbbc 8574 bdbc
00000080: 0cf6 e03b f933 98bc ba29 4ebc d2fa 113d
00000090: ef25 9d3a 81e7 f0bc f60c 163d 3cee d53a
000000a0: 7820 8dbd 8ee2 37bd 46a7 a33c cc6c 7c3c
000000b0: bf7b 84bc cd59 213e d90f 85bd b3a3 3fbe
000000c0: 2408 85bc 6a4e 66be 4504 193f 4a3a 42be
000000d0: a16f 16be aa00 94bc f028 79bc c23a c9bd
000000e0: e83d d5bb 772e 1ebd a08a 503d 6c3f eb3d
000000f0: fbd6 c2bd 02f8 c2bc e470 263d 8c0f 80bd
00000100: ff53 f4bb e5ff 3e3d d85d 6c3c 8a99 efba
00000110: 62a1 803d acd1 11bd 2066 103d bc6c a23c
00000120: b05c 04be 1845 eaba c28f f5bc 7dca 933d
00000130: 0f5e 49bd 09fb 80bc e732 b5bb 7565 c23c
00000140: 898a 203d 8efc ab3d cd38 433b 84db 3c3d
00000150: bcd0 083d c83a e33b bf15 85bd c92e 153d
00000160: 12e9 de3d 0512 8cbd 8500 393e 3960 573d
00000170: 40ca e93d 020f 813d 87f1 833d df03 243e
00000180: 3e0e e8bc ba87 7c3e 67ac c73d ead3 a43d
00000190: 8dd9 983d 1b52 9b3d fd85 3fbd 9b9a d73c
000001a0: 04e1 24bd 763e 26bd d00e 673d 9482 e6bd
000001b0: ced1 c9bc 9342 a83c e404 42bc fcc5 4e3c
000001c0: 844a 44bc b9f1 133d 8a0e 503d fe00 46bd
000001d0: 8ac6 2d3d 4b0a 373d 09e6 3ebd c93b b2bc
000001e0: 654f 06bd a55e 1e3d 0082 37bd 8661 a6ba
000001f0: ca59 903c 670b 47bd e19b ab3d 6a4e 373e
00000200: 7150 8e3e 1f13 c9bc dbe1 333d eaf6 dabd
00000210: d9ad 7bbe 0deb 1f3c e817 32be 0c78 3fbd
00000220: 3290 d0bc bb19 673d 1699 dbbd a9b0 93bc
00000230: 6ecd aabd e59a 1cbd 4f64 cbbd e2b5 f7bd
00000240: 8cf0 42bd 3c37 2abe a543 cbbc 9f1f b6bd
00000250: 2ee1 9b3d 13b1 92bd 7ccb 5bbe f5ae a8bd
00000260: ee91 f3bd 86e6 4d3c 95db f23c ca1e d0bc
00000270: 2a4e 80bc 6161 b2bd c406 753d 6977 04bd
00000280: f1cf 09bc 15f2 053e c9ba 9dbc 7339 e23d
00000290: 6c9c 853e 994d c6bc c08a 44bd b057 1b3e
000002a0: 8d46 34be c21d cb3d 7e45 06be f9d0 843d
000002b0: 7517 b3bd 8869 d5bc 00fd 10bd 8a72 c53d
000002c0: 3659 b3bc 2bc0 5fbd 1a0d 3b3b 91dc 9e3d
000002d0: de75 f8bc e715 64bd d597 5abd 92b6 1f3c
000002e0: 73df 10bc ce10 9dbc 0be6 8ebd 1710 b83c
000002f0: ec3e b93d 37eb 37bd 040d 4ebd ac41 6c3c
00000300: 04c0 70bd 0cbd 003d 6184 2cbd a1c2 6bbc
00000310: bf04 5f3a 4473 70bc cb44 b4bc 9b92 063e
00000320: 46dc b93e 8ad3 46be 1591 123f 52d8 823d
00000330: 6c97 f2bd b02d 6fbe ab9b eb3c c748 c3bb
00000340: c8c5 de3d 87c2 99bd f0d8 a2bd 1176 69bd
00000350: fce4 7cbd 50dd 57bc 1f5d 57bd de60 7abd
00000360: 6dfa 2abe 0331 22be ccda ccbe 075b ca3c
00000370: d528 a7bd 4269 8bbc 006a 4f3e 19a2 a63b
00000380: adc8 ca3c 5c1e 4c3d 5cc5 6b3c ac35 debc
00000390: 81b1 0b3d aa5b 993d efee b2bc a1ec 903c
000003a0: e3bc c9bc dbae f73a e2a0 b1bd 8afe 9f3d
000003b0: e534 96bd 2c3c c0bc b9da 073e 2ecc f53c
000003c0: fd46 993d 3f27 c1bd 15af f6bc e168 0a3e
000003d0: d178 5f3d 7a1d 423e 4716 04be 6bf3 1b3d
000003e0: 6235 813e 6ab5 23bd 438f ebbd 8396 90bd
000003f0: 95d2 20bd 24d2 413e ab86 ebbe 622f b3be

conv1.bias f4 [64]
0.020164173 -0.035480723 -0.19725609 -0.045437094 -0.032954626 -0.22698934 0.06686558 -0.19825487
-0.14525019 -0.06920036 0.11940804 -0.039900605 0.2052342 0.021292003 0.111815 -0.052743975
-0.074631155 -0.15273707 0.09793179 -0.03558423 0.006622771 0.3650571 -0.17589049 0.08737683
0.13410233 -0.10794508 0.065547355 -0.021350777 -0.03999983 -0.18627383 0.21493068 0.17068897
0.029634206 -0.13333797 0.108124636 -0.105590075 -0.22503948 -0.0020668784 -0.110249855 -0.1926058
-0.20600712 0.07822243 0.002525698 -0.01048699 -0.022905162 -0.01982292 0.00010875007 0.052682247
-0.001186952 -0.10445131 -0.009849053 -0.24130294 0.09275484 -0.030035416 -0.042137496 0.03336546
0.10379678 0.114308424 -0.041852053 0.005868631 0.12194684 -0.020727016 -0.17770496 -0.014104068
00000000: 562f a53c 3c54 11bd 80fd 49be 3f1c 3abd
00000010: 6efb 06bd e56f 68be d2f0 883d 5303 4bbe
00000020: 77bc 14be ebb8 8dbd 348c f43d d16e 23bd
00000030: ea28 523e 916c ae3c 43ff e43d 110a 58bd
00000040: 38d8 98bd 1b67 1cbe 7690 c83d c5c0 11bd
00000050: d403 d93b c4e8 ba3e a31c 34be a0f2 b23d
00000060: 1f52 093e 4f12 ddbd b13d 863d d3e7 aebc
00000070: ddd6 23bd 91be 3ebe ca16 5c3e 17c9 2e3e
00000080: 6fc3 f23c c089 08be 7370 dd3d 9c3f d8bd
00000090: c070 66be 7774 07bb adca e1bd 743a 45be
000000a0: 88f3 52be 1533 a03d 2e86 253b a0d1 2bbc
000000b0: 9ba3 bbbc ad63 a2bc c010 e438 57c9 573d
000000c0: 8093 9bba 92ea d5bd ec5d 21bc 1e18 77be
000000d0: 40f6 bd3d d50c f6bc 5e98 2cbd 38aa 083d
000000e0: 6893 d43d 891a ea3d 0f6d 2bbd a54d c03b
000000f0: 44bf f93d b4cb a9bc 4af8 35be c014 67bc

bn1.weight f4 [64]
2.6726627 2.5394664 2.378657 2.727024 3.1239192 3.3607094 3.0141137 2.127963
3.027092 3.4337835 3.0451734 2.9523263 3.7892094 2.5510101 3.2272928 2.6390035
2.8669481 2.77237 2.9867728 3.2158215 2.9821062 3.2229652 2.869429 3.0937262
2.3781834 3.2517853 2.437756 3.3783078 2.5580013 2.6628287 3.038927 2.8255055
3.0671039 2.4966407 2.6805456 2.182157 3.1530666 3.2168846 3.24011 2.6176584
2.6242437 3.0133598 2.6896858 2.6637406 3.587933 2.7630978 2.8999114 3.1483912
2.8485358 2.9982615 2.5221908 2.980326 2.6448598 3.0184338 3.2143393 3.2733378
2.8664818 2.8967102 3.077175 2.3984113 2.6040754 2.723864 2.5660264 2.8130345
00000000: e80c 2b40 9e86 2240 eb3b 1840 9087 2e40
00000010: 4bee 4740 dd15 5740 3de7 4040 8c30 0840
00000020: e0bb 4140 1cc3 5b40 1fe4 4240 eaf2 3c40
00000030: 6882 7240 c043 2340 f78b 4e40 6fe5 2840
00000040: 147c 3740 836e 3140 4927 3f40 05d0 4d40
00000050: d4da 3e40 1045 4e40 baa4 3740 9cff 4540
00000060: 2834 1840 401d 5040 3204 1c40 3236 5840
00000070: 4bb6 2340 c96b 2a40 c87d 4240 15d5 3440
00000080: 6e4b 4440 f6c8 1f40 0f8e 2b40 76a8 0b40
00000090: d8cb 4940 70e1 4d40 f65d 4f40 b787 2740
000000a0: 9cf3 2740 e3da 4040 d023 2c40 ba7a 2a40
000000b0: b2a0 6540 98d6 3040 2698 3940 3e7f 4940
000000c0: 694e 3640 84e3 3f40 936b 2140 a9bd 3e40
000000d0: 6245 2940 052e 4140 bcb7 4d40 5e7e 5140
000000e0: 7074 3740 b363 3940 6ff0 4440 927f 1940
000000f0: 2ca9 2640 ca53 2e40 c739 2440 c208 3440

bn1.bias f4 [64]
0.9573946 0.64293116 0.46379444 0.69667655 0.7200506 0.2594016 0.8969764 0.25047457
0.68782145 0.6575874 0.67122453 0.7312377 0.8138096 0.53827953 1.08653 0.4391287
0.63713664 0.6323825 0.5890686 0.9283136 0.44793594 0.9515237 0.54817367 0.73372066
0.40008608 0.9522198 0.34040257 0.75413764 0.6105121 0.46221375 0.7363337 0.35915777
0.62135017 0.38896644 0.65384656 0.44406116 0.45664772 1.1864448 0.56168646 0.421137
0.7396979 0.6322455 0.48765865 0.65536827 1.2044894 0.57309765 0.75514084 0.9925581
0.36914897 0.50697815 0.53497005 0.5945962 0.62238914 0.92093223 0.7438263 0.8959142
0.82689685 0.66608095 0.6683066 0.29569656 0.5123025 0.55282027 0.71464634 0.456298
00000000: d017 753f 2397 243f 7776 ed3e 6559 323f
00000010: 3c55 383f 49d0 843e 3fa0 653f 343e 803e
00000020: 1115 303f a657 283f 5fd5 2b3f 6532 3b3f
00000030: d355 503f b0cc 093f 6a13 8b3f 7ad5 e03e
00000040: 631b 233f d2e3 213f 33cd 163f f6a5 6d3f
00000050: dc57 e53e 0f97 733f 1c55 0c3f 1ed5 3b3f
00000060: 15d8 cc3e adc4 733f 3f49 ae3e 2a0f 413f
00000070: 854a 1c3f 48a7 ec3e 5e80 3c3f 87e3 b73e
00000080: ce10 1f3f 9c26 c73e 7d62 273f fc5b e33e
00000090: bbcd e93e 6cdd 973f afca 0f3f 459f d73e
000000a0: d75c 3d3f d7da 213f 65ae f93e 37c6 273f
000000b0: b52c 9a3f 87b6 123f e950 413f 4a18 7e3f
000000c0: 1801 bd3e 52c9 013f ccf3 083f 7537 183f
000000d0: e554 1f3f 37c2 6b3f 676b 3e3f a25a 653f
000000e0: 83af 533f 4884 2a3f 2416 2b3f 8a65 973e
000000f0: 4226 033f a185 0d3f 10f3 363f e49f e93e

bn1.running_mean f4 [64]
0.003016978 -0.022896407 -0.013048212 -0.04677886 0.1212348 0.11046004 0.028845873 -0.030744815
-0.010536792 -0.06947275 0.006649927 -0.077227436 -0.07281292 -0.062637724 0.043492716 -0.046739694
-0.04472911 -0.02979625 -0.032855056 -0.06937281 -0.010788261 -0.032648187 0.17144474 -0.057070486
0.026844507 -0.017356513 -0.036061373 0.019786699 -0.16826381 -0.05138368 -0.048704803 -0.06914342
0.012252696 0.12763222 0.046501935 -0.06820168 0.04080691 0.048092555 -0.016359666 0.09532101
-0.033160932 0.053236943 -0.0790251 -0.11450315 0.040697392 0.0457797 -0.010630513 -0.09364817
-0.10648111 -0.048494224 0.057967413 0.024865596 -0.004303043 -0.032060415 0.033172086 -0.051615037
-0.0061542294 -0.11680084 -0.0051074894 0.05034536 0.012473834 -0.0033550907 -0.098505475 -0.058503468
00000000: 7eb8 453b 3f91 bbbc 2bc8 55bc 319b 3fbd
00000010: f349 f83d e038 e23d 2e4e ec3c 8ddc fbbc
00000020: 82a2 2cbc bb47 8ebd a1e7 d93b 6b29 9ebd
00000030: f11e 95bd 3548 80bd 6b25 323d 1f72 3fbd
00000040: df35 37bd 4417 f4bc 0693 06bd 5513 8ebd
00000050: 3fc1 30bc 1bba 05bd 368f 2f3e bec2 69bd
00000060: 03e9 db3c 3f2f 8ebc 17b5 13bd b717 a23c
00000070: 594d 2cbe b277 52bd b07e 47bd 119b 8dbd
00000080: 88bf 483c 05b2 023e d078 3e3d 53ad 8bbd
00000090: 2525 273d b3fc 443d b504 86bc a937 c33d
000000a0: c2d3 07bd fb0e 5a3d e9d7 a1bd a180 eabd
000000b0: 4fb2 263d 7f83 3b3d 9a2b 2ebc 9dca bfbd
000000c0: c512 dabd e1a1 46bd 3d6f 6d3d efb2 cb3c
000000d0: 8a00 8dbb c851 03bd 74df 073d 4a6a 53bd
000000e0: 6ba9 c9bb 4735 efbd ba5c a7bb f036 4e3d
000000f0: 0d5f 4c3c 15e1 5bbb 3dbd c9bd 55a1 6fbd

bn1.running_var f4 [64]
0.0011236508 0.0039037657 0.0063824398 0.0018226968 0.005078239 0.008606332 0.0013243717 0.0057201283
0.003014445 0.00367698 0.0023167182 0.0027703783 0.00573532 0.003425898 0.0017800088 0.002814235
0.0027080388 0.0025057152 0.0043788822 0.0010784441 0.0020813465 0.007528536 0.008037672 0.005949509
0.0017380842 0.0017140268 0.0045526735 0.0061026113 0.0036970666 0.007970043 0.0049933083 0.0059924703
0.0015283064 0.011312499 0.0026341458 0.0034459375 0.005463795 0.00077249046 0.0019446706 0.0042874087
0.0020165248 0.0054109157 0.003083687 0.002225883 0.001231835 0.0011827513 0.0024326988 0.0028011275
0.008689004 0.0032291417 0.0026931115 0.0030435694 0.002658601 0.0035449557 0.0012550018 0.002434689
0.0028638204 0.0037339195 0.0019867737 0.0037566733 0.0021675015 0.0031049142 0.0048545543 0.0046409597
00000000: 7747 933a 52d6 7f3b c923 d13b 8ee7 ee3a
00000010: 5b67 a63b 9301 0d3c 8a96 ad3a ea6f bb3b
00000020: ff8d 453b 7df9 703b 15d4 173b 3c8f 353b
00000030: 5aef bb3b 0885 603b 2f4f e93a 076f 383b
00000040: 5a79 313b ed36 243b ba7c 8f3b 945a 8d3a
00000050: 3367 083b f0b1 f63b 71b0 033c 19f4 c23b
00000060: 6ed0 e33a 32a9 e03a 982e 953b 6af8 c73b
00000070: 7c4a 723b c994 023c e89e a33b 7c5c c43b
00000080: 7451 c83a 0f58 393c a2a1 2c3b 3dd5 613b
00000090: a209 b33b f580 4a3a 51e4 fe3a 647d 8c3b
000000a0: ac27 043b 0d4e b13b af17 4a3b 1fe0 113b
000000b0: 8675 a13a 8c06 9b3a ea6d 1f3b 1f93 373b
000000c0: 535c 0e3c 02a0 533b ea7e 303b 9f76 473b
000000d0: ec3b 2e3b 7d52 683b df7e a43a 4e8f 1f3b
000000e0: efae 3b3b c6b4 743b 8834 023b 8532 763b
000000f0: a40c 0e3b d17b 4b3b f412 9f3b 3113 983b

conv2.weight f4 [32, 64, 3, 3]
-0.018301565 0.026378294 -0.053592745 -0.09596347 0.026653754 0.3640795 0.098370776 -0.23173018
0.008253382 -0.07348279 -0.31015727 -0.396814 0.14641075 -0.22182392 -0.0659873 0.38481212
0.41187772 0.12390862 -0.44702494 -0.07488998 -0.05556379 -0.32342547 -0.06408459 0.2836335
0.20130326 0.5008465 0.37714612 0.1968617 -0.15379813 -0.10102908 0.26910535 -0.019978665
0.29030967 -0.2258361 0.105923794 0.27788857 -0.16730084 0.013322717 -0.48629752 -0.11018106
0.55122966 -0.20951091 0.5249468 0.42661127 -0.37474254 -0.1453963 0.4377017 0.081779115
-0.0956719 -0.24962279 0.13248952 0.07805629 0.050897043 0.18764627 -0.048223183 0.26620334
0.1358473 -0.1223658 -0.21608476 0.40406734 0.1874505 0.05560653 0.0072007333 -0.29598495
-0.19959164 -0.04603356 -0.050578978 -0.49085882 0.32240045 0.29472953 0.22169127 -0.18717606
-0.2689824 0.08235449 0.13318342 -0.27352855 0.20044664 0.4738079 0.50709504 -0.14030579
-0.64388335 -0.25525844 0.050414808 0.48601946 -0.09071853 0.30802315 0.16495019 0.10758746
-0.63380164 -0.5740762 -0.16040948 0.05992885 -0.26398814 0.035264324 -0.022602301 -0.22852804
0.42811993 0.20961721 0.33613428 0.09426415 0.3527373 0.051579896 -0.09229268 0.018358812
-0.026427766 0.032004703 0.044134323 0.3368172 0.1664406 0.20367432 -0.18388848 -0.059044216
0.39198926 -0.30422598 -0.15510255 -1.096638 -0.11712571 -0.18809688 -0.097816445 0.38307557
-0.114280194 0.49302784 0.10199633 0.15846297 0.21413277 -0.042474005 0.027871555 0.05788795
0.011347904 -0.22360043 0.20887446 0.2584686 -0.019633014 0.052716296 0.28566137 0.037513226
0.079137295 -0.26872918 0.16396378 -0.13966054 0.3846419 0.31257126 0.37641168 0.35036892
0.07584814 -0.1731604 0.061429735 -0.3127918 0.45013565 0.48243606 -0.41226497 0.17895393
0.011777919 0.4173726 0.08792495 0.32249627 0.082926035 -0.16346562 -0.0051370957 0.040785838
0.15325692 -0.42571294 0.06544169 0.10892806 0.47405016 -0.3176427 -0.028160842 0.36732382
-0.48548764 -0.010186211 -0.0985073 -0.16464919 0.07213059 -0.022180906 0.4194536 -0.05392479
0.0004937088 0.3264486 -0.047643732 0.17232801 -0.014515 0.34861016 -0.3616587 -0.29167607
0.18719402 0.24115355 0.06202994 0.21795306 0.37731552 -0.037167925 -0.27772996 0.45933065
0.0015658147 0.4547322 -0.10551373 0.15602078 0.022913847 -0.078763664 -0.59699214 0.53215814
0.22526526 -0.48394722 0.16428326 -0.022603415 -0.44987452 -0.56109744 0.03998855 -0.6955643
-0.48243174 -0.70341074 0.05079617 -0.2688441 -0.26660287 0.33034417 0.1716096 0.2753223
0.2374912 0.025134092 -0.14680113 0.34971496 -0.05044993 0.0042243786 -0.084039 -0.09480136
-0.022616126 -0.14416903 0.30994767 0.10047423 0.3040882 0.027531264 0.12790862 0.31563365
0.047648728 -0.09007686 0.481365 -0.07411537 0.2208565 0.4405262 -0.094979055 0.06782563
0.32569674 -0.027362121 0.01743481 0.8828877 0.018353384 -0.3243853 -0.24555466 0.22788505
0.22915894 -0.07506175 0.2914342 0.023408314 -0.149451 -0.16926558 0.08271105 0.048971392
00000000: 2aed 95bc 4b17 d83c 1184 5bbd 7f88 c4bd
00000010: f958 da3c a168 ba3e 9e76 c93d ad4a 6dbe
00000020: 3139 073c 257e 96bd efcc 9ebe 342b cbbe
00000030: b3ec 153e cf25 63be 5924 87bd 1806 c53e
00000040: a3e1 d23e cdc3 fd3d 74e0 e4be eb5f 99bd
00000050: db96 63bd 0698 a5be c83e 83bd 6938 913e
00000060: 7122 4e3e 7a37 003f 4c19 c13e 1d96 493e
00000070: 427d 1dbe 56e8 cebd 2dc8 893e 4caa a3bc
00000080: 78a3 943e 9441 67be 93ee d83d 6947 8e3e
00000090: e950 2bbe 8647 5a3c fdfb f8be 9ca6 e1bd
000000a0: 631d 0d3f 078a 56be ea62 063f cb6c da3e
000000b0: 41de bfbe c5e2 14be 701a e03e cf7b a73d
000000c0: a1ef c3bd 1e9d 7fbe 55ab 073e fadb 9f3d
000000d0: 6b79 503d 5826 403e ac85 45bd ce4b 883e
000000e0: 8e1b 0b3e ec9a fabd 5345 5dbe eae1 ce3e
000000f0: 06f3 3f3e acc3 633d 21f4 eb3b 578b 97be
00000100: c061 4cbe b08d 3cbd e72b 4fbd d951 fbbe
00000110: ac11 a53e cae6 963e 0903 633e 15ab 3fbe
00000120: 10b8 89be 79a9 a83d 3c61 083e ef0b 8cbe
00000130: e241 4d3e f396 f23e fbd0 013f 52ac 0fbe
00000140: 8ad5 24bf 3cb1 82be c27f 4e3d 8bd7 f83e
00000150: a3ca b9bd 36b5 9d3e b4e8 283e d056 dc3d
00000160: d340 22bf a8f6 12bf 6242 24be f477 753d
00000170: 7429 87be 5371 103d 7628 b9bc 4103 6abe
00000180: 8932 db3e e5a5 563e cb19 ac3e 900d c13d
00000190: fc99 b43e 7145 533d f203 bdbd 3865 963c
000001a0: 0b7f d8bc 5d17 033d 31c6 343d 4e73 ac3e
000001b0: 686f 2a3e 0090 503e 434d 3cbe 59d8 71bd
000001c0: d1b2 c83e 82c3 9bbe 34d3 1ebe a25e 8cbf
000001d0: 9bdf efbd 789c 40be fd53 c8bd 7b22 c43e
000001e0: bc0b eabd 256e fc3e 74e3 d03d 1e44 223e
000001f0: 9f45 5b3e 39f9 2dbd e352 e43c ea1b 6d3d
00000200: 8fec 393c 83f7 64be 30e3 553e ff55 843e
00000210: 6ad5 a0bc 0bed 573d 3542 923e 78a7 193d
00000220: bc12 a23d df96 89be 1fe6 273e 2c03 0fbe
00000230: c8ef c43e 5709 a03e 08b9 c03e 8e63 b33e
00000240: 4556 9b3d f650 31be bf9d 7b3d 3f26 a0be
00000250: 2e78 e63e dc01 f73e 6514 d3be b33f 373e
00000260: 2cf8 403c ddb1 d53e ff11 b43d 3b1e a53e
00000270: 20d5 a93d 8863 27be 1555 a8bb 0d0f 273d
00000280: 62ef 1c3e 0cf7 d9be 4b06 863d ad15 df3d
00000290: b4b6 f23e 10a2 a2be 91b1 e6bc de11 bc3e
000002a0: d691 f8be 11e4 26bc 32be c9bd cc99 28be
000002b0: 34b9 933d bbb4 b5bc 9fc2 d63e 3ee0 5cbd
000002c0: 3d6c 013a 4524 a73e 1326 43bd c176 303e
000002d0: 53d0 6dbc 087d b23e 542b b9be 9156 95be
000002e0: caaf 3f3e f5f0 763e 1b13 7e3d 162f 5f3e
000002f0: 802f c13e 653d 18bd 9f32 8ebe 632d eb3e
00000300: 063c cd3a a9d2 e83e 9517 d8bd e9c3 1f3e
00000310: d2b5 bb3c d84e a1bd 7ad4 18bf 843b 083f
00000320: f0ab 663e eec7 f7be df39 283e cc2a b9bc
00000330: f455 e6be 15a4 0fbf 09cb 233d 8110 32bf
00000340: 4b01 f7be ba12 34bf a50f 503d efa5 89be
00000350: 2c80 88be df22 a93e 6dba 2f3e 0bf7 8c3e
00000360: e530 733e 03e6 cd3c 0953 16be d70d b33e
00000370: 96a4 4ebd a86c 8a3b a41c acbd 3727 c2bd
00000380: 7445 b9bc 0ca1 13be 76b1 9e3e 6fc5 cd3d
00000390: 73b1 9b3e 3f89 e13c 7afa 023e bc9a a13e
000003a0: 502b 433d 377a b8bd 7975 f63e cdc9 97bd
000003b0: 3528 623e a68c e13e 6184 c2bd 2ae8 8a3d
000003c0: b9c1 a63e 8726 e0bc 72d3 8e3c ee04 623f
000003d0: d659 963c d415 a6be ae72 7bbe b35a 693e
000003e0: a4a8 6a3e fab9 99bd dd36 953e cbc2 bf3c
000003f0: af09 19be f553 2dbe 6964 a93d 3a96 483d

conv2.bias f4 [32]
-0.0015672793 -0.031805594 -0.0033582514 -0.0042161997 -0.034421876 -0.010948982 0.019258674 -0.044103388
0.013729418 -0.045550518 0.026472924 -0.034544308 -0.02212837 -0.07066763 0.036337417 0.030203145
0.020462172 0.024452567 0.0074927085 -0.054752924 0.025636492 -0.03283898 0.078399815 0.01865804
0.0259399 0.011549068 -0.024701698 0.030778794 -0.008511558 -0.027606126 -0.057035763 -0.030087454
00000000: 2b6d cdba 9546 02bd 1c16 5cbb 0c28 8abb
00000010: f4fd 0cbd 5c63 33bc 5ec4 9d3c c1a5 34bd
00000020: 5af1 603c 2e93 3abd bfdd d83c 557e 0dbd
00000030: 8e46 b5bc 31ba 90bd 8bd6 143d 966c f73c
00000040: 49a0 a73c c050 c83c 6585 f53b 9a44 60bd
00000050: 9f03 d23c 2b82 06bd 1590 a03d bfd8 983c
00000060: ea7f d43c 4d38 3d3c 375b cabc cf23 fc3c
00000070: 1074 0bbc 3e26 e2bc 559e 69bd f779 f6bc

exp_avg f4 [64, 32, 3, 3]
-0.0019984487 0.001339521 -8.125493e-05 -0.0023965153 9.031056e-05 -0.0012954548 -0.0013662633 7.136092e-05
-0.0010548229 -0.00012047161 0.00048237015 8.323923e-05 -4.9944018e-05 1.7255835e-06 -0.00045467893 9.786015e-05
6.0725197e-05 -0.00030080436 -0.0051530297 0.002965696 -0.0011964518 -0.0069570146 0.0032529638 -0.00016637312
-0.006118272 0.0008710822 -0.002251827 -0.0031067503 0.0020678747 -0.00036120572 -0.0046201763 0.001750097
-9.6892516e-05 -0.004000782 0.0004513462 -0.0014251728 -0.008716088 0.00420286 -0.0024564452 -0.010506656
0.0036014698 -0.0020961298 -0.00809142 0.0011151622 -0.003995321 5.3118874e-09 -2.8554235e-09 -1.3427227e-08
-4.961007e-08 -4.1835946e-08 5.6045204e-09 3.3034608e-09 4.211684e-08 1.8467572e-08 8.224113e-05 4.142666e-05
-0.00014531493 -5.998222e-05 4.315618e-05 -6.860685e-05 1.1775626e-05 7.448649e-05 -6.397097e-05 -0.0027085498
0.0008055894 -0.0014843465 -0.002968115 0.0014492628 -0.00037805917 -0.0023387643 0.0006386076 -0.0009434318
-0.0019822307 0.0017255592 0.00041892898 -0.0026238614 0.00084820617 -0.00059420546 -0.0023199725 -0.00024751577
-0.0013867831 -1.3150248e-26 2.1301586e-25 1.5756678e-25 -5.9200602e-27 2.2006222e-25 4.178126e-25 -1.00183486e-26
-2.6389973e-24 1.705776e-25 1.0005251e-06 7.0638436e-07 -9.649365e-08 -1.3387756e-07 3.5140658e-06 -8.8333286e-07
3.200263e-07 3.3947833e-06 -3.0234276e-06 -0.00021215029 0.0010115553 0.0010715623 -0.00046082388 5.363289e-05
-0.000100025994 -0.000408755 -0.0004149682 -0.00049624045 0.0 0.0 0.0 0.0
0.0 0.0 0.0 0.0 0.0 -0.00610524 0.0032164617 -0.0016935604
-0.007955911 0.0022836765 -0.0014355519 -0.0060644387 0.00077853433 -0.0027260587 -0.0022948983 0.0008004254
-0.00081099983 -0.0023690045 0.0010659393 -0.00041797257 -0.0017408933 0.0005845271 -0.0007396072 0.00052270823
0.00068453443 0.0005820724 -1.23840055e-05 -4.6526482e-05 -0.00010829461 -0.00027425445 -0.00048269017 -0.0003669879
0.00012184788 -2.8121425e-05 -0.0001744795 -2.508867e-05 5.476827e-05 -5.3136264e-05 -3.6821543e-06 3.0404774e-06
-2.5510557e-05 -0.008149416 0.0035250888 -0.0020765243 -0.00993202 0.0030596242 -0.0018650361 -0.007725797
0.0010116345 -0.0037227222 -0.0015281016 0.0007154049 7.471907e-05 -0.001332184 0.00011749543 -0.0007393057
-0.00078573416 5.7837777e-05 -0.0006504346 -0.0015068325 0.0006362388 -0.00056189374 -0.0021823435 0.00068091974
-2.3199485e-05 -0.001793243 0.00031712622 -0.00047654175 -0.002500479 0.0017361487 0.0008746329 -0.0030256882
0.00033434617 -0.00096286763 -0.0023293395 -0.00013153414 -0.0013087047 0.0 0.0 0.0
0.0 0.0 0.0 0.0 0.0 0.0 -1.0964964e-07 1.5659676e-07
8.629465e-07 -2.1605879e-06 -6.019833e-07 1.3903221e-07 3.8206877e-06 1.3491341e-06 3.241819e-06 -6.174832e-33
-2.5729411e-33 2.7647578e-33 -9.434541e-29 1.3328805e-28 5.1004772e-27 -6.2688086e-28 -9.4874634e-30 2.9498713e-28
-0.0007459652 0.000814595 -0.00022532982 -0.0014584174 0.00040306916 -0.00026891555 -0.001279278 -0.00016014614
-0.00067441235 -0.004520281 0.002158106 -0.0018989603 -0.00567929 0.0021843477 -0.00081904215 -0.0043934113
0.0007842463 -0.0018996539 -0.004850552 0.0030352508 -0.0009294779 -0.0063953735 0.0019258313 -0.0013456302
-0.0051291846 8.161942e-05 -0.0027613365 4.924984e-05 -2.0183385e-05 -3.7322894e-05 2.8825738e-05 -2.2439383e-05
-1.715999e-05 4.714488e-05 -3.299381e-05 -7.0039264e-06 -3.7940288e-07 -7.3686454e-07 -2.2492691e-07 -5.0024954e-07
00000000: 68f8 02bb de92 af3a 6967 aab8 db0e 1dbb
00000010: 1d65 bd38 40cc a9ba 3014 b3ba 9aa7 9538
00000020: fc41 8aba b4a5 fcb8 a0e6 fc39 b990 ae38
00000030: fb7a 51b8 999a e735 f961 eeb9 453a cd38
00000040: 2fb3 7e38 47b5 9db9 bfda a8bb 1f5c 423b
00000050: 43d2 9cba abf7 e3bb ad2f 553b 7274 2eb9
00000060: c97b c8bb 5659 643a 6393 13bb 9f9a 4bbb
00000070: 2e85 073b 3660 bdb9 d964 97bb 8363 e53a
00000080: c632 cbb8 fe18 83bb a9a2 ec39 ddcc baba
00000090: eccd 0ebc 25b8 893b 50fc 20bb 1c24 2cbc
000000a0: a306 6c3b 395f 09bb e091 04bc a22a 923a
000000b0: 2feb 82bb db83 b631 2439 44b1 92ad 66b2
000000c0: d912 55b3 1caf 33b3 e291 c031 1903 6331
000000d0: f5e3 3433 9fa2 9e32 df78 ac38 8ac1 2d38
000000e0: ae5f 18b9 6b95 7bb8 9802 3538 06e1 8fb8
000000f0: ee8f 4537 a135 9c38 2728 86b8 ed81 31bb
00000100: 312e 533a 678e c2ba b584 42bb 31f5 bd3a
00000110: 3e36 c6b9 f445 19bb 3b68 273a a350 77ba
00000120: 50e8 01bb 292c e23a b2a3 db39 17f5 2bbb
00000130: 275a 5e3a 74c4 1bba ae0a 18bb 01c5 81b9
00000140: b8c4 b5ba d73b 8294 b6d9 8316 e80e 4316
00000150: 8b84 ea93 4036 8816 864e 0117 106f 4694
00000160: ba2e 4c98 332a 5316 c849 8635 5d9e 3d35
00000170: f237 cfb3 fcbf 0fb4 31d3 6b36 2c1e 6db5
00000180: 14d0 ab34 efd1 6336 17e6 4ab6 a974 5eb9
00000190: 2a96 843a aa73 8c3a bc9a f1b9 e1f3 6038
000001a0: 0cc5 d1b8 2b4e d6b9 1790 d9b9 2216 02ba
000001b0: 0000 0000 0000 0000 0000 0000 0000 0000
000001c0: 0000 0000 0000 0000 0000 0000 0000 0000
000001d0: 0000 0000 770e c8bb 46cb 523b 75fa ddba
000001e0: 8259 02bc bca9 153b 2129 bcba 33b8 c6bb
000001f0: 8e16 4c3a ada7 32bb 0166 16bb a4d3 513a
00000200: 4799 54ba 4d41 1bbb fdb6 8b3a 5423 dbb9
00000210: b02e e4ba f33a 193a 33e2 41ba 5b06 093a
00000220: 5472 333a 3896 183a e6c4 4fb7 6e25 43b8
00000230: 3a1c e3b8 cfc9 8fb9 9411 fdb9 4868 c0b9
00000240: 9588 ff38 4de6 ebb7 7cf4 36b9 8275 d2b7
00000250: fbb6 6538 a1de 5eb8 ee1a 77b6 010b 4c36
00000260: 81ff d5b7 2185 05bc 2d05 673b 4c16 08bb
00000270: e9b9 22bc fa83 483b 3a74 f4ba af28 fdbb
00000280: d298 843a eaf8 73bb 954a c8ba 038a 3b3a
00000290: 7fb2 9c38 ad9c aeba e167 f638 f7cd 41ba
000002a0: baf9 4dba d796 7238 ed81 2aba e980 c5ba
000002b0: 43c9 263a 0d4c 13ba a605 0fbb c07f 323a
000002c0: 849c c2b7 400b ebba f643 a639 5ad8 f9b9
000002d0: 14df 23bb 7c8f e33a 9f47 653a a04a 46bb
000002e0: 2f4b af39 f468 7cba d5a7 18bb 6dec 09b9
000002f0: d888 abba 0000 0000 0000 0000 0000 0000
00000300: 0000 0000 0000 0000 0000 0000 0000 0000
00000310: 0000 0000 0000 0000 8778 ebb3 fd24 2834
00000320: 3ba5 6735 9efe 10b6 fa97 21b5 e248 1534
00000330: 7533 8036 e513 b535 078e 5936 0a3f 008a
00000340: 68c0 5589 e5af 6509 ac31 ef90 72f6 2811
00000350: fc0c ca13 9eaa 4692 ba6d 408f 66f8 ba11
00000360: e18c 43ba 8c8a 553a 8346 6cb9 5e28 bfba
00000370: 0753 d339 3cfd 8cb9 72ad a7ba e7ec 27b9
00000380: 0ccb 30ba de1e 94bb 036f 0d3b 89e6 f8ba
00000390: 5619 babb 4627 0f3b fdb4 56ba 9bf6 8fbb
000003a0: e195 4d3a cffd f8ba 61f1 9ebb 0feb 463b
000003b0: 35a8 73ba 4890 d1bb 2d6c fc3a db5f b0ba
000003c0: b812 a8bb 182b ab38 8af7 34bb 9d91 4e38
000003d0: 7d4f a9b7 278b 1cb8 cdce f137 353c bcb7
000003e0: ccf2 8fb7 6ebd 4538 d562 0ab8 4503 ebb6
000003f0: bcb0 cbb4 f2cc 45b5 7083 71b4 e348 06b5

exp_avg_sq f4 [64, 32, 3, 3]
0.054415748 0.050135985 0.081041336 0.047336955 0.03630052 0.054208867 0.047380373 0.04393373
0.059005465 0.00493686 0.005553059 0.008168832 0.005908753 0.00627448 0.007231278 0.005287341
0.0057897014 0.005069411 0.8591839 0.58158934 0.7356487 0.49857137 0.12281554 0.27991754
0.5705113 0.50360423 0.51392245 0.4185932 0.29132375 0.35183424 0.25443262 0.08306706
0.1505952 0.28195414 0.2618715 0.25592333 1.4283338 0.9308874 1.3049953 0.7663014
0.04527056 0.38394278 0.9406065 0.6894755 0.84461516 6.6436203e-09 7.609497e-09 5.6953056e-08
1.022945e-06 4.58815e-07 3.1440982e-07 5.6162335e-08 1.5270385e-07 3.0575444e-07 0.0038822694 0.005125316
0.0047329157 0.0034831308 0.0069686836 0.0045171883 0.0025644128 0.005643109 0.004051206 0.13404971
0.09801404 0.12069314 0.078277 0.028516365 0.051617775 0.08996711 0.07502641 0.080301285
0.17471376 0.13381131 0.19803216 0.11970623 0.04573619 0.09440094 0.1313765 0.108067796
0.14621277 6.006181e-11 1.5547603e-10 3.5269242e-11 5.4898915e-11 1.5486884e-10 1.2235748e-07 1.8401547e-09
6.704067e-09 4.587036e-10 0.0001457591 0.00013743067 0.00010825905 0.00015755658 0.00020936153 0.00019570139
0.00014144287 0.00015895277 0.0001643861 0.06388842 0.06630942 0.08423026 0.05699622 0.04598082
0.061733488 0.050362807 0.05392496 0.06618112 0.0 0.0 0.0 0.0
0.0 0.0 0.0 0.0 0.0 0.9127274 0.5982815 0.7774419
0.51158035 0.0915137 0.2755004 0.60819227 0.4863904 0.5262541 0.07674782 0.05770085
0.07687711 0.044461258 0.021141347 0.035594653 0.04630484 0.05151115 0.051303703 0.031145277
0.033942502 0.031419612 0.026319928 0.024573827 0.02363226 0.023421573 0.02488531 0.025239656
0.0018901194 0.0023364353 0.0020510722 0.0020197982 0.0031753308 0.0027072001 0.0018502212 0.0027376357
0.0023793192 1.1130359 0.73028755 1.0474231 0.6153439 0.046778575 0.3339521 0.76225644
0.5590857 0.71221846 0.03350567 0.030362088 0.047518 0.024401365 0.017712569 0.027734792
0.023268042 0.026517164 0.03398771 0.08779106 0.068231426 0.08046084 0.06530868 0.047985036
0.058172803 0.06694977 0.071886495 0.063746735 0.16126326 0.13425002 0.20229629 0.11595618
0.06777118 0.11260973 0.120099105 0.12116448 0.15471324 0.0 0.0 0.0
0.0 0.0 0.0 0.0 0.0 0.0 2.0572199e-05 3.1921216e-05
3.9672672e-05 2.0295136e-05 4.4527747e-05 5.15841e-05 2.4602321e-05 2.2833614e-05 3.2836753e-05 2.573528e-22
4.4503443e-23 1.4554239e-22 3.3108468e-12 6.77143e-12 9.169296e-09 1.3653022e-10 3.4802066e-13 3.139177e-11
0.05711569 0.042197637 0.044626914 0.04186413 0.021647455 0.02614641 0.0453783 0.033696495
0.038750563 0.4826557 0.32692796 0.4059995 0.27658087 0.06354603 0.15708192 0.3284059
0.26089835 0.27331313 0.63084173 0.41368556 0.5667517 0.35851207 0.031136997 0.17992352
0.44223893 0.31248447 0.39122126 0.0024801258 0.0024637326 0.0023398404 0.002256618 0.0025401346
0.0024993639 0.0021004188 0.0024977564 0.002280739 1.4956881e-06 1.9255147e-06 5.0843863e-07 6.160647e-07
00000000: 0ce3 5e3d 645b 4d3d 00f9 a53d 65e4 413d
00000010: dbaf 143d 1e0a 5e3d ec11 423d dbf3 333d
00000020: b7af 713d 62c5 a13b 6ff6 b53b 91d6 053c
00000030: 369e c13b 279a cd3b 5bf4 ec3b 6e41 ad3b
00000040: 89b7 bd3b 4d1d a63b 7af3 5b3f 0ae3 143f
00000050: 7953 3c3f bf44 ff3e b786 fb3d 5a51 8f3e
00000060: 070d 123f 35ec 003f 6c90 033f d951 d63e
00000070: 6328 953e 9e23 b43e fe44 823e 101f aa3d
00000080: a135 1a3e 4b5c 903e 0514 863e 6208 833e
00000090: a4d3 b63f a34e 6e3f 160a a73f 542c 443f
000000a0: 9f6d 393d 2694 c43e 96cb 703f 7781 303f
000000b0: b338 583f e745 e431 ecba 0232 8c9c 7433
000000c0: 1f4c 8935 0e53 f634 28cc a834 2437 7133
000000d0: eaf6 2334 9226 a434 ac6d 7e3b 44f2 a73b
000000e0: 9316 9b3b 3d45 643b 8e59 e43b ec04 943b
000000f0: b50f 283b d4e9 b83b fbbf 843b 5444 093e
00000100: 96bb c83d f72d f73d b14f a03d 279b e93c
00000110: 296d 533d ad40 b83d 72a7 993d 0075 a43d
00000120: 2ae8 323e d505 093e f1c8 4a3e 8a28 f53d
00000130: df55 3b3d 4855 c13d 9087 063e a652 dd3d
00000140: cdb8 153e cb13 842e 9df2 2a2f a31d 1b2e
00000150: af72 712e b447 2a2f 5e61 0334 b0e8 fc30
00000160: 9959 e631 cb2c fc2f e9d6 1839 441b 1039
00000170: 2309 e338 c635 2539 0f88 5b39 3135 4d39
00000180: 4850 1439 8fac 2639 0f5f 2c39 efd7 823d
00000190: 3ccd 873d ea80 ac3d de74 693d 6256 3c3d
000001a0: 41dc 7c3d 3b49 4e3d 6be0 5c3d f889 873d
000001b0: 0000 0000 0000 0000 0000 0000 0000 0000
000001c0: 0000 0000 0000 0000 0000 0000 0000 0000
000001d0: 0000 0000 81a8 693f fa28 193f 6f06 473f
000001e0: eef6 023f 896b bb3d 630e 8d3e 7db2 1b3f
000001f0: 2a08 f93e 97b8 063f f62d 9d3d ba57 6c3d
00000200: bf71 9d3d 021d 363d 9e30 ad3c b3cb 113d
00000210: 25aa 3d3d 5bfd 523d d523 523d 6124 ff3c
00000220: 4b07 0b3d dab1 003d e49c d73c 0d4f c93c
00000230: 7198 c13c 99de bf3c 47dc cb3c 65c3 ce3c
00000240: e2bd f73a e11e 193b 486b 063b 975e 043b
00000250: 3619 503b 486b 313b 1f83 f23a e869 333b
00000260: 5aee 1b3b f677 8e3f 20f4 3a3f f611 863f
00000270: 2e87 1d3f e49a 3f3d c5fb aa3e 3d23 433f
00000280: 3e20 0f3f f353 363f 3e3d 093d eab9 f83c
00000290: 3ca2 423d 5fe5 c73c f319 913c 1334 e33c
000002a0: 9f9c be3c 863a d93c b236 0b3d cdcb b33d
000002b0: ebbc 8b3d a7c8 a43d 8fc0 853d f58b 443d
000002c0: 9b46 6e3d f61c 893d 3a39 933d a68d 823d
000002d0: 3222 253e d678 093e c226 4f3e 6f7a ed3d
000002e0: 9ecb 8a3d ee9f e63d 85f6 f53d 1525 f83d
000002f0: 266d 1e3e 0000 0000 0000 0000 0000 0000
00000300: 0000 0000 0000 0000 0000 0000 0000 0000
00000310: 0000 0000 0000 0000 7692 ac37 25e3 0538
00000320: 3566 2638 793f aa37 4ec3 3a38 015c 5838
00000330: 1561 ce37 d08a bf37 32ba 0938 6b8f 9b1b
00000340: 9834 571a 30f3 2f1b eafa 682c 9f3f ee2c
00000350: fe86 1d32 d71d 162f 10eb c32a fe0f 0a2e
00000360: 24f2 693d 6ed7 2c3d b6ca 363d b979 2b3d
00000370: 0156 b13c ff30 d63c 99de 393d 5605 0a3d
00000380: e9b8 1e3d a61e f73e 1a63 a73e 2bdf cf3e
00000390: 029c 8d3e 6c24 823d 15da 203e d124 a83e
000003a0: 7894 853e b3ef 8b3e d87e 213f 98ce d33e
000003b0: a416 113f e58e b73e 0413 ff3c df3d 383e
000003c0: 246d e23e f7fd 9f3e 274e c83e 9b89 223b
000003d0: 9376 213b 0258 193b c5e3 133b 6378 263b
000003e0: 5ecc 233b 2ea7 093b 66b1 233b 7378 153b
000003f0: 74bf c835 1738 0136 a37b 0835 a55f 2535

exp_avg f4 [64]
-8.0641555e-10 -1.1691119e-09 1.7048642e-10 -1.9409936e-09 2.9187244e-10 4.0272696e-10 -2.5726323e-09 2.4159805e-10
-5.990394e-10 -7.5270606e-10 -3.4730946e-10 -1.8249698e-10 4.776893e-10 2.5751292e-09 -1.8571507e-10 -6.382768e-10
-1.8005575e-09 1.0564899e-09 -3.9069825e-10 -3.987121e-09 5.378972e-10 -5.6141e-10 9.583739e-10 -5.88898e-11
3.7956582e-10 1.1258141e-09 5.6390786e-10 5.7202687e-10 -8.3584034e-10 -8.023884e-10 -1.5077563e-09 2.2941428e-10
8.4313834e-10 -5.2714144e-10 -2.2739486e-09 -9.833626e-10 8.895781e-10 -8.926536e-09 -5.037162e-10 -7.272088e-10
-9.932116e-10 2.2137572e-09 -3.1676936e-10 -5.5081933e-10 -7.360263e-10 -3.4213452e-09 -6.3471706e-10 9.137586e-10
-4.044693e-10 -3.9118037e-10 -4.3466603e-10 7.1814604e-10 3.518511e-10 -5.9454397e-10 -2.3393998e-10 -6.883126e-10
3.1974434e-10 3.021452e-10 -3.1550404e-10 2.3060887e-09 -7.637937e-10 -2.7240894e-09 -1.4335687e-09 3.9850376e-10
00000000: 73aa 5db0 78ae a0b0 a973 3b2f 5262 05b1
00000010: 6575 a02f c866 dd2f 3aca 30b1 e7d1 842f
00000020: a6a9 24b0 fbe6 4eb0 76ef beaf 55a8 48af
00000030: 654e 0330 27f6 3031 2532 4caf bd72 2fb0
00000040: 7c77 f7b0 ef33 9130 e4c9 d6af 16ff 88b1
00000050: 27db 1330 b751 1ab0 c9b7 8330 0380 81ae
00000060: 24ab d02f 10bb 9a30 7d01 1b30 d03c 1d30
00000070: 09c1 65b0 108f 5cb0 7539 cfb0 613e 7c2f
00000080: 96c2 6730 48e6 10b0 ba43 1cb1 ff26 87b0
00000090: 7e86 7430 525b 19b2 e075 0ab0 c5e4 47b0
000000a0: 8781 88b0 d420 1831 5325 aeaf 7768 17b0
000000b0: 3f51 4ab0 f11c 6bb1 3e78 2eb0 0c2c 7b30
000000c0: fe5b deaf be0d d7af cef5 eeaf 0967 4530
000000d0: a46e c12f 506d 23b0 209c 80af b133 3db0
000000e0: 04c8 af2f 281b a62f 3f73 adaf 2479 1e31
000000f0: 34f3 51b0 b032 3bb1 3707 c5b0 6b14 db2f

exp_avg_sq f4 [64]
9.8903084e-14 4.5124684e-14 5.0189945e-14 1.3011006e-13 2.6650015e-13 7.023699e-14 1.3073559e-13 6.784423e-14
7.802211e-14 1.2351025e-13 8.3501036e-14 8.448107e-14 1.9840892e-13 6.050582e-14 1.1064434e-13 8.440875e-14
8.884063e-14 7.255276e-14 4.9869248e-14 2.3857663e-13 8.570564e-14 1.3907857e-13 1.5622195e-13 6.2404786e-14
1.8773404e-13 1.7968048e-13 5.4427068e-14 1.1249051e-13 9.9908085e-14 4.549024e-14 5.5404327e-14 2.6251313e-14
8.388131e-14 5.263011e-14 5.113935e-14 7.7155133e-14 7.168478e-14 2.1323237e-13 8.302262e-14 9.756952e-14
5.0915313e-14 3.593307e-14 1.0465482e-13 6.9891894e-14 1.3430652e-13 1.2970029e-13 1.7642333e-13 8.183654e-14
4.7308162e-14 7.7230296e-14 7.498043e-14 9.324632e-14 7.906255e-14 1.5745956e-13 1.4799651e-13 1.4380547e-13
3.820152e-14 5.066532e-14 1.3813724e-13 6.297737e-14 1.3725676e-13 6.259037e-14 5.3538994e-14 1.1569333e-13
00000000: bfb5 de29 3839 4b29 1109 6229 ac7d 122a
00000010: b806 962a de28 9e29 f831 132a 89c5 9829
00000020: afb0 af29 680f 0b2a 1207 bc29 053c be29
00000030: 7a63 5f2a 3b3f 8829 1f26 f929 5512 be29
00000040: 230d c829 d25f a329 5497 6029 844e 862a
00000050: f0fd c029 ab96 1c2a e9e3 2f2a e985 8c29
00000060: a75e 532a 5f4d 4a2a 231e 7529 5d4e fd29
00000070: 17f9 e029 adde 4c29 d784 7929 6873 ec28
00000080: 48e2 bc29 6306 6d29 a84f 6629 e8bc ad29
00000090: 766b a129 0c14 702a 48f3 ba29 00b5 db29
000000a0: 5c4d 6529 02d4 2129 65a9 eb29 ef61 9d29
000000b0: 3837 172a 9007 122a 90a2 462a 8e47 b829
000000c0: 990e 5529 3ce8 ad29 46d7 a829 d8f8 d129
000000d0: 7508 b229 a148 312a 17a1 262a 1be9 212a
000000e0: 5b0b 2c29 232d 6429 5987 1b2a fbcf 8d29
000000f0: 9189 1a2a e4f0 8c29 421e 7129 5542 022a

exp_avg f4 [64]
-3.691001e-05 -2.1812515e-05 0.00037735238 -0.00020707864 2.1565105e-05 0.00016620156 -0.00021494737 0.00012982229
0.00046369352 4.9162227e-05 -0.0001392416 6.919624e-05 0.000110770015 0.00040983467 3.5086006e-05 -2.9391562e-05
0.00012884481 8.205839e-05 -7.0391136e-05 1.504372e-05 -0.00033229974 -1.7964426e-06 -2.0174883e-05 -6.2028754e-05
-0.00025920855 0.0002111927 -0.00014406035 -3.5396544e-05 0.00028393415 8.422964e-05 2.3180964e-05 3.4772598e-05
6.3366155e-05 -0.00017881916 -0.00019259317 -0.00040808058 -4.1919295e-05 0.0002399276 -0.00011567308 0.0003393581
-0.00028405676 0.0002776878 0.00015274827 -6.247868e-05 -4.553407e-05 0.00019003365 4.4348395e-05 -0.0001055415
-0.00014003731 -1.7996494e-05 8.7264474e-05 0.0003224021 -2.53506e-05 0.00022145624 6.469244e-05 0.00035212276
-6.149176e-05 -6.283503e-05 8.169421e-05 -0.00010756283 0.00016218239 -0.00026209542 -0.00026530423 6.279231e-06
00000000: d2cf 1ab8 05fa b6b7 61d7 c539 4023 59b9
00000010: b6e6 b437 6446 2e39 7f63 61b9 e820 0839
00000020: e41b f339 8a33 4e38 6201 12b9 731d 9138
00000030: 334d e838 14df d639 5029 1338 e68d f6b7
00000040: 841a 0739 c316 ac38 f49e 93b8 4964 7c37
00000050: 8438 aeb9 4c1d f1b5 3b3d a9b7 6f15 82b8
00000060: 62e6 87b9 9c73 5d39 e80e 17b9 c076 14b8
00000070: ffdc 9439 72a4 b038 be74 c237 cbd8 1138
00000080: 72e3 8438 6781 3bb9 d6f2 49b9 a6f3 d5b9
00000090: 80d2 2fb8 1395 7b39 8395 f2b8 e0eb b139
000000a0: 74ed 94b9 a096 9139 0d2b 2039 fc06 83b8
000000b0: d6fb 3eb8 c543 4739 ba02 3a38 2956 ddb8
000000c0: fbd6 12b9 2df7 96b7 c201 b738 1408 a939
000000d0: 00a8 d4b7 b536 6839 7dab 8738 1e9d b839
000000e0: 23f5 80b8 4dc6 83b8 3f53 ab38 5b93 e1b8
000000f0: 810f 2a39 da69 89b9 8818 8bb9 2fb2 d236

exp_avg_sq f4 [64]
0.0018726466 0.005253862 0.0067242333 0.004154852 0.0036295026 0.0036869068 0.0032144093 0.0103955995
0.0044499617 0.0026235164 0.0034086707 0.0026307155 0.0028529076 0.0043772017 0.0030589148 0.0022123326
0.0042247023 0.0018737988 0.0037589693 0.0023872869 0.003584327 0.0017660902 0.004763837 0.003158716
0.007292523 0.0026822477 0.0060354644 0.0038628208 0.0033327865 0.0036060445 0.0028139458 0.0020332143
0.002181252 0.0060893367 0.0042728405 0.006510586 0.00401104 0.0020121841 0.0031420721 0.0053391387
0.0031217085 0.0021100538 0.0036457507 0.0036391458 0.002923128 0.0044779717 0.0033731812 0.0023453876
0.005930567 0.003594579 0.0048010433 0.0029597073 0.0030197392 0.0026386264 0.003964339 0.0023513539
0.0018695965 0.0020629768 0.002808715 0.009228072 0.0075947186 0.0031291042 0.0030073358 0.0047008395
00000000: 9873 f53a 9728 ac3b f556 dc3b 6d25 883b
00000010: f3dc 6d3b 08a0 713b d7a8 523b 4e52 2a3c
00000020: fcd0 913b 4def 2b3b 0164 5f3b 1568 2c3b
00000030: d9f7 3a3b a16e 8f3b 1378 483b c8fc 103b
00000040: 5f6f 8a3b 419a f53a 0a59 763b 0774 1c3b
00000050: 07e7 6a3b 277c e73a f619 9c3b 7602 4f3b
00000060: 1ef6 ee3b a6c8 2f3b 25c5 c53b 6127 7d3b
00000070: e16a 5a3b 6353 6c3b 2d6a 383b ad3f 053b
00000080: 56f3 0e3b 0f89 c73b 2f03 8c3b c156 d53b
00000090: 0b6f 833b d9de 033b 39eb 4d3b f1f3 ae3b
000000a0: 9495 4c3b d448 0a3b 8ced 6e3b bc7e 6e3b
000000b0: f391 3f3b f3bb 923b 9710 5d3b 13b5 193b
000000c0: 3455 c23b 0793 6b3b 1252 9d3b a6f7 413b
000000d0: d1e6 453b ceec 2c3b 49e7 813b 2c19 1a3b
000000e0: 400d f53a 0233 073b 6b12 383b 5731 173c
000000f0: 1edd f83b a811 4d3b b916 453b 8009 9a3b

exp_avg f4 [64]
0.000108595006 3.7075457e-05 0.000407732 -0.0003602646 0.0005691653 0.00019750309 -0.0003014718 -0.00010961769
0.0003364157 2.2197795e-05 -0.00014088307 -9.1154456e-05 0.00017562737 0.00027125888 9.73983e-05 -1.9989358e-05
-9.51567e-05 7.6496435e-05 1.7603546e-05 -7.0602895e-05 -0.0001246977 0.0001521124 -0.00017346157 -0.00043784684
-0.0003138866 0.00011777662 1.8107121e-05 0.0002464736 0.0003003986 0.000103154816 8.629828e-05 -0.00016436243
2.0744379e-05 -0.00018545866 -0.00028580305 -0.0006632419 -0.00015733407 -6.461826e-05 -0.00021532488 0.00024725002
-0.00030634148 0.00032949503 -0.00012360114 -0.0004031913 6.4589e-05 0.00031581358 0.00020780292 -0.00029121563
-9.58713e-05 -9.732779e-05 0.000106804066 0.00029850696 1.48843865e-05 5.300386e-05 2.2787997e-05 0.00022107642
-0.00010139488 -4.543784e-05 -5.3816257e-06 -0.00022320602 0.00020014787 -0.0003177646 -0.00063432904 9.093961e-05
00000000: 80bd e338 7881 1b38 ddc4 d539 e5e1 bcb9
00000010: 0934 153a d518 4f39 dc0e 9eb9 8de2 e5b8
00000020: f360 b039 6735 ba37 03ba 13b9 2d2a bfb8
00000030: 9d28 3839 c037 8e39 5042 cc38 d2ae a7b7
00000040: dd8e c7b8 b66c a038 54ab 9337 a410 94b8
00000050: 49c1 02b9 5d80 1f39 3ce3 35b9 cf8e e5b9
00000060: 2591 a4b9 d7fe f638 bfe4 9737 2039 8139
00000070: d17e 9d39 d254 d838 09fb b438 b458 2cb9
00000080: 3704 ae37 ae77 42b9 d6d7 95b9 69dd 2dba
00000090: 0bfa 24b9 aa83 87b8 d5c8 61b9 56a1 8139
000000a0: 759c a0b9 13c0 ac39 ee9a 01b9 6c63 d3b9
000000b0: f573 8738 c893 a539 ace5 5939 4dae 98b9
000000c0: 830e c9b8 761c ccb8 fffb df38 ed80 9c39
000000d0: f4b7 7937 7650 5e38 da28 bf37 c0d0 6739
000000e0: f6a3 d4b8 8294 3eb8 d093 b4b6 690c 6ab9
000000f0: c9de 5139 a599 a6b9 1a49 26ba d5b6 be38

exp_avg_sq f4 [64]
0.0034567858 0.0046208124 0.006904211 0.008606893 0.0072104824 0.003751083 0.005965691 0.008722399
0.0059927893 0.003001873 0.003456622 0.0052692965 0.0040030647 0.00507829 0.00523246 0.0043047573
0.0055379146 0.0023312906 0.0042648623 0.003251572 0.003573174 0.002148796 0.0046093976 0.005008555
0.0142006995 0.0031328232 0.0073005897 0.0054680025 0.0049048015 0.0040441924 0.0035925184 0.0034979966
0.002894203 0.011784904 0.004775092 0.009392105 0.005169731 0.0021053238 0.0049234545 0.006857616
0.002846029 0.0033548512 0.00643927 0.0061303154 0.0030271916 0.0069699953 0.005172043 0.0033218917
0.008550883 0.0046249013 0.004909876 0.0044919266 0.004300106 0.0033311422 0.007587886 0.002739905
0.002248639 0.0032197507 0.0028682947 0.014307578 0.010545348 0.003655668 0.004308185 0.006611518
00000000: 3e8b 623b 2f6a 973b b83c e23b ed03 0d3c
00000010: e945 ec3b bbd4 753b d87b c33b 65e8 0e3c
00000020: 295f c43b 12bb 443b 7e88 623b 10aa ac3b
00000030: 242c 833b c967 a63b 0e75 ab3b ec0e 8d3b
00000040: 6577 b53b 91c8 183b 42c0 8b3b 5318 553b
00000050: e92b 6a3b d1d2 0c3b 6e0a 973b ce1e a43b
00000060: 0daa 683c 0d50 4d3b c939 ef3b ee2c b33b
00000070: 75b8 a03b 2585 843b 7570 6b3b a53e 653b
00000080: abac 3d3b 7815 413c 6078 9c3b 58e1 193c
00000090: d966 a93b 79f9 093b ee54 a13b dab5 e03b
000000a0: 7184 3a3b 10dd 5b3b 8300 d33b d0e0 c83b
000000b0: d963 463b 8f64 e43b 3e7a a93b 18b4 593b
000000c0: 0119 0c3c 7c8c 973b 06e3 a03b 0331 933b
000000d0: e7e7 8c3b 4b4f 5a3b cda3 f83b fa8f 333b
000000e0: e75d 133b 7402 533b 00fa 3b3b 556a 6a3c
000000f0: 65c6 2c3c ef93 6f3b ad2b 8d3b 6fa5 d83b
