checkpoint_decoder/check_point_2021_10_10_03:57:50/check_point_2021_10_10_03:57:50_epoch_30.pth (torch, 452917 bytes, 20 tensors)

conv1.weight f4 [64, 32, 3, 3]
00000000: b02c dcba 7d64 a1bd 8c97 afbc 53ab 103e
00000010: ab99 bdbb 45cd 8dbb bf05 04bd e540 383d
00000020: 22e5 1e3d 7900 cabd 1689 81bc 5d8b e33d
00000030: 4bc1 3b3d 36e2 d93d 6dce d23d 7779 c7bd
00000040: 3f99 34bd 4e22 f9bd 46d6 883c 0e4d 93bc
00000050: 4aef e0bc f9a1 e7bc a46a 233d 55ff bc3c
00000060: e7d7 8b3d 7f56 26bd 3d3f a8bc 8405 b13d
00000070: 9758 903d 31b4 64bc 4fb2 0fbc 80c5 23bd
00000080: 24c6 103c 26df 5dbc 4f73 4cbc 9c88 f63c
00000090: fe65 97b9 2a82 9fbc 7c38 013d 02f2 1c39
000000a0: 499d b2bd 3695 e0bc c213 303c beab 9b3c
000000b0: f2af 9bbc 86d8 973d c3cf 2c3a fcbc 83bb
000000c0: e983 9b3b 9704 d4bd 0ab6 c73e b424 40be
000000d0: 67f2 ddbd 8e74 8e3c 2376 ab3d 1513 8cbd
000000e0: 5af6 62bd 22c4 68bd 6a41 0b3d 3d01 503d
000000f0: 2c2f acbd 9187 25bd f944 153d a8c1 78bd
00000100: c56f c33c 7705 d33c fc69 423c dd89 b13c
00000110: 09cc 903d ba94 2cbd 21c3 3e3d 541c 1b3d
00000120: 68a9 03be 92fc a53c fbc6 3fbc 6116 713d
00000130: baaa 42bd 78a6 c5bc 1f55 f6bb 63fb af3c
00000140: 8a15 e33c ebb6 b83c d39b 62bd a575 313a
00000150: aa42 6b3b ba84 3f3c 26af 433c af5d 0fbd
00000160: 0f09 7f3d f950 cd3c be02 303e 673f b63c
00000170: b3a9 753d 3ab8 df3d de58 413d 8494 223e
00000180: ae4d 5a3b 5da6 2a3e b677 da3d 3f59 3c3d
00000190: 430d 0c3d a2bb 953d 2794 b5bc 8c0c 81bb
000001a0: a023 f4bc f304 15bd 33a2 493d 06b1 e2bd
000001b0: ced1 c9bc 9342 a83c e404 42bc fcc5 4e3c
000001c0: 844a 44bc b9f1 133d 8a0e 503d fe00 46bd
000001d0: 8ac6 2d3d 288b 2b3d 6cb1 3cbd 06a0 d3bc
000001e0: 8753 7ebc f8c2 423d 6bcd 11bd 08ab d4bb
000001f0: 0c9e ec3c bc14 1cbd c187 a73d 4693 233e
00000200: e82a 5e3e 9577 86bb 645a ecbb e584 b1bd
00000210: 6533 59be 7040 923c f5c6 21be 74c8 82bd
00000220: 45d3 08bd 08cb 933d 4c4b d1bd a32d 8c3c
00000230: 2a97 ccbc 1143 4bbd d9fb 61bd 6c32 a0bd
00000240: b716 93bd 029a cbbd 0c0c b3bc afd3 d1bd
00000250: 61f1 2e3d 3e2c 48bd 172b 46be 4891 77bd
00000260: ff5b 2dbd b706 573c 9d1d 4e3d df7e e8bc
00000270: 0666 aabc 2668 86bd 4259 8d3d 89c7 2dbd
00000280: 0663 bbbc abd8 ab3d 168f a9bc 9110 053e
00000290: 25bf 543e e7cf a43c 9324 13bd b5fc e43d
000002a0: bc22 18be 2215 da3d d0df e4bd 37a6 993d
000002b0: 91a8 9abd 0db8 dcbc e26d 15bc a068 ba3d
000002c0: fe88 a63a 25fa 95bc 8c56 3b3c fdc8 8f3d
000002d0: f4b9 bcbc 310e 01bd 4e79 27bd 9cb5 303c
000002e0: 26ec 1dbd 8e6e adbc 02ab 21bd 37e7 d33c
000002f0: e6c5 5d3d 37eb 37bd 040d 4ebd ac41 6c3c
00000300: 04c0 70bd 0cbd 003d 6184 2cbd a1c2 6bbc
00000310: bf04 5f3a 4473 70bc 3889 9a3c d00e 643c
00000320: 7fda 403e 20da 1cbe 3144 ae3e 45db 7b3d
00000330: 3e72 10be 784e e3bd 960c 28bb c61d 2fbc
00000340: 1323 cd3d 9a5b 58bd 8985 93bd 0d90 8ebc
00000350: 95b3 c53a dd89 35bd 7ac4 f4bc 73e0 e53a
00000360: 88ce 31be 9099 0ebe cb7b a3be bf15 323c
00000370: 0b4b cfbc e2c5 fbbb d5bc 213e 6838 a73c
00000380: 44a7 593d b96f 313d 6b71 873b c7ca 1bbd
00000390: 0104 4d3d de0b 9d3d 2bb4 88bc f583 5e3c
000003a0: 625a 07bc beb4 c63c 119d b0bd 0323 a83d
000003b0: 23c7 80bd f7e1 d5bc 9500 d43d 8ee3 f93c
000003c0: 67b7 713d 9407 bebd 3020 27bd a407 d53d
000003d0: 52b2 923b 472c 233e 21fd 0abc 59d7 1c3d
000003e0: 0909 563e 5eff 9abc 632e ecbc 89f8 e7bc
000003f0: 6ab3 a33d f7f1 113e 32fb 5ebe 224c 94be
-0.0016797986 -0.07880495 -0.021434568 0.14127855 -0.005786141 -0.0043274486 -0.032232042 0.044983763
0.038792737 -0.098633714 -0.015812438 0.11110566 0.045838635 0.106388494 0.10293279 -0.097399645
-0.04409146 -0.12164746 0.016703736 -0.017981078 -0.027457852 -0.028275477 0.039896622 0.02307097
0.068282895 -0.040609833 -0.020537967 0.0864363 0.07048147 -0.013958977 -0.008770539 -0.039983273
0.008836303 -0.013541972 -0.012478664 0.030094437 -0.00028876954 -0.019471247 0.03154801 0.00014967474
-0.08721406 -0.0274149 0.010746898 0.019002791 -0.019004796 0.074143454 0.0006592238 -0.0040203314
0.0047459495 -0.10352438 0.39006072 -0.18764001 -0.1083725 0.017389562 0.08372142 -0.06839577
-0.05541072 -0.05682767 0.03399793 0.05078243 -0.08407435 -0.04041249 0.03644273 -0.06073156
0.023857007 0.025759442 0.011866089 0.021672184 0.070701666 -0.042134024 0.04657281 0.037868813
-0.12857592 0.020262036 -0.0117051555 0.058859233 -0.0475261 -0.02412723 -0.0075174714 0.021482175
0.027720232 0.02254816 -0.055324387 0.00067695446 0.003589789 0.011689359 0.011943614 -0.035001453
0.0622645 0.025063025 0.17188546 0.02224703 0.05997629 0.1092381 0.04720389 0.15876967
0.003331046 0.16665025 0.10667364 0.04598355 0.034192335 0.07311179 -0.022165371 -0.0039382633
-0.029802144 -0.036381673 0.04922695 -0.11068921 -0.024636175 0.020539558 -0.011841986 0.012620445
-0.011980657 0.036119197 0.050795116 -0.04834079 0.04242567 0.041880757 -0.04606764 -0.025833141
-0.015522844 0.047549218 -0.035596292 -0.006490115 0.028883956 -0.03810571 0.0818019 0.15974149
0.21696055 -0.0041036108 -0.007212924 -0.08667926 -0.21211012 0.017852992 -0.15798552 -0.0638589
-0.033404607 0.072164595 -0.1021944 0.017111605 -0.024974424 -0.049624506 -0.05517182 -0.07822117
-0.07182067 -0.09941484 -0.02185633 -0.102454536 0.042710666 -0.048870318 -0.19352375 -0.060441285
-0.042324062 0.01312416 0.05032121 -0.02838081 -0.020800602 -0.065628335 0.0690179 -0.04242662
-0.022874366 0.083909355 -0.020698112 0.12994601 0.20776041 0.020118667 -0.03592355 0.111810125
-0.14857 0.10648562 -0.11175501 0.07502406 -0.07551683 -0.026943231 -0.009120436 0.09101987
0.0012705622 -0.018307755 0.011434209 0.07020757 -0.023037888 -0.031507675 -0.04088717 0.010785487
-0.038555287 -0.02117088 -0.039469726 0.025867088 0.05414381 -0.044902053 -0.05030538 0.014419954
-0.05877687 0.03143029 -0.042118434 -0.014389665 0.0008507482 -0.014675919 0.01886426 0.013919547
0.1883335 -0.15317583 0.340364 0.06148841 -0.1410608 -0.11098951 -0.0025642267 -0.010688251
0.100164555 -0.052821733 -0.07203204 -0.017402673 0.0015083427 -0.04432093 -0.029878844 0.0017538205
-0.17363942 -0.13925767 -0.31930384 0.0108694425 -0.025304338 -0.0076835016 0.1579469 0.020412639
0.053138033 0.043319438 0.0041333935 -0.03803518 0.050052647 0.07668279 -0.016687473 0.013581266
-0.008261295 0.024256106 -0.08623708 0.08209803 -0.06287982 -0.026108725 0.103516735 0.030504014
0.059012797 -0.09278789 -0.04080218 0.10401848 0.004476824 0.15934859 -0.008483202 0.03829131
0.20901884 -0.018920597 -0.028830713 -0.028316753 0.07993205 0.14252459 -0.21775511 -0.28964335

conv1.bias f4 [64]
00000000: 5de9 2cbd 3bb3 c83c a750 14be 6412 77bd
00000010: e722 a23d 4e1d 35be 9885 953c abae 6dbe
00000020: 6912 09be 297e 6ebd 701b 823d 6f20 ccbd
00000030: 3e00 133e fbc3 82bc ce1f 483d c8eb c3bc
00000040: bec3 acbd d41d d8bd e20f 763d 10c6 b83b
00000050: 3371 843b 373f 873e aef9 65bd 9188 cc3c
00000060: 2dff 823d 8b9c 23be 3d2d c43d 22c9 1cbd
00000070: 73bb 15bd 0266 dbbd 9157 233e 5d96 273d
00000080: 096c 89bd c29a c9bd 410b e53d 6c2f 09be
00000090: f615 16be 99fb 35bb 93d9 8dbd 2fb8 21be
000000a0: 779b a5bd 813b e53d 789f 18bc ed80 ac3c
000000b0: 12a0 593b 8055 2d3d 8bbc f73b 7721 633d
000000c0: 67a5 3abd 6226 e8bd aa59 bd3c 21f1 69be
000000d0: 7f87 5a3c 632a 52bd 5412 b03b 95a1 8ebc
000000e0: 7830 303d 5c48 3a3d e393 d4bc 6533 c4bc
000000f0: 0ed8 233c ad76 41bd 3e3e a8bd 9e89 0dbd
-0.04221474 0.024499526 -0.14483891 -0.060320273 0.07916813 -0.1768696 0.018252179 -0.23211162
-0.13385929 -0.058225784 0.063528895 -0.09967124 0.14355561 -0.015962591 0.048858456 -0.02391614
-0.08435772 -0.10552564 0.06007374 0.0056388453 0.0040418147 0.26415417 -0.056146316 0.024967464
0.06396327 -0.15977685 0.09578941 -0.038277753 -0.03655572 -0.10712816 0.15951373 0.040914882
-0.06710059 -0.09843971 0.11183787 -0.13396996 -0.14656815 -0.0027768372 -0.069262646 -0.15792917
-0.08086293 0.1119299 -0.009315364 0.02105757 0.0033206982 0.042317867 0.007560318 0.055451836
-0.045567896 -0.11335446 0.023114044 -0.2284589 0.013337969 -0.051309954 0.0053732786 -0.017411033
0.043014973 0.045479164 -0.025949424 -0.023950288 0.010000242 -0.04723232 -0.08214997 -0.03455507

bn1.weight f4 [64]
00000000: fc13 1c40 b7a4 0a40 5e54 0640 799d 1c40
00000010: 31bb 2f40 feb8 3340 2386 2640 3ed1 f23f
00000020: bbe4 2540 43a4 3e40 b0c5 2940 e5b2 2540
00000030: 7204 5040 ee66 0f40 df9b 2d40 dcf5 0f40
00000040: 90b3 1c40 fe4b 1b40 cd36 2640 09e7 3640
00000050: 20f8 2540 c4a8 3340 87ac 2340 e08d 2440
00000060: 0b68 0740 ef02 3540 70ef 0740 469a 4040
00000070: 0563 1140 5387 1440 dd1b 2940 708e 1940
00000080: 3599 3240 d6e3 0b40 d294 1640 c47c f73f
00000090: 9355 3140 5586 3240 7fd5 3240 1409 1240
000000a0: b8ea 1640 9999 2140 96df 1840 4f02 1740
000000b0: 0f00 4940 6065 1b40 4768 2740 ccb1 2e40
000000c0: 2c1d 1c40 0290 2a40 6f2e 0e40 0749 2440
000000d0: 8df3 1740 4192 2c40 0809 3440 319f 3440
000000e0: 4da6 2140 1631 2640 bff4 2640 6457 0a40
000000f0: 0ded 1340 5393 1640 cc15 1440 25dc 1740
2.4387197 2.1663034 2.0988994 2.4471114 2.7458003 2.808166 2.601937 1.8970106
2.5920856 2.9787757 2.652691 2.5890439 3.2502713 2.2406573 2.7126386 2.249381
2.4484596 2.4265132 2.5970948 2.8578513 2.5932693 2.8071756 2.5574052 2.5711594
2.1157253 2.828304 2.123989 3.009416 2.2716687 2.3207595 2.6423256 2.3993187
2.790601 2.185781 2.3528333 1.933495 2.770848 2.789449 2.7942808 2.281804
2.358076 2.5249999 2.3886466 2.359516 3.1406286 2.4280624 2.6157396 2.7296019
2.4392805 2.6650395 2.221584 2.5669572 2.3742402 2.6964266 2.8130512 2.8222163
2.5257752 2.596746 2.608688 2.161584 2.3113434 2.352742 2.3138304 2.3728116

bn1.bias f4 [64]
00000000: 14f2 453f d691 143f 7e9d ec3e a893 1e3f
00000010: b731 1f3f a15d c73e 1e1e 483f 82b7 883e
00000020: 4422 313f a2de 3f3f b9a1 213f 9ccc 373f
00000030: 70fe 473f dbd1 ff3e 7845 6c3f cab5 da3e
00000040: ec57 163f bb6f 1e3f a515 1d3f 1d61 693f
00000050: d7d0 f93e 2a73 5c3f b623 1c3f 962e 313f
00000060: 8c81 c93e 9d17 693f 9abc b13e 2a02 313f
00000070: aed3 123f d40e f53e 7a6a 293f 8019 a73e
00000080: 1419 1f3f 56fa b03e 56f8 1c3f ba4c db3e
00000090: 1094 fa3e e3cb 873f 80ad 193f 74ea e33e
000000a0: 1df7 3c3f ae2e 153f 88e8 de3e a16d 143f
000000b0: c748 9a3f 68fc 0c3f cc5c 413f 1d79 5e3f
000000c0: 9072 b13e 417a 023f 1633 0d3f 793e 0f3f
000000d0: 3421 123f 2e4f 663f 79d8 413f 4725 583f
000000e0: dd79 3d3f f0ca 1e3f 9e36 2a3f 5243 a93e
000000f0: f42c 053f 3483 083f 3d93 263f 4cae ce3e
0.77322507 0.5803503 0.46213907 0.61944056 0.62185234 0.3893862 0.78170955 0.26702505
0.6919291 0.74949086 0.63137394 0.71796584 0.78122616 0.49964795 0.922935 0.4271682
0.5872791 0.6188924 0.6136115 0.9116381 0.48792145 0.86113226 0.6099199 0.6921171
0.3935665 0.91051656 0.34714204 0.6914393 0.5735425 0.47862875 0.66178095 0.32636642
0.6214764 0.3456599 0.6131643 0.42831975 0.48941088 1.0609096 0.60030365 0.4451481
0.73814565 0.5827435 0.43536782 0.5797978 1.205346 0.5507264 0.7553222 0.86903554
0.34657717 0.50967795 0.55156076 0.559547 0.57081914 0.8996457 0.75720936 0.8443188
0.74014074 0.6202841 0.6648959 0.33059174 0.5202172 0.533252 0.6506842 0.40367353

bn1.running_mean f4 [64]
00000000: e4df 06bd 8826 2abc d0b9 003c b78d a7bd
00000010: 76c3 c63d b6ef 693d b942 33bd 1ee7 a23d
00000020: 9d4c 9f3c 94eb abbd 5bc1 1e3b f7bc babd
00000030: bfa8 59bd 128b d4bd 4ce3 2bbd b359 37bd
00000040: d721 1cbd 7390 453a 8de5 09bd c63c 45bc
00000050: cf51 803c 2508 8ebc 3146 193e 5bf1 a5bd
00000060: 313b 84bc 9889 8c3c c165 043c 70ef 96bc
00000070: 76b7 1ebd a48e 093b f60a 143c acd6 e1bd
00000080: 7db4 03bd 3c67 223d 2bd7 2a3c 9a10 a1bd
00000090: 2d9c b03d b365 d53b fdb7 eab8 822e ab3d
000000a0: 9ee6 193d c118 2a3c 80eb 1abd d79d 22bd
000000b0: ace2 553d d8ed 9a3d 776a 4f3a 34e6 7c3c
000000c0: 2370 b1bd 29e9 163d 80ac a33d e920 a43d
000000d0: d537 0abd acfd acbd b828 3f3d 1d94 c9bd
000000e0: d876 81bd 4c19 edbd 1e60 d53b ca28 37bc
000000f0: 0113 5abc 7979 abbc 9a5c 66bd a645 8dbd
-0.032928362 -0.010385163 0.007856801 -0.08181327 0.0970525 0.05711337 -0.043764804 0.07954238
0.019445712 -0.08394542 0.0024224136 -0.091180734 -0.053139444 -0.10378088 -0.041964814 -0.04476328
-0.03811821 0.0007536478 -0.033666182 -0.012038415 0.01566401 -0.017337868 0.14968182 -0.081026755
-0.016141506 0.017155454 0.008080901 -0.01842472 -0.03874918 0.0020989561 0.009035816 -0.110272735
-0.03215455 0.039649233 0.010427277 -0.078644946 0.08623538 0.0065123676 -0.0001119226 0.0835848
0.03757345 0.010381878 -0.037822247 -0.03970131 0.052218124 0.07564896 0.0007912288 0.015435744
-0.086639665 0.036843453 0.07991886 0.080140896 -0.03374465 -0.084468216 0.04666969 -0.098427035
-0.06321496 -0.115770906 0.006511702 -0.011179158 -0.013310195 -0.020931946 -0.056240655 -0.0689805

bn1.running_var f4 [64]
00000000: a827 3c3a 4bb5 1c3b aa34 913b 60ea a23a
00000010: ca12 0f3b b04c a23b 0f59 9a3a c259 f03b
00000020: 20de 593b cd51 603b 06ab d03a 4f50 cb3a
00000030: facd 4f3b 9721 773b e26b 3c3a f042 243b
00000040: cfed fd3a e416 ec3a e98e 353b 6c87 4e3a
00000050: e598 be3a 900e 863b e169 863b 43a2 6f3b
00000060: 035b b13a 14d6 073b c369 a33b 63c0 9e3b
00000070: dca5 063b d675 d03b 725b 0e3b 93ec 6f3b
00000080: 6f91 763a 5eac d73b a080 e93a 9614 2d3b
00000090: 9ba6 933b 681a 013a c569 913a 42b0 433b
000000a0: c83b a13a 3e3c 463b 9e13 f03a e5b6 ba3a
000000b0: a081 593a fdf7 503a 03ac 2a3b 6d0f d53a
000000c0: 7b96 d13b 47b8 5c3b b024 d43a 261b 763b
000000d0: ebc3 163b 6c30 583b 699c 4e3a 55ba f83a
000000e0: c19c e13a ba39 163b 4bc9 bf3a 08fb 293b
000000f0: 5ee3 363a 47be e83a ff0b 533b c93a 7f3b
0.000717754 0.002391177 0.004431327 0.0012429468 0.0021831268 0.0049529895 0.0011775809 0.0073349187
0.003324397 0.0034228445 0.001592011 0.0015511605 0.0031708465 0.003770923 0.00071877067 0.0025064312
0.0019373241 0.0018012193 0.002770359 0.0007878456 0.0014541416 0.0040910915 0.004101977 0.0036565221
0.0013531152 0.0020726966 0.004986973 0.0048447116 0.0020545637 0.0063617034 0.0021721986 0.0036609515
0.00094058266 0.006581827 0.0017814822 0.0026409975 0.004505945 0.00049248943 0.0011094144 0.0029859697
0.0012301141 0.003024831 0.0018316393 0.0014245181 0.00082972087 0.00079715234 0.0026042468 0.0016255208
0.0063961125 0.0033679174 0.001618525 0.0037552803 0.002300496 0.0032987846 0.00078815833 0.001897643
0.0017212854 0.0022922591 0.0014632134 0.002593698 0.00069766294 0.0017756902 0.0032203195 0.003894495

conv2.weight f4 [32, 64, 3, 3]
00000000: aa83 28bd 80de 44bc 3473 fdbc 8db9 96bd
00000010: 9fd6 f4bb f9f5 b83e 9aee 163e 7b4e 61be
00000020: d272 863d 1bad cdbc 55db 8fbe 9c47 a9be
00000030: 9b52 ec3d 5735 72be 9b8e c0bd 1323 c33e
00000040: 8511 b73e 0c3c 163e 7c43 eebe 6b09 bbbd
00000050: b53a f5bc 21ed a6be 368f babd 8360 7c3e
00000060: b306 0a3e 2d00 da3e 4665 c43e b180 243e
00000070: 571b e1bd 676b 87bc ca53 903e e91d 32bc
00000080: 1cc0 8e3e 2aa6 34be 8d90 c13d 1582 6f3e
00000090: bc29 4fbe 2bdf aa3c c059 bfbe 2707 a5bd
000000a0: 771c ef3e faf0 39be bff5 eb3e b353 ec3e
000000b0: 21ef 9abe 7593 12be 91bf b13e 833b 9e3c
000000c0: cca2 06be e208 87be 716a 833d 0870 613d
000000d0: 242c 2e3c 4a64 5c3e 68a0 31bc 55fb 643e
000000e0: fd76 153e b0cc 68bd a7b5 03be abe0 d33e
000000f0: fe05 0e3e edee 523d b3bd a73b 329b 83be
00000100: 0674 36be b052 e5bc e5bf c1bc 6b3e fcbe
00000110: 8aa7 813e c5b4 833e 24f5 163e 6d16 f3bd
00000120: bc14 7fbe 028f b33d bf03 0d3e 561c 61be
00000130: 67b8 0c3e f3e6 bc3e b302 e53e fb90 e6bd
00000140: 2d3f 0cbf ba26 5cbe 7e14 a33d 9a95 e43e
00000150: c06a 48bd f78c 823e 1d8a 183e 86f9 153d
00000160: fea7 17bf c75b 0bbf 2532 1fbe 2f43 103d
00000170: b0f4 4ebe 44e9 9d3d bce3 9bbc c858 56be
00000180: c1fe d03e b1ed 303e 3091 923e 987d a33c
00000190: 2ea7 8a3e cb38 8dbc cdad 98bd 3340 8bbb
000001a0: 7ec1 71bd 3ce3 f03c 0fb9 863d c8a2 aa3e
000001b0: 1db9 fc3d e4f2 7f3e 1864 3fbe 4784 ccbc
000001c0: cc47 b73e df9e 80be 2e2d 1ebe 3fa1 61bf
000001d0: 9d66 b0bd 6fa1 58be 4a64 b5bd 60ef ad3e
000001e0: aea0 3bbd efcd bd3e b047 e33d 07a1 cd3d
000001f0: 54b1 3d3e 3043 09bd 5db1 89bc 82f8 033e
00000200: cc06 9c3c e901 65be 22bd 263e ebdd 6b3e
00000210: a2fc 67bc 3e1c 073e 7d02 7d3e 72bb 5d3c
00000220: 3792 753d 5571 83be ddbc 273e 8de0 e8bd
00000230: d5fb af3e b83c a63e 6888 a83e f5d0 aa3e
00000240: 2eb0 613d 9a7b efbd c15e dd3d 950f 85be
00000250: 69d3 ce3e b5e5 d83e d758 babe 1c03 523e
00000260: 44d7 593c fb4a bf3e 7fa7 333d 0b4c b73e
00000270: 47cf ab3d 03f2 1fbe d312 45bd 1a81 3f3d
00000280: 69de 1c3e 9054 c8be b311 d43d faed fb3d
00000290: 9a50 e63e df4f 63be be57 63bc 89da bb3e
000002a0: 9864 f4be 1ddd e83a dc11 363c 74f3 a8bd
000002b0: 914f 6d3c f794 d9bb 4163 bc3e 00ee 2bbd
000002c0: 8040 52ba 9831 b43e b4a2 59bd f606 f53d
000002d0: 5ebd c9bd e87f a73e 2550 88be 7f3b 86be
000002e0: fc47 263e e34b 4d3e ae0a d03c da22 4f3e
000002f0: 4a8e b03e f9cb 3dbd a9ba 6ebe 96d4 cb3e
00000300: 01f5 42bc fae6 d13e ef4d debd 927d 0f3e
00000310: d222 a33d 25ef b2bd 3abb 0dbf f0eb fa3e
00000320: a4a3 563e 8743 d7be 8ba0 1c3e 4a98 cbbb
00000330: 9c53 a5be b05d f0be 1bb1 ca3d c6d6 03bf
00000340: cf4a 9fbe 3bfe ffbe 1546 873d 298e 38be
00000350: 053a 60be c67c ad3e 2cf1 3b3e c864 7f3e
00000360: 1c57 573e d809 2c3d 076a 18bd 3d70 bf3e
00000370: 0076 f9bc 8a1c 8a3c 762d 8bbd 003f 7abd
00000380: 41e4 3b3d dc4e b5bd 2f8f 953e 2f6e a33d
00000390: 3086 723e 0040 833d 41a1 f43d 9a0b 8e3e
000003a0: 5acf 333d 53c5 edbd 53f7 d03e 83b5 f6bc
000003b0: 8170 553e 7d71 d33e fc7f c0bc 3d13 b33d
000003c0: fb5e a13e c61d e8bc ebf1 2dba ea45 383f
000003d0: 07ac c33c e7f3 84be 438a 75be aa04 713e
000003e0: 5bc0 6f3e 39ca 25be e5c0 9b3e 1205 e9bb
000003f0: dd41 0bbe 967d 18be ec60 a63d d0f1 f6bc
-0.04114119 -0.012015939 -0.030938722 -0.0735961 -0.007471874 0.36125162 0.14739457 -0.22002594
0.06564869 -0.025106957 -0.28097025 -0.33062446 0.11539193 -0.2365316 -0.094022 0.38112697
0.35755554 0.14671344 -0.46535861 -0.09132656 -0.02993522 -0.3260279 -0.091093466 0.24646191
0.13479118 0.4257826 0.38358516 0.16064717 -0.10991543 -0.016530706 0.28188926 -0.010871389
0.27880943 -0.17641512 0.09451399 0.23389466 -0.20230764 0.020858368 -0.3737316 -0.08058005
0.46701404 -0.18158332 0.46085927 0.46157607 -0.30260566 -0.14314063 0.34716466 0.019315487
-0.1314804 -0.26373965 0.064167865 0.055038482 0.010630641 0.21522632 -0.0108414665 0.223615
0.14596172 -0.05683583 -0.12862264 0.41382346 0.13869473 0.05149739 0.0051190495 -0.25704342
-0.17817697 -0.02799353 -0.023651073 -0.4926637 0.25323135 0.25723854 0.14741951 -0.11869512
-0.24910253 0.08767511 0.1377096 -0.21983466 0.13742219 0.3689495 0.44728622 -0.112581216
-0.547839 -0.21499148 0.07962893 0.44645387 -0.04892993 0.25498173 0.14896436 0.036614917
-0.5924071 -0.54436916 -0.15546472 0.03522032 -0.20210528 0.077105075 -0.01902949 -0.20932305
0.40819362 0.17278172 0.28626394 0.019957349 0.27080673 -0.017238995 -0.07455025 -0.0042495965
-0.05902242 0.029405229 0.06578266 0.33327317 0.12339995 0.24994999 -0.18690526 -0.024965419
0.35796964 -0.2512121 -0.15446922 -0.88136667 -0.08613322 -0.21155332 -0.08857019 0.3397169
-0.045807533 0.37071177 0.11097658 0.10040479 0.18524677 -0.03351134 -0.016808206 0.12887767
0.01904621 -0.2236401 0.16283086 0.23033874 -0.014159353 0.13194367 0.2470798 0.01353346
0.059953894 -0.25672403 0.1638064 -0.11370955 0.3437182 0.324682 0.3291657 0.33362547
0.05509966 -0.11693497 0.108090885 -0.2598845 0.40395668 0.42362753 -0.36395904 0.20508999
0.013295952 0.37361893 0.04386091 0.35800204 0.083891444 -0.15619664 -0.048113655 0.04675398
0.15319218 -0.39127016 0.10354938 0.1230125 0.4498337 -0.22198437 -0.0138759 0.36690167
-0.47732997 0.0017766092 0.011112656 -0.0824956 0.014484302 -0.0066400724 0.36794475 -0.04197502
-0.00080204755 0.35194087 -0.05313368 0.11964218 -0.09850572 0.32714772 -0.26623645 -0.26217267
0.16238397 0.2004848 0.025395717 0.20228139 0.34483558 -0.0463371 -0.23313393 0.39810628
-0.011899234 0.40996534 -0.108547084 0.14012745 0.07965626 -0.087370194 -0.5536381 0.4900813
0.20960861 -0.42043707 0.15295617 -0.0062132226 -0.3229035 -0.46946478 0.098970614 -0.51499593
-0.31111762 -0.4999865 0.06605164 -0.1802298 -0.21897133 0.33884257 0.18353719 0.24940789
0.21029323 0.042001575 -0.03721049 0.3739032 -0.030451775 0.016859312 -0.0679578 -0.061095238
0.045871977 -0.08852932 0.29210803 0.0798 0.23684001 0.064086914 0.11944819 0.27743226
0.043898918 -0.11609902 0.40813693 -0.030115848 0.20843698 0.41297522 -0.023498528 0.08743904
0.31517777 -0.02833451 -0.0006635475 0.7198168 0.02388574 -0.25967333 -0.23978524 0.23536935
0.23413222 -0.16190423 0.30420604 -0.0071112 -0.13599344 -0.14891657 0.08123955 -0.030144602

conv2.bias f4 [32]
00000000: 60f3 863c 854d 01bd 90ce e23b 0c28 8abb
00000010: c11c f2bc ebc3 31bc a520 b53c e74b 21bd
00000020: 6223 973c 2e93 3abd bfdd d83c 800f bcbc
00000030: 8e46 b5bc a3bc 6cbd 606a 143d 92da 0c3d
00000040: 5a33 be3c c402 053d 2c18 603c cb74 57bd
00000050: 6a1d 0c3d 2b82 06bd c004 973d c126 9a3c
00000060: a1dc ee3c c8b5 293c 375b cabc 918a b73c
00000070: 1694 a1bc deeb e8bc 872d 35bd f779 f6bc
0.016473472 -0.03156807 0.006921597 -0.0042161997 -0.029554727 -0.010849933 0.022110293 -0.039379027
0.018449489 -0.045550518 0.026472924 -0.02295661 -0.02212837 -0.057797085 0.03623426 0.034388132
0.023217846 0.03247334 0.013677638 -0.052601617 0.03420774 -0.03283898 0.07373953 0.018817307
0.029157938 0.010358281 -0.024701698 0.02240494 -0.019723933 -0.028432783 -0.04423287 -0.030087454

exp_avg f4 [64, 32, 3, 3]
00000000: 5e83 4cba 8c0d b03a 7732 45b9 31a3 4fbb
00000010: 8b4c 49ba 59c8 07bb e8af 0bbb 1345 a8ba
00000020: 298e 33bb 6851 f9b9 3f5a 3ab9 2e51 04ba
00000030: 2c08 85ba f3fb 4cba 74c7 90ba 2640 02ba
00000040: 445b a0b9 7207 0eba e12e a53b df51 423c
00000050: c9fe c33b 9822 93b9 5771 cb3b 0d4d ba3a
00000060: c706 c8bb 6b38 69bb c9bf 07bc e727 313b
00000070: 90c6 e23b e273 6c3b 74d2 7cba 8296 5a3b
00000080: 29eb 163a 68b1 80bb 5789 0ebb 49ad a8bb
00000090: 06e0 9f3b aace 6b3c cfb5 b13b 4f09 62bb
000000a0: 957b b43b 5d6d f3ba bf56 17bc 4c86 c5bb
000000b0: 77a2 53bc 7a8b 5131 4dc2 e1b0 007e 3ab2
000000c0: 1a1b b534 0f76 f1b3 52b2 d2b3 0a7f 7c33
000000d0: 1d47 8031 d8d2 2d34 9731 06b9 20c0 a0b6
000000e0: 287e b1b6 0caa 1db9 3845 d2b8 af24 a7b7
000000f0: 3621 ac37 d2e6 4fb8 4f72 0eb9 b7fb 213b
00000100: e8a9 ad3b 81b0 f73a d44f 673a eee4 403b
00000110: 83c7 b339 9bae feba 37c6 c4ba b2b7 71bb
00000120: 9d67 873a 6be1 6e3b f901 f63a a2ba 0bbb
00000130: 1d54 093a e67f 95ba c407 65bb 2135 10bb
00000140: 4e48 73bb ede5 ef95 a75c 2596 6bdf f715
00000150: a9f3 3895 23ea 2694 189c 6395 2ac3 ca95
00000160: ebac 7398 6543 1316 91ae e3b5 2cc0 8c35
00000170: 1f44 1936 02ff e1b5 6606 fc35 599e 71b5
00000180: 82c5 5cb6 80be 5636 4a04 74b6 d662 14ba
00000190: 6678 be37 a84d 6439 180b d9ba a034 90ba
000001a0: e5df 86ba 175e a3ba ca59 8bba 3f20 8dba
000001b0: 0000 0000 0000 0000 0000 0000 0000 0000
000001c0: 0000 0000 0000 0000 0000 0000 0000 0000
000001d0: 0000 0000 41e6 6b3b a497 283c e440 6f3b
000001e0: 30ba 16bb 55fd 803b ea75 bcba cea5 c4bb
000001f0: 4faf 84bb 47ec 17bc 9411 633a f5ac 5e3b
00000200: b896 a43a 41b1 36b9 e38c 003b a1a2 6039
00000210: 34ce bcba f650 7bba 5a7a 29bb 1972 cc39
00000220: 3dba cc39 c447 a739 e1ee ffb9 5b1f beb9
00000230: 4dc8 55b9 ba58 0bba 2a8d 15ba e44f e0b9
00000240: 2bc6 aab7 1dfb 2cb7 d9ff bab8 08ba 39b9
00000250: c7b9 d1b7 5608 7936 4a7b e9b8 7d7c 87b8
00000260: 12b5 ddb7 6b87 6b3b 665e 473c 05a4 9d3b
00000270: d747 92bb e931 8e3b 5614 fbba ba83 19bc
00000280: 5918 b7bb 64ff 43bc efa0 15ba 6526 843a
00000290: 9c20 0cb8 3e2f 9dba 2153 88b9 5691 a6ba
000002a0: c84c 4eba f122 27ba ed63 caba 4b5e 9f3a
000002b0: 97bb 3e3b 4b75 9d3a 3d8e 0b39 0e53 e03a
000002c0: 19fb c639 bde0 97ba 879c 44ba fae6 15bb
000002d0: d502 70ba e2ca 043b e862 783a 8ac0 6dbb
000002e0: bc96 dfb9 c8b9 f5ba a92f 4fbb 1111 cfba
000002f0: 3979 64bb 0000 0000 0000 0000 0000 0000
00000300: 0000 0000 0000 0000 0000 0000 0000 0000
00000310: 0000 0000 0000 0000 04d6 1134 8e0f 5234
00000320: 6d24 8636 d73d 57b6 842a d3b6 9a36 b2b6
00000330: 87ac 3636 c0bf e235 545f e835 50d1 a48d
00000340: ad94 968b e66d 9d0d b160 5c12 f703 3d12
00000350: e206 0314 2612 8312 5e2a 6512 0e5c 2b12
00000360: d4bd c53a 9ab8 163b fbba 693a 1cbc 13ba
00000370: ae19 df39 0d2b 30ba 9c22 eaba 3d89 aaba
00000380: 48ba 0dbb 6883 6b3b c1c4 0e3c 43b1 4c3b
00000390: 0164 f1b9 2854 853b e37b 48b9 38ce 8bbb
000003a0: 067c 48bb e31c dfbb 1117 363b 8d87 083c
000003b0: 95ce 523b 01e5 65bb 7936 0f3b e829 00bb
000003c0: fe34 dfbb a0de 95bb bd61 08bc 6fe0 3538
000003d0: c738 8db7 ecdb 16b8 a079 7a37 012c 05b7
000003e0: 8b27 a937 a816 b9b7 81d5 a5b8 128d 4237
000003f0: 6aa9 4ab3 9126 8bb3 460e 1fb3 08e7 5732
-0.00078015577 0.0013431772 -0.00018806184 -0.0031682963 -0.00076789473 -0.0020718782 -0.0021314565 -0.0012837969
-0.0027397966 -0.00047553633 -0.00017771962 -0.0005047497 -0.001014953 -0.0007819526 -0.001104577 -0.00049686653
-0.00030585576 -0.00054179796 0.005040989 0.01186034 0.0059813005 -0.000280638 0.0062085795 0.0014213637
-0.0061043235 -0.0035586606 -0.008285471 0.002703184 0.006920643 0.0036079814 -0.0009644397 0.003335387
0.00057570875 -0.0039273985 -0.0021749341 -0.0051476103 0.0048790006 0.014392534 0.0054232846 -0.0034490412
0.005507896 -0.0018572022 -0.0092369905 -0.0060279723 -0.012917153 3.0492786e-09 -1.6426128e-09 -1.0855274e-08
3.3733596e-07 -1.1243912e-07 -9.811323e-08 5.8788864e-08 3.733375e-09 1.6188585e-07 -0.0001279771 -4.790738e-06
-5.2896976e-06 -0.00015036034 -0.00010026473 -1.9925033e-05 2.0519463e-05 -4.9567614e-05 -0.00013584759 0.0024716684
0.0052997954 0.0018897207 0.0008823846 0.0029433328 0.00034290188 -0.0019430699 -0.0015012686 -0.0036883173
0.0010330562 0.0036450278 0.0018768898 -0.0021320959 0.0005238669 -0.0011405915 -0.0034947256 -0.0022004324
-0.0037121954 -9.689409e-26 -1.335783e-25 1.00115e-25 -3.7350718e-26 -8.4270336e-27 -4.596542e-26 -8.1895065e-26
-3.1494315e-24 1.1895831e-25 -1.6963623e-06 1.0486742e-06 2.2838428e-06 -1.6838023e-06 1.8777325e-06 -9.000992e-07
-3.289752e-06 3.199937e-06 -3.636133e-06 -0.00056604797 2.270583e-05 0.00021772704 -0.0016559092 -0.0011002012
-0.0010290114 -0.0012463954 -0.0010631618 -0.0010767056 0.0 0.0 0.0 0.0
0.0 0.0 0.0 0.0 0.0 0.0035995396 0.01029006 0.0036507184
-0.002299916 0.0039364495 -0.0014378403 -0.006001211 -0.0040492187 -0.0092726415 0.0008661982 0.0033977602
0.0012557125 -0.00017422905 0.0019615225 0.00021422889 -0.0014404715 -0.0009586954 -0.002586028 0.00038994921
0.0003904867 0.00031906192 -0.0004881537 -0.00036262986 -0.00020387881 -0.00053156505 -0.0005704934 -0.00042784133
-2.0357858e-05 -1.0310466e-05 -8.9168265e-05 -0.00017712277 -2.500125e-05 3.7108744e-06 -0.0001113327 -6.4604894e-05
-2.642957e-05 0.003593887 0.012168502 0.0048108124 -0.0044641304 0.004339446 -0.0019155841 -0.009369785
-0.0055876193 -0.011962745 -0.000570788 0.0010082243 -3.340897e-05 -0.0011992229 -0.00026001877 -0.0012708108
-0.00078697177 -0.0006375751 -0.0015441157 0.0012158839 0.0029103511 0.0012013105 0.00013309061 0.0017114596
0.00037952585 -0.0011587363 -0.0007500131 -0.0022873268 -0.00091556954 0.002026253 0.00094751874 -0.0036278092
-0.0004264618 -0.0018747384 -0.00316141 -0.0015797933 -0.0034862293 0.0 0.0 0.0
0.0 0.0 0.0 0.0 0.0 0.0 1.3582036e-07 1.9563433e-07
3.9977517e-06 -3.2073492e-06 -6.2932395e-06 -5.31117e-06 2.7220538e-06 1.6894119e-06 1.7313091e-06 -1.01576705e-30
-5.80016e-32 9.702329e-31 6.953894e-28 5.964277e-28 6.615167e-27 8.271736e-28 7.231188e-28 5.407155e-28
0.001508648 0.0022998215 0.0008916107 -0.00056356355 0.00042553007 -0.0006720282 -0.0017863098 -0.0013010871
-0.0021625925 0.0035936479 0.008713902 0.0031233586 -0.0004604161 0.00406887 -0.00019119638 -0.0042665266
-0.0030591502 -0.0068088635 0.0027784745 0.008333099 0.003216659 -0.0035079124 0.0021852537 -0.0019556228
-0.006811737 -0.004573658 -0.008324084 4.3362783e-05 -1.6834949e-05 -3.5967605e-05 1.4929479e-05 -7.937663e-06
2.0164784e-05 -2.2064269e-05 -7.907581e-05 1.1596147e-05 -4.718587e-08 -6.479707e-08 -3.7033054e-08 1.25671775e-08

exp_avg_sq f4 [64, 32, 3, 3]
00000000: 7f2e 723d 43d6 5e3d f005 973d 2c00 633d
00000010: 26fb 183d 6e3d 583d ee32 763d 0070 403d
00000020: dffa 6c3d 8acb d13b d637 ec3b 3af5 f43b
00000030: 2517 0f3c ddf4 1f3c ae4f 023c 4e7e ec3b
00000040: dd34 d13b 00fe bd3b 02d6 4e3f 5235 173f
00000050: 3812 2c3f 7e7f 0b3f 99b9 143e db20 9e3e
00000060: 829a 2f3f 18b2 043f 4dfb 0b3f c09c c93e
00000070: fdd3 953e f326 a83e b1bb 8e3e 04ef bc3d
00000080: 37f0 283e ffe2 ab3e 7249 873e b6fd 8b3e
00000090: 397a ae3f 2077 723f 9c35 923f 5be5 513f
000000a0: 2714 1b3d edc0 bd3e 5591 913f f698 3a3f
000000b0: 6196 543f 2f78 cf33 2bcb 2f33 84ea 1633
000000c0: bb94 5b34 8d55 cf34 7d62 6234 e559 0e33
000000d0: 434d 5834 f4b0 d033 d2d1 9d3b 7654 b33b
000000e0: f9c3 d03b d935 863b 581b ef3b 580d 083c
000000f0: 3ac8 3c3b 9a1a d43b 140c d63b d1b5 083e
00000100: 8dcd c63d 4e98 e23d d184 b53d 03bc f33c
00000110: f624 723d 71c0 e33d 8992 a13d 3ded ab3d
00000120: 0d42 2d3e 3a90 093e e182 343e 7151 103e
00000130: 6804 3c3d b4f6 bd3d c12a 243e f5b2 e43d
00000140: 42a9 0e3e 64f2 5d31 4d33 dd31 a8da a42f
00000150: 61bc 3f31 8788 8031 0488 5a34 335d c231
00000160: 400c 6132 c3cc 0931 983e f938 6f3e ec38
00000170: 466e 2d39 eac6 2339 e5bb 7239 e50e a539
00000180: 93f5 0f39 3f37 5c39 9f0b b839 282d 873d
00000190: 6ff8 753d f010 9d3d 258d 8d3d 50fd 363d
000001a0: a128 683d 8947 743d 9d8a 493d 08d3 7a3d
000001b0: 0000 0000 0000 0000 0000 0000 0000 0000
000001c0: 0000 0000 0000 0000 0000 0000 0000 0000
000001d0: 0000 0000 3c0c 613f 0379 1b3f 9d9b 343f
000001e0: e9a3 0c3f 541d bc3d 997e 983e 4359 393f
000001f0: 74bd 003f 9fed 093f 986b 9c3d ebfd 823d
00000200: 174c 9a3d 32c1 523d 9ecd db3c 8663 263d
00000210: 442e 743d 3d56 5f3d 3265 663d 6c2a d93c
00000220: 2001 de3c a39b ec3c b7b6 013d 52fa b03c
00000230: e398 cc3c 67ee e93c 4f3a c83c f9ba d43c
00000240: 0558 093b d54f 1b3b 0d97 373b 8c3b 103b
00000250: be95 703b 7626 823b 5b28 ea3a 8c4a 403b
00000260: e899 633b 1b9c 863f c51a 3f3f c552 6b3f
00000270: 1ca8 243f e9d4 2c3d 1bf6 9f3e 2db0 693f
00000280: 7e16 193f 5215 313f c237 123d b862 083d
00000290: 4d3a 373d be20 f43c b584 a93c ce09 e13c
000002a0: 875c fb3c 712f e73c 6b52 023d 8ac2 ba3d
000002b0: 4eca 973d 663a a83d 6dc5 993d bfef 613d
000002c0: 8a33 953d ab0e a13d 3798 9a3d d475 9c3d
000002d0: d7ef 2b3e 4f62 103e 688a 423e b15a 0f3e
000002e0: 4e06 963d 9b33 e63d f0f7 1a3e 5b6f f83d
000002f0: 9e75 173e 0000 0000 0000 0000 0000 0000
00000300: 0000 0000 0000 0000 0000 0000 0000 0000
00000310: 0000 0000 0000 0000 a1cd 0138 625c 3a38
00000320: c431 c738 249e d137 5a0e 9538 7203 b338
00000330: e875 cf37 b947 4638 a080 6d38 e3f6 f622
00000340: 5dcc 4522 2083 7823 83c9 382f 38e3 072f
00000350: 08cf 8232 bcb8 822f 3dc5 472f 3353 df2e
00000360: 9eae 6a3d 2d9d 313d aec4 203d b651 3c3d
00000370: 1648 c73c 70d4 063d 0d51 563d 5295 1d3d
00000380: ce34 223d 6523 f13e 2441 aa3e 2093 be3e
00000390: 9258 9c3e 48b4 8a3d 0fe4 393e d44f c93e
000003a0: 9d9a 8a3e 3b9c 923e 2b7b 193f 428d d53e
000003b0: a99a fb3e abe1 c53e 0c6d e23c 01fd 313e
000003c0: e27c 053f 8d60 a73e a8cf c13e b29b 3d3b
000003d0: 1930 303b 2a36 3a3b 9d91 5d3b fa70 553b
000003e0: e527 613b bb86 463b e404 233b 0ca5 403b
000003f0: 050d a235 0bdf 7836 c274 2b35 1379 9435
0.059126373 0.054403555 0.07374179 0.055420086 0.03734889 0.05279296 0.060107164 0.04698181
0.057856437 0.0064024376 0.0072088046 0.0074755223 0.008733545 0.00976297 0.007953567 0.007217205
0.0063844756 0.0057981014 0.807953 0.59065735 0.672153 0.5449141 0.14523925 0.30884442
0.68595135 0.5183425 0.5468033 0.39377403 0.29263297 0.32842216 0.27877572 0.09225276
0.16497885 0.33571622 0.26423222 0.27342004 1.3631049 0.9471302 1.142261 0.81990594
0.037861016 0.37061253 1.1372477 0.7288965 0.8304196 9.66105e-08 4.0930143e-08 3.5137887e-08
2.0450072e-07 3.8619e-07 2.108372e-07 3.314371e-08 2.0144675e-07 9.7179424e-08 0.0048162723 0.005472715
0.006371018 0.0040957746 0.007296961 0.008303963 0.0028805868 0.0064728977 0.0065322015 0.13350607
0.097071745 0.11064206 0.08863223 0.029752737 0.05911728 0.1112069 0.078892775 0.08394859
0.16919728 0.13433924 0.17628051 0.14093567 0.04590264 0.092755705 0.16031934 0.11166946
0.13931754 3.2297516e-09 6.4377788e-09 2.998679e-10 2.790124e-09 3.7408117e-09 2.0352314e-07 5.6567386e-09
1.3099509e-08 2.0052517e-09 0.00011884904 0.00011264986 0.00016539646 0.00015618993 0.00023148915 0.0003148235
0.00013729026 0.00021001416 0.00035103873 0.0660041 0.060051378 0.07669246 0.06911687 0.04467517
0.05667937 0.059638534 0.049204458 0.06123641 0.0 0.0 0.0 0.0
0.0 0.0 0.0 0.0 0.0 0.87909293 0.60731524 0.7054995
0.5493761 0.091852814 0.29784086 0.7240183 0.5028908 0.53878206 0.076377094 0.06396087
0.07534044 0.051453777 0.026831444 0.040622257 0.059614435 0.054525603 0.05624885 0.026509486
0.027100146 0.028882807 0.03166839 0.021603737 0.024975246 0.028556062 0.024441866 0.025968062
0.0020957005 0.0023698707 0.0028013617 0.002200815 0.0036710347 0.00397187 0.001786481 0.0029341308
0.0034729186 1.051639 0.7465022 0.9192317 0.64319015 0.042195234 0.3124245 0.9128445
0.59799945 0.6917316 0.035697706 0.03329727 0.044733334 0.029800769 0.020693162 0.027470496
0.030683769 0.028220864 0.03181688 0.09119137 0.074116334 0.082142636 0.07508359 0.05516028
0.07285221 0.07864126 0.07548564 0.076396614 0.1679071 0.14100002 0.1899811 0.1399944
0.07325421 0.11240312 0.15133643 0.12130614 0.14790961 0.0 0.0 0.0
0.0 0.0 0.0 0.0 0.0 0.0 3.0947504e-05 4.4431894e-05
9.498329e-05 2.4988381e-05 7.107547e-05 8.536027e-05 2.4731227e-05 4.7273676e-05 5.6624995e-05 6.6939835e-18
2.6806668e-18 1.3471874e-17 1.6806294e-10 1.2358903e-10 1.5228139e-08 2.3778124e-10 1.8169018e-10 1.0155645e-10
0.057295434 0.043362785 0.03925007 0.045976363 0.024326365 0.03291744 0.05232339 0.03847248
0.03960114 0.47097316 0.33252823 0.37221622 0.30536324 0.06772667 0.18153404 0.39318717
0.27071086 0.2863482 0.59953564 0.41709334 0.49141434 0.38648733 0.027639888 0.1738167
0.5214368 0.3269085 0.37853742 0.0028931913 0.0026884137 0.0028413632 0.0033808716 0.003256856
0.0034356054 0.0030292708 0.0024874741 0.002939525 1.207373e-06 3.7084708e-06 6.387237e-07 1.1062097e-06

exp_avg f4 [64]
00000000: e7fa f230 40d3 c630 f42c 6eb0 8061 b1b1
00000010: 0820 77b0 af7f a1af 1cbf 6b30 2fda 0fb0
00000020: e9cd d92f c5a8 af2f 21d0 d6af df7a 40b1
00000030: e4b9 c030 3dab 4d31 3e2a 1631 4e68 79af
00000040: 1120 38b0 8100 142f fb83 afac 0ad3 9ab1
00000050: 411c 37b1 5c62 d9b0 7596 3930 2bb7 2eb1
00000060: 77f8 19b0 d116 6430 c06c 2d30 41ce 98af
00000070: e3e7 f630 53bf 17b0 abe6 d82f cb36 ca2e
00000080: 8a44 1fb1 b1b1 8d2e d2b6 2131 872b cab0
00000090: d12a 6caf b0ac 8330 1f84 78b0 acc4 b2b0
000000a0: 611e 062f dcc1 ce2d 0438 1431 60b4 b5b0
000000b0: b6a6 9f31 baf2 ee2f 13fc 07b1 dc84 4ab0
000000c0: 03dc d32f d37f a130 526c a530 dbac f0af
000000d0: 1272 e0b0 4b01 6cb0 a435 c52f aaf3 7930
000000e0: 07f6 71af b344 42b0 4537 6fb1 e633 f0b0
000000f0: 93b1 0b31 d037 04b1 68f3 d3b0 9957 0b2f
1.7679128e-09 1.4466437e-09 -8.664778e-10 -5.1624625e-09 -8.9903596e-10 -2.9376454e-10 8.5764085e-10 -5.2333154e-10
3.9618378e-10 3.1952233e-10 -3.9074258e-10 -2.8009521e-09 1.4022672e-09 2.9928764e-09 2.1851885e-09 -2.2683475e-10
-6.698438e-10 1.34607e-10 -4.988452e-12 -4.5059823e-09 -2.6646065e-09 -1.5816783e-09 6.751642e-10 -2.5424451e-09
-5.6014166e-10 8.297834e-10 6.3091576e-10 -2.779519e-10 1.7964762e-09 -5.520537e-10 3.945407e-10 9.19563e-11
-2.3176505e-09 6.443502e-11 2.3532505e-09 -1.4709806e-09 -2.1479286e-10 9.580585e-10 -9.040963e-10 -1.3007102e-09
1.2198022e-10 2.350558e-11 2.1568676e-09 -1.3220749e-09 4.646462e-09 4.3464415e-10 -1.9788373e-09 -7.3675976e-10
3.8537004e-10 1.1750622e-09 1.2036117e-09 -4.3778567e-10 -1.6330566e-09 -8.585814e-10 3.5872205e-10 9.093194e-10
-2.2006229e-10 -7.0674416e-10 -3.4810494e-09 -1.7477049e-09 2.0328101e-09 -1.9240254e-09 -1.5421451e-09 1.2673097e-10

exp_avg_sq f4 [64]
00000000: 3208 0c2a 4066 4b29 4de6 9329 50db 802a
00000010: b093 3e2a 4578 7429 ab1f 592a e0bd 5d29
00000020: 7b15 8b29 8bd9 1f2a f039 af29 b6da ac29
00000030: 4a2d 852a ee62 8929 68ae 002a 24d3 a829
00000040: 1999 172a 3a54 c629 9412 8429 5789 2b2a
00000050: 1a5c d029 48f9 d329 c6cf 0d2a 540f 9129
00000060: aa08 2c2a 0a87 162a fa73 5a29 f5f1 d729
00000070: 6630 6e29 4910 4a29 7515 8c29 07ad 5e29
00000080: 5a2f d529 79e9 1429 97b1 7d29 dfab be29
00000090: c162 9229 04e6 222a fffd c029 3298 e529
000000a0: c76d 8e29 2d0f 1729 d823 f329 d28d b529
000000b0: 16e3 3a2a a874 352a d4e2 2c2a 8c8d ba29
000000c0: 8087 3c29 a3a5 af29 5ca4 002a fa10 022a
000000d0: 95e3 102a 7ef8 ff29 d74e 442a 3725 222a
000000e0: 56a7 6b29 6bea bd29 d07a f729 ed27 6b29
000000f0: fa36 2a2a 7035 8b29 aa25 8029 35a5 d029
1.2437341e-13 4.5163743e-14 6.568062e-14 2.2889546e-13 1.692663e-13 5.42832e-14 1.9284459e-13 4.9236548e-14
6.176566e-14 1.4197512e-13 7.781612e-14 7.676275e-14 2.3656972e-13 6.101184e-14 1.1429193e-13 7.497326e-14
1.346461e-13 8.807577e-14 5.8652004e-14 1.52355e-13 9.2530326e-14 9.413526e-14 1.2595402e-13 6.4419525e-14
1.5279675e-13 1.3369527e-13 4.8506318e-14 9.589891e-14 5.2888595e-14 4.4867135e-14 6.220971e-14 4.944398e-14
9.4673144e-14 3.3065107e-14 5.633132e-14 8.46751e-14 6.5008335e-14 1.4468293e-13 8.570574e-14 1.01960446e-13
6.32511e-14 3.3541898e-14 1.0797586e-13 8.0626166e-14 1.6598905e-13 1.6116503e-13 1.5355366e-13 8.284614e-14
4.1861913e-14 7.8002946e-14 1.1425707e-13 1.155221e-13 1.2868728e-13 1.13673814e-13 1.743565e-13 1.4401402e-13
5.2325623e-14 8.433951e-14 1.0990308e-13 5.2215112e-14 1.5118107e-13 6.18211e-14 5.6908756e-14 9.2657144e-14

exp_avg f4 [64]
00000000: 8587 1539 ca3a 88b8 71f0 e739 9f7b 2eb9
00000010: 2498 17b9 6a22 e138 d8cc 06b9 b842 b138
00000020: 79bf 1e3a eb6f 1139 74e9 a0b8 c3bb 13b9
00000030: c71a 4b39 e3fe cb39 2e86 a7b8 a10b 2eb9
00000040: cd8c bd39 b4c7 b139 a1c5 1ab9 80c3 7bb7
00000050: 9992 38b9 bb4a 9ab6 c90f 5a39 6ac6 9eb9
00000060: 0a87 c4b8 7034 a439 1219 cbb8 c94d 67b7
00000070: 8317 6439 db8a 6cb8 070d e338 50e9 c938
00000080: 2f9e 1bb9 864f 8bb9 fd9a 46b9 6240 d6b9
00000090: 41c0 b337 e93f ed38 8aef 37b9 246c ac39
000000a0: 7a3e 83b9 c15f a539 1735 6539 363d e7b8
000000b0: 78b4 3eb8 e08e 1d3a f5dc 3839 ece4 ce38
000000c0: ea9c 7a37 b313 c938 5513 0f38 9015 8639
000000d0: 3fc6 b9b8 9c7c 9638 d8a7 3b39 a1e5 bd39
000000e0: 5881 2b38 bf0c 0fb9 7196 86b7 373f afb9
000000f0: 451b 6e39 e8b7 05ba b7c6 d5b9 420b 30b9
0.00014260232 -6.495936e-05 0.00044238896 -0.00016639986 -0.00014457159 0.00010735246 -0.00012855546 8.452445e-05
0.00060557533 0.0001386997 -7.6728786e-05 -0.00014088959 0.00019369564 0.00038909083 -7.9881735e-05 -0.00016598265
0.00036153794 0.0003390886 -0.00014760207 -1.5006284e-05 -0.0001760222 -4.5982574e-06 0.0002079598 -0.00030283938
-9.371161e-05 0.00031319587 -9.684464e-05 -1.3786784e-05 0.00021752533 -5.6396104e-05 0.0001082663 9.627885e-05
-0.0001484088 -0.00026571396 -0.00018940489 -0.0004086523 2.1427988e-05 0.00011312945 -0.00017541475 0.00032886968
-0.00025032816 0.00031542595 0.0002185892 -0.0001102634 -4.5467605e-05 0.0006010365 0.0001762992 9.8654855e-05
1.4937696e-05 9.588096e-05 3.411186e-05 0.00025574537 -8.858414e-05 7.175768e-05 0.00017896236 0.00036219976
4.0890038e-05 -0.00013642291 -1.60441e-05 -0.000334257 0.00022707607 -0.00051009515 -0.0004077458 -0.00016788862

exp_avg_sq f4 [64]
00000000: 909b 0f3b d047 973b 6761 a93b 684c 7d3b
00000010: 436f 563b 55b7 5a3b 19f8 483b 43a5 333c
00000020: 0230 803b b78e 203b 1afd 333b 1b9a 083b
00000030: 97f9 423b d606 a03b 5740 383b 5434 283b
00000040: bb31 5e3b 1466 053b 3488 533b 891b 083b
00000050: 90ea 3e3b c13c bd3a 1873 8a3b e210 293b
00000060: 37dd ba3b 9eeb 2f3b 7964 f13b 6386 693b
00000070: e443 3d3b fcf9 5d3b 8c75 213b d023 f53a
00000080: 79d4 e63a a001 923b ee41 8d3b 4109 993b
00000090: be5a 733b 8055 123b e906 363b 9122 b53b
000000a0: 2618 493b f698 133b 3599 703b 0857 8d3b
000000b0: 9757 253b d491 443b d4dc 4a3b d292 093b
000000c0: c4f2 a23b 29cb 503b 768f 8e3b 42a5 383b
000000d0: af0a 4e3b 73f6 2d3b 2ed4 813b bb7b 023b
000000e0: 6179 e63a 5923 0e3b 59cc 243b f4e8 043c
000000f0: c1f3 e03b c9da 323b 3166 4e3b 00cb 843b
0.002191279 0.004616715 0.005169082 0.0038650278 0.0032720126 0.0033373435 0.0030665456 0.010964694
0.003911973 0.0024499127 0.0027464093 0.0020843807 0.0029750818 0.0048836274 0.0028114521 0.0025665956
0.0033904153 0.0020355033 0.0032277228 0.0020768365 0.002913151 0.0014437662 0.004225146 0.0025797416
0.0057026404 0.002684332 0.0073667136 0.003563308 0.0028879577 0.0033870926 0.0024636714 0.001870269
0.0017610929 0.00445576 0.004310838 0.0046702926 0.0037132944 0.0022328794 0.0027775115 0.0055278023
0.003068456 0.0022521592 0.0036712412 0.0043133534 0.002522921 0.0029994147 0.0030954378 0.0020992053
0.0049727876 0.0031859374 0.004350598 0.0028174673 0.0031439473 0.00265446 0.0039620614 0.0019910175
0.0017583781 0.002168855 0.0025146215 0.008112181 0.006864995 0.002729105 0.0031494016 0.00405252

exp_avg f4 [64]
00000000: 9086 083a c193 05b9 e1e3 f139 090f bab9
00000010: 94bd 8f39 b167 0b38 f54e 56b9 53e9 82b6
00000020: 26dd fc39 068b 61b8 7ec6 03b9 48e4 a2b7
00000030: 20cc 9739 eff8 1d3a 047d bc39 29c9 4fb8
00000040: 7d0b c8b8 c761 b537 1af6 8437 69e2 2bb9
00000050: 9473 abb8 fa99 9438 2773 3639 83de 41ba
00000060: ade7 91b9 e6a9 1f39 f343 37b9 ebff 6539
00000070: a872 9439 2097 13b9 e434 0339 4d3e 0b39
00000080: fce0 5bb8 e522 22ba 1d76 82b9 0916 3dba
00000090: 8326 e537 110d fd37 1f96 95b9 0d0c 8739
000000a0: 7972 d5b9 2733 af39 bd2b bbb8 f11d 49ba
000000b0: c36a abb8 e8e2 4b3a ab33 1839 a919 e737
000000c0: 235f 5fb7 13d7 3ab9 6326 8639 d54d 9c39
000000d0: 9fd0 98b8 5d7e ad38 ae56 6bb8 e385 6239
000000e0: 66d5 1cb7 5ff4 15b9 4610 bb38 ce2a d9b8
000000f0: 6b29 ed39 cd98 0cba bd06 0eba 7fd5 51b9
0.00052080397 -0.00012738911 0.00046136885 -0.00035487887 0.00027416332 3.3236753e-05 -0.00020438044 -3.9014644e-06
0.00048229954 -5.3773656e-05 -0.00012567078 -1.9418207e-05 0.0002895305 0.00060261687 0.00035951298 -4.953999e-05
-9.538883e-05 2.1622413e-05 1.5850226e-05 -0.00016392175 -8.1754435e-05 7.08587e-05 0.0001739977 -0.00073955226
-0.00027829167 0.00015226714 -0.00017477553 0.00021934479 0.00028314185 -0.00014075311 0.00012512837 0.00013279282
-5.2423202e-05 -0.0006185009 -0.00024883533 -0.00072130613 2.731686e-05 3.0166035e-05 -0.00028531344 0.00025758185
-0.00040711815 0.00033416713 -8.925002e-05 -0.0007672003 -8.173801e-05 0.0007777647 0.00014515097 2.7549295e-05
-1.33139865e-05 -0.00017818464 0.00025587072 0.00029812628 -7.2867835e-05 8.27282e-05 -5.6109093e-05 0.00021602916
-9.34801e-06 -0.00014300783 8.919886e-05 -0.00010355339 0.0004523502 -0.0005363345 -0.0005417874 -0.00020011327

exp_avg_sq f4 [64]
00000000: 32d6 1c3b f769 863b b10a c93b a040 fd3b
00000010: 070e be3b 8936 653b 3a9c d43b c725 1c3c
00000020: 92d0 a43b 6669 3a3b 22e1 5c3b f1cf 773b
00000030: 112f 6f3b 7340 883b 7776 7a3b e39e af3b
00000040: a67d a23b 5544 2e3b 66e3 773b e5db 3c3b
00000050: 823e 683b 995c 053b 6a44 6f3b abf5 843b
00000060: 3dd2 463c 89e7 483b 136f 123c d739 8f3b
00000070: b02d 813b 1ed3 873b 9461 593b c36a 483b
00000080: c84a 303b 25fe f63b ea17 bb3b d160 e23b
00000090: 54ab 943b f559 143b 0fa0 953b d26b 033c
000000a0: 5770 503b 6e38 423b 0c18 043c 330e db3b
000000b0: c326 333b cde4 ae3b 4207 9d3b d199 363b
000000c0: 754b f13b f852 9a3b dd6c a53b 08f9 883b
000000d0: be0a 933b f367 403b 5452 ec3b 866e 213b
000000e0: e1fc 013b 4b2a 453b 39dd 273b d5ec 3d3c
000000f0: 0c4d 2f3c 209b 763b 23c4 863b ea0e a53b
0.0023931381 0.0041019875 0.0061353077 0.007728651 0.005800012 0.0034975132 0.00648835 0.009530491
0.0050297463 0.002844417 0.0033703526 0.0037813152 0.003649656 0.0041580736 0.0038217583 0.005359517
0.004958826 0.0026591022 0.003782475 0.002881759 0.0035437648 0.0020349382 0.0036509284 0.004057606
0.012135086 0.0030655584 0.008937615 0.0043709087 0.003942214 0.00414504 0.0033169733 0.0030581213
0.0026900042 0.0075376206 0.005709638 0.006908514 0.0045370255 0.0022636626 0.0045661996 0.008021312
0.003180524 0.0029635685 0.008062374 0.0066850423 0.0027336336 0.005337334 0.004792125 0.0027862678
0.0073637315 0.0047095977 0.005048378 0.0041800775 0.0044873646 0.0029358834 0.0072119627 0.0024632527
0.0019834565 0.0030085023 0.0025614037 0.01159211 0.010699522 0.0037629083 0.004112737 0.0050371783
