checkpoint_decoder/check_point_2021_10_09_23:16:26/check_point_2021_10_09_23:16:26_epoch_10.pth (torch, 452917 bytes, 20 tensors)

conv1.weight f4 [64, 32, 3, 3]
00000000: 2ade 823d cd52 c43c b331 d8bc aec2 04bd
00000010: bc55 243d bf21 1ebd 085d 3cbc d296 d83c
00000020: e593 a93a 3d72 d43b 3e71 d1bc 0500 6dba
00000030: 79e3 2e3d d8fd c53a 34f8 3fbc 00d1 093a
00000040: 2c36 2abd 4df7 2d3d 29eb 563d a9d1 b03b
00000050: 5a8d bf3c 0313 cbbc 99b9 583d fe7a 15bc
00000060: 5496 18bc 2ca5 50bd 970c fdbb fc4d b0bb
00000070: 03a2 3f3c 450b 0cbd 7ff2 d83c ab41 103c
00000080: d023 a6bc 5fae 9e3c e4ff 6c3d f1e7 0cbd
00000090: 3a7f ef3c 4425 7cbc e55d 7fbc 42d9 23bd
000000a0: 1be7 19bc 400b 733c baf8 da3c 14e5 daba
000000b0: cbfc b8bc 0454 48bd 7fb2 24bc 1560 4fbd
000000c0: 6174 4fbc 85be bc3c a6d0 483d 54fa d3bc
000000d0: 1e5b 613d f499 193d fb53 58bc 168c 1bbd
000000e0: 42bc d9bc e354 6b3d dc7b 0a3d d7bc f53c
000000f0: 8064 c43c 83bf 0c3c 079a 7fbd 8d98 9a3c
00000100: 21b0 85b8 5e40 843b 776c a83c c287 5fbc
00000110: 5d95 7abd 17e0 b7bb 5c8a 6dbc 28a8 293d
00000120: 03f8 09bd 07ac 433c d71c e83c d25a d4ba
00000130: 162f 1cbd 9488 c0bc 2b1e 8a3c 7fe8 04bd
00000140: 1b81 f0bc 60d4 a0bc 5b85 483d 2431 e53c
00000150: ae54 d93c e23d 41bd f0bc 70bd 47f8 563d
00000160: 89e5 0e3d 7843 103d 525e 78bd 0901 d5bc
00000170: 3a6b 853d 4894 70ba 4e40 31bd cbba fdbc
00000180: 27af 173d 5bbb f43c e5d0 07bd b088 473b
00000190: 9d07 0e3d b2d7 6b3d f926 2abd bb48 72bb
000001a0: 38e0 e73a a07b 3ebc 65e9 ff3c 5c6b ca3c
000001b0: 7566 74bc 735c 903c a0c5 6bbd 9ff4 b7bc
000001c0: 3315 123d 66b6 2e3d a1c3 53bd d0c8 363d
000001d0: 34de 553d 8153 05bd e823 9a3a 7956 ddbc
000001e0: d623 dfbc e0d7 2b3c 3a23 d9bc 2683 02bd
000001f0: 30c8 ddbc 0c95 6d3d 7857 e2bc cc37 513d
00000200: 43ed 0ebd 08f4 873d 4909 0abd 94f9 17bd
00000210: 4ef3 99bc d63f 8d3d 1b4e 9ebb 4db5 15bd
00000220: 77ff e1bc f5e1 613d 3b19 2dbd f2e3 6cbd
00000230: 1d40 b6bc ecec cc3c 912b 45bd 2fff d3ba
00000240: 9e90 a6bc 0989 1f3d 88b0 183d ab9b 493c
00000250: 08a0 7b3d 46e6 783d 917d ad3c f3b8 c7bc
00000260: af35 00bc 975d 083b c1bd d43c eddc 1abd
00000270: f1eb 333d 5ae2 913d 0beb 183d 1b03 e9bb
00000280: bfae cf3b b1d1 6b3c 5988 143d b577 42bd
00000290: 5d5a 90bc aec3 fbbc c341 843d aac2 b0bd
000002a0: e245 41ba 8f87 793d b7e5 5abc 64f9 4dbd
000002b0: 13de 2539 b66e 083d a024 13bd cda0 09bd
000002c0: 6699 95bc e1be 123d b84d 00ba e074 0a3d
000002d0: 0650 573d a135 5dbc c8f8 b9bc 597a c339
000002e0: fbc8 633d 2669 293c 9dd8 41bb 5356 3a3d
000002f0: f032 f73c 0b55 12bd 0e63 e63c a7f4 473d
00000300: d2aa 4fbc dc91 e7bc 1f21 e73c 6826 053d
00000310: 3dcc 3a3d 7040 ee3c b6db 21bb 6769 12bd
00000320: ce6b 1b3d 4bcc 38bb a937 5ebd 0390 86bd
00000330: 038b 22bc 43a9 8cbc 93a9 4dbd 6f35 343d
00000340: 4677 6a3d 3f4a b23c 7656 13bc a36e 0aba
00000350: f2ba f83c f898 0d3c 5654 7fbd ede0 47bd
00000360: 0913 43bd d4af a7bd 5418 593c 194b 4d3d
00000370: 34b1 5dbd 4561 a43c 4048 823d a7c0 6dbd
00000380: 6945 413d d5ab e33b 6113 143c 5c5a 343d
00000390: a106 333b dd67 3abd 68cf 733d 4479 12bd
000003a0: 5e96 74bc 8f7e 62bd a48a 5bbd 5403 38bc
000003b0: 91bc 683d 0684 073d 91ac 393c 94ea 6a3d
000003c0: 8440 233d f961 823c 48cd 13bc 315a 153d
000003d0: 735c 18bd 7c7c e23c 128e 14bc ad81 b63c
000003e0: 0afa 8dbd 964d 4a3d b688 9b3b d884 bcbd
000003f0: e2f6 2bbc 7430 51bd aeaa 1a3b 98ac 2b3b
0.06390031 0.023965264 -0.026390886 -0.032412224 0.040120825 -0.0386064 -0.01149679 0.026439104
0.0012937753 0.006483345 -0.025566693 -0.00090408354 0.042697404 0.0015105559 -0.011716891 0.00052572787
-0.04155557 0.042472173 0.05247036 0.005396087 0.023382831 -0.024789339 0.052911375 -0.009123562
-0.009313185 -0.05093877 -0.007722448 -0.00538039 0.011696341 -0.034190435 0.026482819 0.008804719
-0.020280749 0.019370256 0.057861224 -0.034400884 0.029235471 -0.015389744 -0.015586351 -0.040002115
-0.009393479 0.014834225 0.02672993 -0.0016700351 -0.022581479 -0.04890825 -0.010052322 -0.05062874
-0.012662024 0.023040066 0.049027108 -0.025876202 0.055018537 0.037500337 -0.013203616 -0.037975393
-0.026579026 0.057454 0.033809528 0.029997272 0.023973703 0.008590582 -0.06240275 0.01887157
-6.374741e-05 0.0040359935 0.020559533 -0.013643207 -0.0611776 -0.0056114304 -0.0144983195 0.041420132
-0.033683788 0.01194287 0.028334064 -0.0016201383 -0.038130842 -0.023502626 0.016860088 -0.032448288
-0.029358437 -0.019632518 0.048955303 0.027977534 0.026529636 -0.047178157 -0.058773935 0.05248287
0.03488687 0.035220593 -0.060636826 -0.02600147 0.065145925 -0.0009177369 -0.043274216 -0.030972859
0.037032273 0.029874494 -0.0331582 0.0030446462 0.03467523 0.05757875 -0.041541073 -0.003696962
0.0017690724 -0.011626154 0.03123922 0.024709396 -0.014917006 0.017622208 -0.057561517 -0.022455512
0.03566475 0.042654417 -0.05170024 0.044625103 0.052213863 -0.03255034 0.0011759968 -0.027018772
-0.027238768 0.01048848 -0.026506055 -0.031863354 -0.027072996 0.05800347 -0.027629599 0.051078603
-0.03489424 0.06638342 -0.03370026 -0.03710325 -0.018792775 0.06896941 -0.0048310882 -0.036549855
-0.027587635 0.05514713 -0.04226039 -0.057834573 -0.022247368 0.025015317 -0.04813725 -0.0016174073
-0.02033263 0.038949046 0.03727773 0.012305181 0.061431915 0.06076648 0.021178039 -0.024380183
-0.007825299 0.0020807737 0.025969388 -0.037808347 0.043926183 0.07123251 0.03733353 -0.007110966
0.00633797 0.014393256 0.036262844 -0.047477443 -0.017621214 -0.030732956 0.064578556 -0.08630879
-0.0007372779 0.060920294 -0.013360432 -0.050286666 0.00015818355 0.033308707 -0.0359236 -0.033600617
-0.018261623 0.035826568 -0.00048943935 0.033802867 0.05256655 -0.013501556 -0.022701636 0.00037284454
0.05561159 0.010340011 -0.0029578574 0.04549248 0.030175656 -0.035725635 0.028123405 0.048817303
-0.012675004 -0.028267793 0.028214036 0.03250733 0.045604933 0.02908346 -0.0024697608 -0.03574505
0.037944607 -0.002819794 -0.0542523 -0.06570437 -0.009920838 -0.017170554 -0.050210547 0.04399627
0.057242654 0.021763919 -0.008992782 -0.00052807684 0.03036258 0.008642428 -0.06233629 -0.04879849
-0.047625575 -0.081878334 0.013250429 0.050120447 -0.054124072 0.020065913 0.06361437 -0.058045056
0.047185335 0.006947974 0.009037823 0.044031486 0.0027317184 -0.045509208 0.05952397 -0.03576018
-0.014928428 -0.055296477 -0.053599015 -0.011231262 0.056820456 0.03308489 0.011332647 0.057352617
0.03985645 0.015915858 -0.009021111 0.036462966 -0.03719754 0.02764725 -0.009067075 0.022278631
-0.06932457 0.049390398 0.004746522 -0.092050254 -0.010495873 -0.0510716 0.0023600268 0.0026195403

conv1.bias f4 [64]
00000000: 2706 5ebd d7fc a53c 3f22 573c 3944 043c
00000010: 9ba6 40bd 6a0f b7bc 6978 d13b 01d2 cc3c
00000020: 986e 003c dc60 363c cbaa 273d df86 c23b
00000030: aa64 8f3c cf41 cbbb a3c5 dcbc b8ea d1bc
00000040: 9cfd ccbb d999 dfbd 7e6c 64bd d6b8 863c
00000050: 3de8 373d acfd 10b9 9d6b a9bb 6c16 9e3d
00000060: 76d4 4a3c d891 48bc 2afb ec3b 13da f63c
00000070: 01d6 c5bb 38f5 dd3b 4639 6e3c cdfa 9f3c
00000080: a676 d33c 094a d63c 766c 013c 590b 80bc
00000090: ad96 d2bb 13ad 443c 93ea 1fbd 0d87 e1bc
000000a0: 2738 c63d a392 90bd bd08 133d 3c87 4ebc
000000b0: 67fe d0bd c1f7 503c b262 b33c 2b74 7b3c
000000c0: d21d 013c fc26 4c3d 3f33 1d3d 72de 663d
000000d0: b09a 773d 46ad deba 93e2 883c 6064 013d
000000e0: 406e 383d 2181 2ebd 73d1 8a3c 4e85 863d
000000f0: 1982 3d3d 6287 263d 5094 083c e528 233d
-0.054205086 0.020262165 0.0131307235 0.008072906 -0.047033887 -0.022346217 0.006392528 0.025002481
0.007838868 0.0111314915 0.040934365 0.005936488 0.017504055 -0.0062029134 -0.02694971 -0.025624618
-0.0062558185 -0.10918016 -0.05576753 0.016445559 0.044899214 -0.0001382741 -0.005170299 0.077191204
0.012379756 -0.012241803 0.0072320895 0.030133283 -0.006037474 0.006773617 0.014540022 0.01952877
0.025813412 0.02615835 0.007899394 -0.015630411 -0.0064266534 0.012004155 -0.039042067 -0.027530218
0.09678679 -0.07059219 0.035897005 -0.012605485 -0.102047734 0.012754382 0.021897648 0.015347521
0.007880645 0.049841866 0.03837895 0.056364484 0.060450256 -0.0016988895 0.016709602 0.031589866
0.045027018 -0.042603616 0.016945576 0.065683946 0.04626665 0.040656455 0.008336142 0.039833922

bn1.weight f4 [64]
00000000: 5350 993f b106 953f 5889 973f af79 9b3f
00000010: ce57 a03f a0fa 973f 6b1b 9a3f f448 953f
00000020: 41d3 993f 8efe 9f3f 2323 9a3f 66c8 9e3f
00000030: 85ca a03f 7ec6 943f 6c31 9e3f 207e 993f
00000040: 5bfa a03f 939d a03f 68cc 993f 8ab9 9a3f
00000050: 5c69 9f3f 6396 a43f 6544 953f 795e 9e3f
00000060: 844a a03f 4776 973f 2305 a13f af0c 9a3f
00000070: 491a 8e3f 568c 9b3f c021 9f3f c74d 983f
00000080: e3c1 943f 629c 963f a5df a13f 6d37 9a3f
00000090: 6dba 983f e791 9d3f 9bae 983f 5e99 9b3f
000000a0: 946a 9c3f 9ded 9e3f 0e21 9a3f 67c4 943f
000000b0: d01f 973f 2ccd 9d3f 2445 9a3f 6538 9c3f
000000c0: b185 9a3f 1fba 9a3f a1f1 943f e8d5 973f
000000d0: d285 963f 53a8 9a3f ce06 9e3f 5538 9c3f
000000e0: 2a21 9d3f 91a3 9b3f 38e1 923f f81e 993f
000000f0: d2ee 9e3f f193 973f 2d52 9d3f 3b1a 9a3f
1.1977638 1.1642667 1.1838789 1.214651 1.2526796 1.187336 1.2039617 1.1662889
1.2017595 1.2499559 1.2041973 1.2404907 1.2561804 1.1623075 1.2358832 1.1991615
1.2576402 1.2548088 1.2015505 1.2087872 1.2454028 1.2858394 1.1661497 1.2372581
1.252274 1.183297 1.2579693 1.2035121 1.1101772 1.2152202 1.2432175 1.1898736
1.162167 1.1766474 1.2646376 1.2048165 1.1931893 1.2310151 1.1928285 1.2156179
1.2220025 1.2416264 1.2041337 1.1622437 1.1806583 1.2328238 1.205235 1.220471
1.2072049 1.208805 1.1636239 1.1862154 1.1759589 1.2082618 1.2345827 1.2204691
1.2275746 1.2159292 1.1474981 1.1962576 1.2416632 1.1842023 1.2290703 1.2039255

bn1.bias f4 [64]
00000000: 13d0 333e 6604 d23d e573 083e 4582 323e
00000010: 0778 513e 0a5c 253e b317 153e ee5f 043e
00000020: 63ac 313e c723 643e bba2 133e 085b 603e
00000030: 0695 543e ad10 fb3d 6537 5e3e cded 083e
00000040: a666 503e d31b 3a3e e710 3e3e 57b8 0b3e
00000050: 6257 533e b3a5 6d3e 04a8 d53d c54e 423e
00000060: feea 543e 12b7 0e3e 4c0c 6b3e 46c6 323e
00000070: 45ff a13d 3505 203e 58b3 5c3e e022 163e
00000080: fc57 e43d 586e d73d ae4a 6f3e d659 283e
00000090: 37e2 233e 77fe 303e 968b 253e aa09 213e
000000a0: e577 323e e97a 343e 231d 223e f97a 053e
000000b0: 6663 143e a8c6 353e e463 263e 0202 2f3e
000000c0: b8a2 1e3e e22e 193e d7ec e33d ae49 1f3e
000000d0: 3283 093e e812 283e dad4 443e 28de 1e3e
000000e0: 3d59 453e ef7a 293e 7a99 ee3d b602 213e
000000f0: e18c 483e cd99 103e 078e 4c3e 8645 283e
0.17559843 0.10254745 0.1332546 0.17432506 0.20455943 0.16148391 0.14559822 0.1292722
0.17350917 0.22279273 0.14417545 0.21909726 0.20759973 0.1225904 0.21700819 0.13371964
0.20351657 0.18174677 0.18561135 0.13644539 0.20638803 0.2320774 0.10432437 0.1897536
0.20792767 0.13937023 0.2295391 0.17458448 0.07910017 0.15626986 0.21552789 0.14661741
0.11149594 0.10519093 0.23368332 0.1644052 0.16004263 0.1728457 0.16166529 0.15726343
0.17428549 0.17625012 0.15831427 0.13035192 0.14491042 0.17751563 0.16249043 0.1709061
0.1549176 0.1495929 0.11129158 0.1555545 0.13428953 0.16413462 0.19221821 0.15514433
0.19272323 0.16550802 0.11650367 0.1572369 0.19584991 0.1412117 0.19976054 0.16432771

bn1.running_mean f4 [64]
00000000: 2e95 093d cc66 903c 0197 5a3c c173 9fbb
00000010: 01e9 843b 5b59 083d 52b9 ad3a aa45 253d
00000020: 60f2 4c3c 2d5d de3c 8ac5 8bba c294 b63c
00000030: 81c8 0cbc 2fe6 1d3d dac8 10bc 4d04 1bbc
00000040: f4f0 a7bc 47f9 d73c d1b3 b43c 4faa 6e3c
00000050: a56b 18bb c849 283c b56f 15bd 82ff 4f3c
00000060: 5bcc b5bb 9afe 923b 056b 653b dbf2 ab3c
00000070: 5c3d d8bc f8a1 4fbb 7036 fa3c c954 27bb
00000080: f229 9c3c 848b 8fba 0de7 1c3c 46fe dabb
00000090: 4083 803b 9359 903c 86de 15bc 759c d53c
000000a0: 1348 76bc b63d acbc caab 343c 83cb 733c
000000b0: 4fa7 fb3c f661 4d3c 5d17 8abb 1dac 9c3c
000000c0: ca42 9fbc be28 b7bc 52f1 813d 6db0 443c
000000d0: 68da ce3b 222e cc3b 3537 9c3c 26c6 c7bc
000000e0: 37db 553c e685 bb3b a6eb 6fbc 84cc eebc
000000f0: 0f94 bb3c 1794 ce3c 02e1 523b c889 a03c
0.033589534 0.017627142 0.013341666 -0.004866094 0.0040560965 0.03328834 0.0013254082 0.04034964
0.012508959 0.027144039 -0.001066373 0.02228773 -0.008592726 0.0385496 -0.008836949 -0.009461475
-0.020500638 0.026363982 0.0220584 0.014566972 -0.002325752 0.010271497 -0.036483485 0.012695195
-0.0055480427 0.0044859173 0.0035006416 0.020989826 -0.026396446 -0.0031682234 0.030543536 -0.0025532714
0.01906297 -0.0010951613 0.009576571 -0.006683144 0.003921896 0.017620837 -0.009147292 0.026075581
-0.015031832 -0.02102552 0.011027286 0.014880064 0.030719427 0.012535563 -0.004214211 0.019125039
-0.019441027 -0.022358295 0.06344856 0.012004954 0.006312657 0.0062310854 0.019069294 -0.024386477
0.013052753 0.005722749 -0.014643585 -0.029150255 0.022897748 0.0252171 0.0032177572 0.01959695

bn1.running_var f4 [64]
00000000: c849 e539 75a6 9e39 8a94 f739 06ce 2739
00000010: 36e5 7f39 17e9 ac39 8c32 9939 e890 ef39
00000020: c895 8839 99c5 5339 6abf c839 3acd d839
00000030: b2d5 3f39 2ae6 293a 30cd 9f39 7373 4839
00000040: 94cd be39 b873 b93a 6dfa 203a a881 173a
00000050: 4d12 e039 1e0b 3739 9b4b 9739 4857 af39
00000060: b755 ae39 e9d1 6639 e172 ef39 78bc 0e3a
00000070: fb82 8439 4079 e839 455f ce39 c731 7839
00000080: 09c7 d539 51bc c339 ada3 0939 b415 e039
00000090: 56b5 193a df1c 8039 a52d 3c39 9157 ea39
000000a0: b869 2b3a 2361 033a 5690 ad39 206d 9b39
000000b0: 7c2e 513a 0178 b339 362e 7239 3741 2d39
000000c0: 8839 8139 3c0d 3b3a c07b 3b3a ee41 073a
000000d0: f209 ea39 ff37 0c39 0459 aa39 024f de39
000000e0: f4eb b439 f750 ef39 c19e 083a d62a 3b3a
000000f0: 10a1 8339 1329 213a 1b88 6d39 5ca7 7d39
0.00043733255 0.0003026013 0.00047222181 0.00016003111 0.00024404083 0.00032980062 0.00029220094 0.00045693596
0.00026051537 0.00020196139 0.00038289587 0.00041351636 0.00018294787 0.00064811355 0.0003047972 0.00019116495
0.00036392792 0.0014148867 0.0006140832 0.0005779513 0.00042738245 0.00017456381 0.00028857295 0.0003344363
0.0003325173 0.00022012707 0.00045671224 0.0005444954 0.0002527459 0.00044340827 0.00039362363 0.00023669667
0.0004077482 0.00037333605 0.00013126312 0.0004274078 0.0005863508 0.00024435573 0.00017946081 0.000446972
0.00065388856 0.0005011728 0.0003310467 0.00029645208 0.0007979644 0.0003423095 0.00023096133 0.0001652286
0.00024647661 0.0007135456 0.0007151924 0.00051596656 0.00044639368 0.000133723 0.0003249125 0.00042402005
0.00034508074 0.00045645956 0.00052116445 0.0007139867 0.00025106268 0.0006147783 0.00022652785 0.00024190306

conv2.weight f4 [32, 64, 3, 3]
00000000: a6b3 6d3c 7971 e83d ec8a d73b 474c 4ebd
00000010: 82f5 eb3d 02c7 0ebc 0e54 203c 3851 8cbc
00000020: d70f d93d 45da 87bc 956d 8f3c be6d 43bd
00000030: 57dd 13be e425 8b3c caab c0bd 4b0b 02be
00000040: 482a f53d d3fc c0bd c745 c43d 69a1 cc3d
00000050: 0b42 8c3d e817 0c3e 67da 2c3d 84e8 c83d
00000060: 095e 3f3c 9631 dcbd 88cc 173b ee53 22be
00000070: 4380 5fbd 1ccf d7bd 6711 403c ea6d 543d
00000080: 3b85 8dbd 92f4 1b3e 42be f83d 24d7 bd3c
00000090: 5773 c2bd 4dee bcb9 6ed9 c83c bc28 733d
000000a0: a0dc 48bc 6724 163d 9ade edbc 1976 893d
000000b0: 463c 613e ee05 eebd bc52 4cbd 0697 ac3c
000000c0: 23be ce3a aa11 ddbd 95be 5bbc 22ec 253e
000000d0: 750a 03bc 168d cc3d aa80 dcbc 0f4f 913d
000000e0: 8671 663d 869a b2bd 0ced b2bd 4489 8cbd
000000f0: 94d9 0abe a84d ddbd a29b 8fbb af3c d6bd
00000100: e626 78bc 813b 363e b09f 75bd 1cfa 29bc
00000110: cea2 a23d d28e 0c3d 2ab3 bcbc ce29 65bd
00000120: 749e c6bd d700 023e 84fb 9e3d 62d0 d53b
00000130: f829 503d 142c 81bd 214f 683d 3093 00be
00000140: 95e9 3cbd 26fd 083e 648d 00bc 3587 1d3d
00000150: a48e 20bc 50c7 84ba 25ef 373e 723c 66bd
00000160: 5f0c 893d a6b5 a83d c58f 253e a3ad de3d
00000170: 1d02 e43d d4af f53c cbb7 d83c 9eb9 483e
00000180: 3121 00bd 0316 d3bd 5d61 173d b78e b33d
00000190: 31c3 c33d c471 2c3d 56b7 9c3d f5ed fbbd
000001a0: f14e 01bd f077 c33d 4295 0abe cb24 97bc
000001b0: b3ae c2bc 14e6 aa3d 77d1 973d bf6d 71bc
000001c0: 9442 f23c 6da4 313e 19de e3bc 4a03 df3b
000001d0: 000a e13d 0eaf a33c e466 9e3d 3aa1 1d3d
000001e0: 07fd 86bd 92ff 01be b8f5 153d 4187 91bd
000001f0: a014 abbc 1604 0b3e 2c0e ae3d 96d5 fbbb
00000200: 0f91 ff3d ede6 0fbd 3e77 343d da68 dc3d
00000210: 78a9 f8bd 2b7d 8ebc b2f6 f6bd 9276 a23c
00000220: 2a43 343e f2a6 1a3d 55e0 f83d fcb8 03bd
00000230: fa7c d6bd 1bd6 543c b0d0 e8bd 7a8c b3bd
00000240: b40f af3d 8519 c13c 6e7a b3bd b85e e93d
00000250: b59e 13bd 651a 093e 3447 643d d363 9fbc
00000260: 8002 523e 766f b0bd ef2d 2bbd 78aa 5bbc
00000270: f0cf dbbd 552a 6b3c 5793 003d 37ac e3bd
00000280: 5619 ad3d e0c6 cd3d 69f3 0c3e 819c 83bd
00000290: f9e1 a3bd 4e5c 203d 5fcf 833c d800 e03c
000002a0: 66f0 9dbc 6a3f 0e3e d7a1 b93d da7a a63d
000002b0: e181 513d 898d d63d 8722 06bd b7c5 d03d
000002c0: 049d d53d 7a77 6cbd 4a69 383e 0154 5e3d
000002d0: e2fd e43d fa2e 033d 9a15 8c3c db59 263d
000002e0: 45a9 113d f1b9 30bd f2fd cf3d 4cd4 f63d
000002f0: 91ac 97bd 5f1d 463e 278e de3d e49c cdbd
00000300: d206 323e 8336 a63d 6254 2e3d ad8f b4bc
00000310: 4ea2 f0ba c445 3f3c 950b f53d 7c05 c23d
00000320: 2521 56bd 0d85 003e 87e7 1b3b 4fcb ba3d
00000330: 8266 053c bd45 4cbc d510 063e cf5d 29bd
00000340: 5a05 143e 8a6c 0b3e acef 66bd 3d13 c23d
00000350: 5fa8 bfbb 8fd5 443d b3b9 9f3c b28e b6bd
00000360: 5e8b dc3d 6865 2c3e ba23 213d f992 8c3c
00000370: 6a46 bd3d 9519 123c 9ca0 a63d e3db a0bb
00000380: 198d c7bd f1e2 083e 97e3 99bd 7a49 5ebb
00000390: dad7 36bc 0ed1 dabc 73c1 4e3d a79d e3bd
000003a0: 63dc b33d 9ea2 fe3c 29e5 6bbd b0d7 56bd
000003b0: 0fc0 8a3d 047d 86bd e184 3dbd a21d be3d
000003c0: b080 b33d f829 95b9 8305 423d 9599 043e
000003d0: 9886 4fbd 137a 253e e0ba 80bd f279 1cbd
000003e0: 5e85 153e dc96 b5bd 73a2 d33d b766 3a3a
000003f0: 7107 2e3d 3f6b 3cbd 9f5d d5bd 9210 c13d
0.014508164 0.11349768 0.00657784 -0.050365712 0.11521436 -0.008714439 0.009785665 -0.017128572
0.10598724 -0.016583571 0.017508307 -0.04771208 -0.14439903 0.016985841 -0.09407766 -0.1269962
0.11970955 -0.094232224 0.095836215 0.09991724 0.06848534 0.13680995 0.042200472 0.09809974
0.011680135 -0.10751645 0.0023162682 -0.15852329 -0.05456568 -0.1053755 0.011722899 0.051862635
-0.06910177 0.15230015 0.12145664 0.023173876 -0.094946556 -0.00036035702 0.024517741 0.05936502
-0.012259632 0.03665581 -0.029036809 0.067119785 0.21995649 -0.11622225 -0.04988359 0.021068107
0.0015773218 -0.10794385 -0.0134121375 0.16203359 -0.007998099 0.099878475 -0.02691682 0.07095157
0.056260608 -0.08720879 -0.08736619 -0.06862119 -0.13559562 -0.108058274 -0.0043825665 -0.10460793
-0.015145993 0.17796136 -0.059966743 -0.010374572 0.07941209 0.03431589 -0.02303465 -0.05594807
-0.09698191 0.12695633 0.077628165 0.0065250853 0.050821275 -0.06307235 0.05671609 -0.12556148
-0.0461212 0.13377818 -0.00784621 0.03845902 -0.009799633 -0.00101302 0.1796232 -0.05620999
0.06691813 0.08237772 0.16168125 0.10872962 0.111332156 0.029991068 0.026454827 0.19602057
-0.031281654 -0.10306933 0.036958087 0.08767455 0.09558714 0.042100683 0.07652156 -0.12301246
-0.031569425 0.09544361 -0.135335 -0.018450161 -0.023764944 0.08344665 0.07412999 -0.014735638
0.029572763 0.1734788 -0.027815865 0.006805812 0.109882355 0.019980934 0.077344686 0.038483836
-0.0659123 -0.12695149 0.03661129 -0.07105876 -0.020883858 0.13575777 0.08498797 -0.0076853735
0.124788396 -0.035132337 0.04405903 0.10762186 -0.121416986 -0.01739367 -0.12058772 0.01983193
0.17603746 0.037756868 0.12152163 -0.032158837 -0.10473056 0.0129905 -0.11367929 -0.08767028
0.08547917 0.023571739 -0.08763586 0.11395019 -0.036040027 0.13388975 0.055731967 -0.01945678
0.20508766 -0.086150095 -0.041791853 -0.013407342 -0.1073302 0.014353354 0.031390514 -0.11116832
0.08452098 0.10047698 0.13764729 -0.06426335 -0.08002085 0.03915053 0.016090093 0.027344152
-0.01927967 0.13891378 0.090640716 0.08128901 0.051149253 0.104762144 -0.03274777 0.10193961
0.10430339 -0.05773113 0.18008915 0.05427933 0.11181237 0.032027222 0.017100144 0.040613037
0.03556182 -0.043146078 0.10155858 0.12052211 -0.07405961 0.19347142 0.10866957 -0.1003969
0.17385414 0.08115866 0.042560942 -0.022041166 -0.0018358917 0.011674348 0.119651 0.09473702
-0.052277703 0.12550755 0.0023789124 0.09120809 0.008142116 -0.012467799 0.13092358 -0.04134923
0.14455166 0.13615623 -0.056380913 0.09476326 -0.005848929 0.048055228 0.019497728 -0.08913936
0.1076877 0.16835558 0.039340712 0.017159926 0.09241946 0.008917232 0.081361026 -0.004909025
-0.09743709 0.13367821 -0.075141124 -0.0033918307 -0.011159861 -0.026711013 0.050477456 -0.11114054
0.0878227 0.031083401 -0.05759159 -0.05245179 0.067749135 -0.065668136 -0.0462693 0.09282996
0.087647796 -0.00028450764 0.047368538 0.12949212 -0.050665468 0.16159849 -0.062856436 -0.038202234
0.14601657 -0.08866665 0.10333719 0.00071106426 0.042487565 -0.046000715 -0.104182474 0.09426989

conv2.bias f4 [32]
00000000: e6c8 adba ebba 213c 04f7 dcbc e969 97bc
00000010: 238c f2bc f109 173c f199 553c c65d 50bc
00000020: ec91 5b3c 5137 263c 44b0 eabc 71e7 893c
00000030: 9e3b 93bc 79ae 6539 0f54 873d 59ee 7a3c
00000040: 46e5 cb3c 7864 813d 1182 20bd f5a0 823c
00000050: a530 fd3c 7b6d d2bc 0b7b fb3c 8638 fd3b
00000060: 93e5 3e3d f06f c33c 230c 653c 9a0c 46bc
00000070: e6b6 003d 85ae 97bc f669 00bd 0517 8f3c
-0.0013258725 0.009871225 -0.026973255 -0.01848312 -0.029607838 0.009218679 0.013037191 -0.01271767
0.01340149 0.010145024 -0.028648503 0.016833993 -0.017972764 0.00021904138 0.0660783 0.015315616
0.0248896 0.06317991 -0.03918654 0.01594589 0.030906985 -0.02568697 0.03069832 0.0077276854
0.046605658 0.023857087 0.013979944 -0.012087965 0.031424426 -0.018515835 -0.031351052 0.017467031

exp_avg f4 [64, 32, 3, 3]
00000000: b67f 10b9 b643 d23a 3456 163b a53e 14bb
00000010: 9302 79ba a31c 2aba 506b 1fbb fbb1 b7b8
00000020: 5f1d b5ba 86cd 94b9 305d 9538 6be5 ff38
00000030: d714 a2b9 0a65 eeb8 19ec 3eb9 5ec6 94ba
00000040: 34ed 8d39 5c25 bb39 ecd2 ab3b 140d 623b
00000050: 0ec0 7c3b 1a18 673b 798e 903b dd8b d03a
00000060: 0852 33bb d76c 48bb 9f92 a8ba 8077 7f3b
00000070: 5e4f 4a3b fbd1 343b 5838 3f3b e9ac 153b
00000080: 3b2e 0e3a bf8f 96ba 0ea6 d9ba 0d23 6137
00000090: 7abb 9c3b fd8b e93b c326 eb3b f250 33bb
000000a0: 3bbc 7e3a 1990 c5b9 013b babb 88e1 1bbb
000000b0: a0bc 2abb f5b5 f62c 48dc cd32 ddd8 8cb3
000000c0: 5357 c9b0 932d 5c32 41ec 6733 4384 2ab3
000000d0: c290 b0b2 a498 93b1 dd28 2c3a d09f 9a39
000000e0: 2ccf 2dba 79e7 f13a 4e04 2c3b b9ab b8b8
000000f0: 573f 3dba 4d76 dc3a 5339 c43a 38f7 203b
00000100: 0319 c13a 9562 d03a 62ce 17b7 15a1 ad3a
00000110: 1902 4639 b13c 15bb 76ae aaba 4a6d 8aba
00000120: 526a 3339 8c02 ab3a da9d e83a cc73 9fba
00000130: 5ec4 a9b7 212f 333a cc68 9cba 3b1c 80ba
00000140: 3e19 7aba 246f 8717 0d1e 8798 4549 b398
00000150: a596 4a1a 270a b719 61d7 8b97 0f6e e399
00000160: 688f 679a 7079 081b 238b e735 d592 7ab2
00000170: 51fd 6eb6 87f2 36b5 3bf8 c634 12d0 76b5
00000180: 4362 09b6 9de0 8836 56e6 6d36 3389 32b9
00000190: 5eb1 cd39 c7cf 1439 e7fd b3b8 a6a6 b839
000001a0: dcfc 3c39 1501 bab8 3731 1039 cbe3 56ba
000001b0: 0000 0000 0000 0000 0000 0000 0000 0000
000001c0: 0000 0000 0000 0000 0000 0000 0000 0000
000001d0: 0000 0000 ea40 b43b a7f6 be3b 283a b43b
000001e0: 7d90 11b8 05ba 1b39 fc68 63ba 3bd1 8bbb
000001f0: 0561 54bb f644 a1ba dc6d 2f3b 5012 af3a
00000200: fa8d c63a 440a 8b3a a8d4 fc3a 9f05 a13a
00000210: 8247 9eba 57a6 1aba 610e 3fba d5b9 02b9
00000220: eeed 7539 604e 72b9 b864 a039 9da8 9039
00000230: f917 a3b8 4c20 08b8 d9fe f537 f1c6 e337
00000240: da1f 8b37 3ded bcb9 ae8c 1fba 4e8e b93a
00000250: 1125 723a 13ef 6aba 0e67 3f39 52cb 2e3b
00000260: bce4 d13a aae8 6d3b e395 fe3b f844 e23b
00000270: cbeb 60bb 49a5 0f3a d138 b9ba 80e8 80bb
00000280: 115a 473a 5d18 45b9 26bd b83a 09e0 7f3a
00000290: 66d2 5b3a ae20 51ba 4861 c2b8 fcc4 393a
000002a0: b4e2 a7ba 4f99 4cba 2eee 0eba 2d54 333b
000002b0: 5a97 af3a 8620 ae3a eb71 e83a ed9e 603a
000002c0: e3d1 49b9 3987 5cba 92c7 96ba a170 ee39
000002d0: 8303 b13a e572 063b 4ed2 193b 2021 7eba
000002e0: fc67 f0b8 360d 893a d432 75ba 73e2 7aba
000002f0: 6073 2bb9 0000 0000 0000 0000 0000 0000
00000300: 0000 0000 0000 0000 0000 0000 0000 0000
00000310: 0000 0000 0000 0000 da96 4b34 6fc9 8533
00000320: 0280 57b6 0cff 84b5 123b c3b2 bb2a 03b6
00000330: d5ce feb4 1382 a1b4 c3c3 69b5 1ba3 9313
00000340: cd5c 5313 bdd1 2314 32f4 2f14 14b4 4e95
00000350: e4c8 f413 bfc2 4995 9967 9912 b300 4a95
00000360: ec76 0dba 519e 903a 6f19 933a ba78 ceba
00000370: 558d b7ba 4ab4 8eba e42c 56ba 53bc 78ba
00000380: ec27 29ba 0c4e 713b ac9d 743b d38a 6d3b
00000390: 7894 80b8 d3f4 593a f01b 28ba fcba 41bb
000003a0: 160d f4ba af60 deba 311c b73a b3a0 923b
000003b0: 29b0 953b 0000 36bb 3b5b 8dba 6e18 a7ba
000003c0: ba21 33bb c36d cbb9 77b7 9fba 1c84 6c37
000003d0: c030 0ab8 08e9 5336 6bc7 7137 f7e1 b8b8
000003e0: 5b2e e936 e91c 1bba 0bdd 0fba 8b9c 89b9
000003f0: 1273 b5b3 988d a632 ee97 1ab4 ae3c 3234
-0.00013780486 0.0016041908 0.0022939565 -0.0022620347 -0.000949898 -0.00064892526 -0.0024325438 -8.7592714e-05
-0.0013817957 -0.00028381887 7.122231e-05 0.0001220208 -0.00030914575 -0.00011367544 -0.00018207765 -0.0011350622
0.00027070346 0.00035695254 0.0052436497 0.0034492658 0.0038566622 0.0035262168 0.0044115153 0.0015910823
-0.0027362127 -0.0030582452 -0.0012861079 0.003898114 0.003087006 0.0027590978 0.002917787 0.0022838658
0.0005423759 -0.0011486931 -0.0016605274 1.3419206e-05 0.004783091 0.0071272836 0.0071762516 -0.002736148
0.00097173796 -0.0003768213 -0.0056833033 -0.002378555 -0.002605237 7.011942e-12 2.3965313e-08 -6.558705e-08
-1.4649494e-09 1.2816048e-08 5.399875e-08 -3.97015e-08 -2.0554925e-08 -4.2956163e-09 0.00065673684 0.00029492239
-0.0006630297 0.0018455825 0.0026247683 -8.8057895e-05 -0.0007219216 0.0016819924 0.0014970697 0.0024561416
0.0014732186 0.001589852 -9.048354e-06 0.0013246859 0.00018883533 -0.002277177 -0.0013021964 -0.0010561135
0.00017110378 0.0013047024 0.0017747239 -0.0012165247 -2.023781e-05 0.0006835331 -0.0011933087 -0.0009774038
-0.00095405045 8.752226e-25 -3.4927026e-24 -4.63444e-24 4.189431e-23 1.8925857e-23 -9.037034e-25 -2.3515702e-23
-4.7885523e-23 1.1288895e-22 1.7251335e-06 -1.4585301e-08 -3.5612213e-06 -6.815321e-07 3.7060985e-07 -9.1944923e-07
-2.0471787e-06 4.0792643e-06 3.5449825e-06 -0.00017026514 0.00039232796 0.00014191783 -8.582678e-05 0.00035219378
0.00018023275 -8.869373e-05 0.00013751244 -0.0008197396 0.0 0.0 0.0 0.0
0.0 0.0 0.0 0.0 0.0 0.0055009024 0.005827743 0.005500097
-3.470526e-05 0.0001485125 -0.00086750067 -0.0042668856 -0.003240646 -0.0012303877 0.0026768362 0.0013356898
0.0015148513 0.0010607918 0.0019289451 0.0012285 -0.0012075754 -0.00058994204 -0.00072882144 -0.00012466994
0.00023453656 -0.00023108115 0.0003059262 0.00027591447 -7.776911e-05 -3.2455006e-05 2.9324949e-05 2.7153148e-05
1.6584923e-05 -0.0003603491 -0.00060863316 0.001415679 0.00092370907 -0.00089620164 0.0001825357 0.0026671481
0.0016013603 0.0036302009 0.0077693327 0.0069051944 -0.003432023 0.00054796465 -0.0014131312 -0.003933966
0.00076046685 -0.0001879646 0.0014094457 0.0009760862 0.0008385539 -0.0007977587 -9.268761e-05 0.0007086543
-0.0012808652 -0.0007804827 -0.00054523617 0.0027363405 0.0013396547 0.0013284839 0.0017734146 0.00085686037
-0.00019247043 -0.0008412484 -0.0011503568 0.00045478813 0.0013505075 0.002051526 0.0023471299 -0.0009694267
-0.000114634604 0.0010456208 -0.0009353582 -0.0009570487 -0.00016350811 0.0 0.0 0.0
0.0 0.0 0.0 0.0 0.0 0.0 1.8960728e-07 6.229936e-08
-3.2112007e-06 -9.908995e-07 -2.272785e-08 -1.9545394e-06 -4.7461677e-07 -3.0083228e-07 -8.7084135e-07 3.726885e-27
2.6677698e-27 8.2707605e-27 8.883401e-27 -4.1743425e-26 6.1792353e-27 -4.0745254e-26 9.681196e-28 -4.0794127e-26
-0.0005396444 0.001103351 0.001122279 -0.0015752532 -0.0014003912 -0.001088747 -0.00081701414 -0.0009488512
-0.0006452787 0.0036820201 0.0037325425 0.0036246076 -6.13117e-05 0.0008314375 -0.00064128544 -0.0029560914
-0.0018619623 -0.001696607 0.0013970194 0.0044747232 0.004568119 -0.0027770996 -0.0010784635 -0.001274837
-0.0027333335 -0.00038800956 -0.0012185414 1.4097455e-05 -3.2947166e-05 3.1577092e-06 1.441115e-05 -8.815893e-05
6.9493376e-06 -0.0005917089 -0.0005487955 -0.0002624731 -8.4494005e-08 1.9389333e-08 -1.439764e-07 1.6599617e-07

exp_avg_sq f4 [64, 32, 3, 3]
00000000: 0bba 473c 7969 413c 92a4 2c3c e1d3 443c
00000010: 1bcc 363c ee74 333c be00 563c 773b 363c
00000020: 4114 2b3c 7ce3 ac3a d874 8e3a 0324 a83a
00000030: c4a1 d83a 9b6b d73a a5b9 9c3a 33d3 e33a
00000040: 411a ef3a 87ec 8a3a ebc4 d63d 111a 753d
00000050: a5ca a63d da0c cc3d 609a 333d f157 7a3d
00000060: 2a1b 013e f4a5 813d bcad c73d 9ffb 5f3d
00000070: a697 0e3d 2755 2e3d af77 643d da2d ee3c
00000080: 4025 103d 9cc4 873d 79f2 113d c90e 4c3d
00000090: 0d76 133e b5cb 583d a1bc d53d 2973 f03d
000000a0: 5eb1 a73b 8ea2 623d abe4 353e e755 913d
000000b0: e2af 023e 46a7 6733 018f bc32 fb95 b931
000000c0: 93cf a533 feaf bf32 63ef 0032 4599 a133
000000d0: 19a5 b233 b220 d532 fc38 b73a 144d fb3a
000000e0: ffd4 923a e37e fc3a f683 1b3b 616e bb3a
000000f0: 837f e33a c27b f03a 1fe8 d23a 7e2c 823c
00000100: 208b 353c 1047 803c 9da9 6b3c e73a 103c
00000110: 0a43 4d3c 9cde 9d3c 529f 623c 6249 a73c
00000120: 745e fd3c 4854 9a3c 918b d23c 36fc e33c
00000130: 6b8c 833c 175e b73c 1c66 103d 81c4 c23c
00000140: 0238 d73c a057 9630 bbfd f331 a943 6931
00000150: 720d 4332 c77a 8a33 4c1c cc31 f6ab 4534
00000160: f32b 2a30 0d70 9a33 3986 5838 795c 7638
00000170: 6e10 1439 9072 a838 6059 3438 d9c0 3539
00000180: ca99 b538 31a3 fe37 58a6 4939 f4df 873c
00000190: 3e1d 693c 3689 803c dcf5 8b3c 7526 743c
000001a0: 1c0f 883c a310 993c 3795 8a3c 3ff5 823c
000001b0: 0000 0000 0000 0000 0000 0000 0000 0000
000001c0: 0000 0000 0000 0000 0000 0000 0000 0000
000001d0: 0000 0000 9de7 c93d c204 513d a52d a53d
000001e0: c165 bb3d 7453 ec3c c74a 733d 0a72 f83d
000001f0: 34b9 713d 2aef cf3d 7d78 303c 6c86 0a3c
00000200: 6523 f43b f262 493c 1f78 ec3b ac72 c03b
00000210: 71ca 573c 5425 053c 8f90 1c3c 5c88 053c
00000220: ad51 df3b c90d 093c b8d2 123c 69be e53b
00000230: 9e13 0a3c d428 243c cd85 f33b 4fbb ff3b
00000240: 975e 4c3a 723f 803a f782 7f3a 1a62 8e3a
00000250: 14ef ac3a d307 953a d46a 773a 1017 833a
00000260: cd2f 763a 6771 f53d e5ae 303d a995 a83d
00000270: 8bd9 cc3d 527e 9a3b 9fda 333d 2a6d 143e
00000280: 96cf 6a3d 45b2 c93d b5cf 053c 0576 d83b
00000290: e0be cc3b d3f6 0e3c 5988 b63b c61b e03b
000002a0: 0a13 133c 274a c23b 736b e43b eb02 863c
000002b0: 28ff 853c 9ccf 7e3c 0af3 9b3c 5296 933c
000002c0: c888 893c 2fe4 973c eaf3 813c 5fd4 973c
000002d0: 27ed 0a3d e3ba bf3c efc3 eb3c 920a 0d3d
000002e0: 570a a83c 2d38 f03c 72e3 1d3d 96bb d73c
000002f0: 662d fe3c 0000 0000 0000 0000 0000 0000
00000300: 0000 0000 0000 0000 0000 0000 0000 0000
00000310: 0000 0000 0000 0000 c8c4 2f37 65ff 7637
00000320: d856 5837 3f84 8b37 cbb1 6437 6820 8337
00000330: 71f7 5137 1d0c 3037 d0ea 6637 7c79 c52e
00000340: ca6e 4a2e f250 f32f e9e9 0b30 2905 4032
00000350: 3b08 872f c8e1 3632 286a e32d 87a8 3632
00000360: b893 0f3c 0031 f73b bc92 f33b b4ab 273c
00000370: 9f69 803b 8a49 d03b 819b 293c f27b d63b
00000380: 450a 343c 8d94 5f3d 355f 073d 7a92 4a3d
00000390: 4ed6 4a3d 4cf5 bb3c 113c 233d 53c5 833d
000003a0: ced8 1a3d 2205 813d 9caf 8d3d 8fe3 d83c
000003b0: 2bd7 4c3d 34fe 673d eda1 663b e68d e73c
000003c0: 636a a83d 26cf 133d 8b81 783d a74e 0c3a
000003d0: 4e13 083a 1d08 7e3a 1aab 273a d959 1f3a
000003e0: 71ba 833a 403a 203a e64d 4e3a ec2e 863a
000003f0: 454d 2036 ecea 7836 d018 2b37 3553 dd36
0.012190352 0.011804932 0.0105372835 0.0120134065 0.011157061 0.010953171 0.0130617 0.011122576
0.010441841 0.0013190354 0.0010868562 0.0012828115 0.0016527702 0.0016435267 0.0011957182 0.0017381668
0.0018242077 0.0010599055 0.10486778 0.059839312 0.0814412 0.09963389 0.043848395 0.061119024
0.12608019 0.06330481 0.09749934 0.054683324 0.034812592 0.042561676 0.0557782 0.029074598
0.035191774 0.06629297 0.03563163 0.049818788 0.14400502 0.052928645 0.10436369 0.11740715
0.0051175794 0.055330805 0.17763011 0.07096463 0.12762406 5.3936013e-08 2.1951111e-08 5.4012594e-09
7.721169e-08 2.2315358e-08 7.505011e-09 7.525026e-08 8.318802e-08 2.4811332e-08 0.0013978775 0.0019172751
0.0011202394 0.0019263889 0.0023729778 0.0014299863 0.0017356727 0.001834743 0.0016090906 0.015890356
0.011080533 0.015658885 0.014383701 0.008803106 0.01252819 0.019271187 0.01383193 0.020420734
0.030928828 0.018839017 0.025701316 0.027830224 0.016058167 0.022383733 0.03525363 0.023775341
0.026271824 1.0938841e-09 7.1010766e-09 3.3944423e-09 1.1353551e-08 6.448459e-08 5.9403984e-09 1.8409614e-07
6.1908095e-10 7.191566e-08 5.1623418e-05 5.8737092e-05 0.000141205 8.032203e-05 4.299858e-05 0.00017333346
8.659398e-05 3.0355151e-05 0.00019230822 0.016586281 0.014228163 0.015690427 0.017085008 0.014901747
0.016608767 0.01868469 0.016916854 0.015986083 0.0 0.0 0.0 0.0
0.0 0.0 0.0 0.0 0.0 0.0985863 0.051029928 0.08065347
0.091502674 0.028848387 0.059397485 0.12131126 0.059014514 0.10153039 0.010770914 0.0084549
0.0074505084 0.012291657 0.007216468 0.005873045 0.013170824 0.0081265755 0.00955595 0.008150186
0.0068151564 0.008365103 0.008961372 0.007011224 0.008427529 0.0100195 0.007431722 0.0078043113
0.00077960774 0.0009784533 0.00097469933 0.0010862977 0.001319381 0.001137013 0.0009438221 0.001000138
0.0009391278 0.119845204 0.043135542 0.082316704 0.100024305 0.0047147656 0.043909665 0.14494768
0.057326876 0.09848455 0.008167197 0.006605866 0.00624834 0.00872584 0.005570453 0.0068392484
0.008976707 0.00592925 0.0069708168 0.016358813 0.01635702 0.015552428 0.019036788 0.018016014
0.016788855 0.018541424 0.015863378 0.018533884 0.033917572 0.023404544 0.028779952 0.03443391
0.020512743 0.029323662 0.038546987 0.026334565 0.031027507 0.0 0.0 0.0
0.0 0.0 0.0 0.0 0.0 0.0 1.04766295e-05 1.4722206e-05
1.2894823e-05 1.6631673e-05 1.3631255e-05 1.5631507e-05 1.2514983e-05 1.0493238e-05 1.376374e-05 8.980103e-11
4.6027883e-11 4.4258958e-10 5.090031e-10 1.1177044e-08 2.4562205e-10 1.0645131e-08 2.5854055e-11 1.0632113e-08
0.008763246 0.007543683 0.0074332636 0.010233808 0.003918841 0.006356423 0.010352016 0.006545537
0.010988777 0.05458503 0.03304978 0.049456097 0.049520783 0.022944115 0.039852206 0.06434121
0.037804417 0.06299807 0.069182605 0.026475696 0.050009888 0.05663891 0.003519173 0.028265905
0.08223417 0.036086224 0.060670417 0.0005352296 0.0005190865 0.000969054 0.00063960406 0.0006078757
0.0010050071 0.00061121956 0.0007869884 0.0010237372 2.3886835e-06 3.7091622e-06 1.0198171e-05 6.596e-06

exp_avg f4 [64]
00000000: 14f4 8b2f 7d08 29b1 31a8 f530 7550 fd2f
00000010: 7a21 1eb0 3f16 17b1 4296 d630 d2de 86b0
00000020: ac73 872f 8807 ce2f 7be0 95b0 9ee5 e330
00000030: 6899 172f 13e0 9130 fff3 12af 967c 1731
00000040: c22a b3b0 3387 4630 7327 4c31 91f8 0631
00000050: 27f1 c830 4803 13b0 9dff 38b1 b4df 8030
00000060: 8fb5 3c31 6bcb 8bb0 189f cb2d eb19 812f
00000070: 33cd 2630 4869 9e30 25cb 8a2f 66a0 e62f
00000080: ac73 a130 f1cd 48b0 c166 31b0 3bbc a630
00000090: e02a 5930 a89a 51b0 5a46 7ab1 803a 63b0
000000a0: e499 70b0 c8e8 1caf d627 2bb1 df26 29b0
000000b0: 2abe a82e d6bb b430 8d77 6e30 98f0 1230
000000c0: b492 4e2f 39ad 102e f0c1 8db1 7bd3 b1b0
000000d0: c7e2 b02f 02ec f7b0 7413 25b1 ccd7 8db1
000000e0: c4ac 882f 42ac 8d2f 09ce 08b0 9100 0830
000000f0: 9d08 5830 5984 2db0 9885 85b0 8190 5031
2.545738e-10 -2.4597562e-09 1.7873899e-09 4.60776e-10 -5.752764e-10 -2.1986037e-09 1.5613255e-09 -9.813113e-10
2.4638547e-10 3.7476533e-10 -1.0904978e-09 1.6581685e-09 1.3787871e-10 1.0613824e-09 -1.3365307e-10 2.204421e-09
-1.3036117e-09 7.222411e-10 2.9708331e-09 1.964086e-09 1.4620455e-09 -5.348295e-10 -2.6920823e-09 9.376806e-10
2.7460805e-09 -1.0171396e-09 2.314908e-11 2.348338e-10 6.0682054e-10 1.1525936e-09 2.5246397e-10 4.1950726e-10
1.1747168e-09 -7.3052236e-10 -6.4538247e-10 1.2131588e-09 7.900507e-10 -7.6253537e-10 -3.6419778e-09 -8.266525e-10
-8.7530183e-10 -1.4270818e-10 -2.490642e-09 -6.153708e-10 7.6735354e-11 1.315011e-09 8.675379e-10 5.3456395e-10
1.878771e-10 3.2895662e-11 -4.1256882e-09 -1.2938551e-09 3.2175348e-10 -1.8038693e-09 -2.4021718e-09 -4.1281734e-09
2.4861013e-10 2.5770147e-10 -4.9769305e-10 4.9477317e-10 7.859258e-10 -6.312511e-10 -9.714993e-10 3.0350125e-09

exp_avg_sq f4 [64]
00000000: f538 8c28 e0f5 6029 6139 a428 8413 d228
00000010: 115b eb28 7c69 3729 f50f f228 450f 4229
00000020: 0c66 fb28 d485 eb28 d3a3 6b29 46ac 6a28
00000030: 4ef4 3029 f52b 7028 2513 d628 8acb 3129
00000040: 8269 e028 0e45 d428 d994 7d28 bee3 a028
00000050: a6a3 cd28 05dd eb28 1873 8429 39e9 c828
00000060: 05fa cf28 ca6f a528 6533 5c28 35f1 5128
00000070: 733d 8c29 f5c7 0c29 a850 0e29 6035 ab28
00000080: 9b6e 2329 bcb5 ec28 8eb9 9628 4986 a228
00000090: b0a2 7428 0afb 2929 3fbd b928 1252 ae29
000000a0: 0dcd c328 db82 6628 927b 1129 a475 f028
000000b0: 02c3 1229 bcc9 bb28 b731 c028 982e 0929
000000c0: ed93 5629 f769 0729 ca4c 9a28 104f 4129
000000d0: 101e 4c28 54fa f228 4de4 f028 8f2e e328
000000e0: ee26 9628 d131 af28 db8e d628 4c81 0029
000000f0: 7a56 1b29 267d 3928 dcbc ba28 cfc5 a528
1.5567824e-14 4.9951254e-14 1.8232542e-14 2.3323147e-14 2.6129735e-14 4.0725656e-14 2.6874317e-14 4.3089898e-14
2.7910854e-14 2.614828e-14 5.2322577e-14 1.3026965e-14 3.929175e-14 1.3332208e-14 2.3767075e-14 3.9478437e-14
2.4914752e-14 2.3566676e-14 1.40765975e-14 1.7862336e-14 2.2830543e-14 2.6186093e-14 5.881943e-14 2.2305605e-14
2.3090045e-14 1.836716e-14 1.2223598e-14 1.1654134e-14 6.227909e-14 3.125968e-14 3.1600292e-14 1.9007961e-14
3.6289206e-14 2.6280078e-14 1.6733817e-14 1.804385e-14 1.3579998e-14 3.774328e-14 2.0621198e-14 7.741389e-14
2.1738276e-14 1.27959395e-14 3.2303648e-14 2.6696371e-14 3.2587655e-14 2.0848659e-14 2.1337842e-14 3.0460525e-14
4.764585e-14 3.006793e-14 1.7130737e-14 4.2923185e-14 1.1330794e-14 2.697596e-14 2.6744362e-14 2.5222254e-14
1.6670228e-14 1.9450507e-14 2.3820726e-14 2.8533857e-14 3.449192e-14 1.02967e-14 2.0732053e-14 1.8404466e-14

exp_avg f4 [64]
00000000: 72b0 5cb8 1e88 053a c8b1 19ba 0fc6 99b9
00000010: 3af0 9eb9 14d8 0339 23a9 c937 b0cd 3e3a
00000020: 7694 403a 13a6 e038 1fb4 1fba 740d 7eb9
00000030: 3969 ae39 ce5b 023a 98e1 9538 1e76 ab39
00000040: 1fdc 2339 abaf eb39 441b cd38 990c 1939
00000050: 1c76 fab9 2db9 8e36 15d4 3bb8 48d3 5339
00000060: 9dd3 0339 82df 52b9 f66f 8a39 4631 3e39
00000070: b99e 1e39 6ab4 a1b7 ae91 0e3a 5c8c dab9
00000080: 6cbb 1fba 9765 2cba 6ae9 d7b8 0bd8 ba38
00000090: 978f 093a 5f40 e4b9 3a49 f4b8 d9eb 693a
000000a0: 1643 c739 f85c 6d37 4c0a 033a 2ded b739
000000b0: e11b 4c39 bab7 e539 c988 8e37 a06f 2f3a
000000c0: b1a3 1f39 0402 a0b9 d8e8 653a 32ff 873a
000000d0: 81ef 4c38 8f9c 35ba c64c 733a 15ca a9b9
000000e0: bb5b 23ba 86be 86b9 97b8 0b37 0bfd 9139
000000f0: 6774 d538 06fa c739 c6bf 31ba d023 5ab9
-5.2616415e-05 0.00050938304 -0.0005862978 -0.0002933 -0.0003031509 0.00012573629 2.4039828e-05 0.00072785746
0.0007346341 0.00010712086 -0.0006092209 -0.0002422834 0.00033266263 0.00049727864 7.146894e-05 0.00032703666
0.00015626893 0.00044953576 9.78024e-05 0.0001459591 -0.00047771714 4.253487e-06 -4.478179e-05 0.00020201236
0.00012571966 -0.00020110424 0.00026404829 0.00018138168 0.00015127183 -1.9276707e-05 0.0005438578 -0.00041684776
-0.00060932967 -0.00065764174 -0.00010295476 8.909412e-05 0.0005247532 -0.0004353551 -0.00011648466 0.00089233887
0.0003800622 1.4147947e-05 0.0004998788 0.0003508119 0.00019465342 0.0004381517 1.6991415e-05 0.00066923536
0.00015224401 -0.0003051908 0.0008770353 0.0010375737 4.8860446e-05 -0.0006927931 0.00092811545 -0.00032384755
-0.00062316254 -0.00025700423 8.328024e-06 0.00027845087 0.00010178313 0.0003814252 -0.00067805906 -0.00020803441

exp_avg_sq f4 [64]
00000000: a317 023b 5c27 8a3b 4916 1b3b 4f00 073b
00000010: e138 cb3a aad7 1c3b 51d0 393b 656a be3b
00000020: 4e16 793b dd23 d93a 8a10 593b 2e51 ee3a
00000030: e575 0a3b e356 b83a 914b eb3a f8f7 603b
00000040: 924e 323b f21b 233b fd68 cc3a 44fc 173b
00000050: b54b fd3a b0d1 ba3a 086d 373b 46bb ec3a
00000060: a405 b43a 7cdb 213b 4d7d ce3a 4b6e fc3a
00000070: 75dc c53b 2e8d 3f3b 041e 0c3b bd40 043b
00000080: 6b26 6d3b 3985 683b 8d95 ce3a 6d0b ea3a
00000090: 434f cf3a 7088 2d3b 653c 2e3b 4c45 bb3b
000000a0: 1825 e63a 7996 d43a 087a 343b f3c0 773b
000000b0: 8e62 303b 48c3 f63a 2660 be3a 1609 1a3b
000000c0: c676 333b 1d4d 223b be98 673b cc6f 5f3b
000000d0: 8b06 113b bf7f 1f3b 4386 023b 1f56 f03a
000000e0: 39a0 d33a 92a0 ce3a 8abc 783b af63 403b
000000f0: 4e14 dd3a 0c04 1f3b f0b0 e73a 351e 133b
0.0019850514 0.004216118 0.0023664406 0.002059955 0.0015504622 0.0023932257 0.0028352926 0.005811023
0.003800768 0.0016566474 0.003312143 0.0018182152 0.00211274 0.001406398 0.0017951598 0.0034327488
0.0027207476 0.0024888483 0.0015595254 0.0023191134 0.0019324931 0.0014253166 0.0027988572 0.0018061183
0.0013734591 0.0024697473 0.0015753895 0.0019258944 0.0060382434 0.0029228437 0.0021380195 0.0020180189
0.003618623 0.0035479798 0.0015761122 0.0017856188 0.0015816469 0.0026479028 0.002658629 0.005715048
0.0017558662 0.0016219161 0.0027538557 0.0037804216 0.0026914212 0.0018826509 0.0014524504 0.002350395
0.0027384027 0.0024765201 0.0035338844 0.0034093736 0.0022129144 0.0024337617 0.0019916452 0.0018336213
0.0016145773 0.0015764406 0.0037954175 0.002935629 0.0016867013 0.0024263887 0.0017676633 0.0022448425

exp_avg f4 [64]
00000000: 5391 03ba bc1c a039 df00 26ba e477 0bb9
00000010: 7cdc 68b9 d7dc e539 dc3c e339 d5fe 4e3a
00000020: da1e 163a 99c7 5e38 a5f5 22ba aa34 a538
00000030: ec25 d439 fa5d d939 f359 253a f5fa f339
00000040: 4368 a0b8 bc00 103a 5805 ddb8 2f9e d0b9
00000050: f095 2bb9 fe62 3239 03f0 55b8 28f6 29b9
00000060: 07d9 5e39 c686 4038 59ab 95b8 578a 8339
00000070: de84 c439 1467 19b8 dfb6 6939 f784 45ba
00000080: 773e d7b9 c303 33ba 076e 94b9 6b24 bc38
00000090: 8742 ee39 c201 02ba 6e29 02ba 127e ee39
000000a0: ddc1 0c3a 7b0e 8639 a091 9e39 aedf 0d39
000000b0: 1ba3 e0b8 77a8 2e39 2f0b 2b38 cbdf 053a
000000c0: eb71 0d3a 8189 8339 a920 363a 86b2 b039
000000d0: 4959 16b9 4d92 45ba 7c9f 6e3a 11c7 88ba
000000e0: 1eec f1b9 acbb 77b9 f954 6739 02f1 e538
000000f0: d208 14b9 d89d 073a 5a5b dbb9 0e7a 74b9
-0.00050189084 0.00030538987 -0.0006332527 -0.00013300736 -0.00022207381 0.00043842822 0.00043342158 0.00078962493
0.0005726643 5.3114814e-05 -0.00062164135 7.8776226e-05 0.00040464045 0.00041459483 0.0006307654 0.0004653555
-7.648815e-05 0.00054932735 -0.000105390965 -0.00039790708 -0.00016363687 0.0001701228 -5.1006686e-05 -0.00016208796
0.00021252419 4.5901885e-05 -7.13679e-05 0.00025089338 0.00037483027 -3.657404e-05 0.00022288736 -0.0007534767
-0.00041054536 -0.00068288686 -0.00028310737 8.971322e-05 0.00045444464 -0.00049593684 -0.000496528 0.00045488827
0.0005369464 0.0002556926 0.00030244607 0.00013530135 -0.00010711533 0.00016656691 4.0779993e-05 0.0005106895
0.0005395698 0.00025088715 0.0006947616 0.00033702346 -0.00014338376 -0.0007536754 0.00091027445 -0.0010435303
-0.00046143023 -0.00023625669 0.00022061531 0.00010964462 -0.00014117666 0.0005173362 -0.00041838997 -0.00023315122

exp_avg_sq f4 [64]
00000000: 56dd b43a 56ae a33b 79a3 353b 29a4 f63a
00000010: 33a9 d93a 77be e13a 0cec 3a3b ee72 cc3b
00000020: 2e2e 633b 7390 e83a 1ad2 a23b 910d a03a
00000030: 55f1 093b bb9c 7e3a 670a d73a 708f 833b
00000040: 1638 333b ca6e 1e3b 0556 953a f83a 483b
00000050: 3149 e73a 2a89 ca3a a446 953b c433 d43a
00000060: 70d4 d73a bb6b c33a a4e0 9b3a a9ea c43a
00000070: e610 e53b 2487 a03b e8bf ee3a 5abf f83a
00000080: ca40 bc3b 3943 a53b f8ee 933a 4c5a 043b
00000090: a5d0 be3a c98e 383b 90f3 1c3b bfbc bd3b
000000a0: 5cdd b63a fcda eb3a f589 313b 3910 813b
000000b0: a6db 383b 2f1e 103b df77 ec3a 119b 2d3b
000000c0: 2e5f 563b 8c4d 503b 5ff2 993b 81c1 423b
000000d0: b3c9 223b 410b 153b b12d d33a cdc5 393b
000000e0: 1df8 ba3a 64a3 993a 2c44 543b f82e 103b
000000f0: b01f e43a 6cc8 4d3b 241a ba3a 837e 0e3b
0.0013798873 0.0049951477 0.0027715845 0.0018817234 0.0016606211 0.0017222901 0.0028522043 0.0062392866
0.0034664976 0.0017743245 0.0049688937 0.0012211074 0.0021048386 0.0009712686 0.0016406298 0.004014902
0.0027346662 0.0024174922 0.0011393434 0.0030552726 0.0017645714 0.0015452255 0.00455554 0.0016189744
0.001646651 0.0014909426 0.001189251 0.0015023547 0.00699054 0.0048989225 0.0018215152 0.0018977926
0.005745028 0.005043414 0.0011286428 0.0020195423 0.001455803 0.0028161278 0.0023948886 0.0057903226
0.0013951468 0.001799434 0.0027090285 0.0039387015 0.0028207093 0.0021990647 0.0018041095 0.0026490132
0.003271054 0.0031784503 0.0046980823 0.0029717388 0.002483946 0.0022742304 0.001611164 0.0028346658
0.0014264617 0.0011721668 0.0032389266 0.0022000652 0.0017404463 0.0031399978 0.0014198464 0.0021742887
