checkpoint_decoder/check_point_2021_10_09_23:16:26/check_point_2021_10_09_23:16:26_epoch_20.pth (torch, 452917 bytes, 20 tensors)

conv1.weight f4 [64, 32, 3, 3]
0.07166384 0.018741474 -0.022292003 -0.04725852 0.035450675 -0.05566393 -0.012262319 0.0476144
-0.0021708235 0.0072229877 0.0024738775 0.009096253 0.034504928 0.017019982 -0.0133185275 -0.01627547
-0.027048398 0.06268502 0.052601285 -0.00044900444 0.018112786 -0.02253426 0.052681267 -0.008541376
-0.008456527 -0.053014554 -0.015174493 -0.005904368 0.008720755 -0.03749913 0.031658657 0.01183677
-0.015015444 0.018163677 0.059313025 -0.04154265 0.028117517 -0.011797619 -0.014393146 -0.040205568
-0.00077383086 0.014780711 0.022880493 0.0041160346 -0.02181299 -0.06030009 -0.023690524 -0.060213905
-0.007741568 0.015903486 0.057429813 -0.004632287 0.06771732 0.02652256 -0.014172519 -0.059229366
-0.0058984 0.06846289 0.024203876 0.037557717 0.020994402 -0.0024293307 -0.066810414 0.015481166
-0.0040890104 0.00246284 0.025435226 -0.015610615 -0.06896717 -0.0031519406 -0.021235745 0.03871065
-0.028571017 0.005993467 0.022683254 -0.006148007 -0.043485556 -0.028355278 0.016991092 -0.027810069
-0.03625853 -0.021273438 0.045768786 0.023470892 0.031761155 -0.042759713 -0.06274202 0.05359267
0.031362936 0.039895274 -0.082126126 -0.004256479 0.053349026 -0.00062108145 -0.019846022 -0.04480594
0.034507252 0.04589753 -0.06193265 0.014604631 0.042822935 0.06882072 -0.04026958 0.0031933722
0.011002756 -0.00791669 0.035542864 0.021737773 -0.014917006 0.017622208 -0.057561517 -0.022455512
0.03566475 0.042654417 -0.05170024 0.044625103 0.052213863 -0.035382524 0.0037895245 -0.027375543
-0.022971934 0.01862878 -0.027345248 -0.037113294 -0.022538219 0.055899426 -0.015427939 0.051814124
-0.015801694 0.071813904 -0.03493027 -0.027099611 -0.011144955 0.06229878 -0.00010440965 -0.021644548
-0.019203736 0.052288674 -0.026410492 -0.0408198 -0.019918874 0.031247532 -0.041863263 -0.009470954
-0.025367705 0.024963174 0.048174508 0.0020697394 0.067464516 0.064736985 0.0015028928 -0.028215302
-0.016755339 -0.0021773535 0.021484556 -0.036238812 0.042113524 0.060925998 0.046532452 -0.014495714
0.016580418 0.015381715 0.045903374 -0.06564933 -0.0059554204 -0.03463554 0.04822549 -0.09166694
0.012646294 0.054345142 -0.024129342 -0.05475839 -0.01050393 0.03097053 -0.02920946 -0.03654845
-0.017782826 0.031934895 -0.002397791 0.027587822 0.05942056 -0.03654398 -0.013972851 -0.007515339
0.033268366 0.012256443 -0.00060294045 0.04758596 0.020320168 -0.035725635 0.028123405 0.048817303
-0.012675004 -0.028267793 0.028214036 0.03250733 0.045604933 0.02908346 -0.007188588 -0.014843728
0.048772547 0.011483039 -0.04390895 -0.07010639 -0.015081464 -0.013747524 -0.08621026 0.0408468
0.05394223 0.018501533 -0.008006256 0.002408517 0.02529537 0.013198581 -0.06909652 -0.04299987
-0.06239125 -0.06696979 -0.0064045596 0.04902903 -0.036792822 0.0066843177 0.05068473 -0.040047992
0.044745952 0.0036935334 0.022460232 0.044694986 0.009407167 -0.03396394 0.059708882 -0.04118571
-0.011318749 -0.05287308 -0.056596342 -0.0012654657 0.053944685 0.03416209 0.027615309 0.059666738
0.03129889 0.026288413 -0.007317013 0.021545805 -0.0023558498 0.050510272 0.0069059394 0.03858771
-0.057455294 0.060507745 -0.0051866197 -0.08614731 -0.025150998 -0.058843963 0.0054008504 0.015819862
00000000: 7ec4 923d b887 993c b89d b6bc 2692 41bd
00000010: ba34 113d dcff 63bd e5e7 48bc 5107 433d
00000020: 6044 0ebb d0ae ec3b c720 223b 7308 153c
00000030: 0a55 0d3d 7d6d 8b3c f435 5abc 2254 85bc
00000040: 9a94 ddbc 0161 803d 7274 573d 5b68 ebb9
00000050: 4461 943c c599 b8bc 50c8 573d 21f1 0bbc
00000060: 3f8d 0abc ca25 59bd 709e 78bc 6e79 c1bb
00000070: 7fe1 0e3c b098 19bd 82ac 013d 03ef 413c
00000080: 5603 76bc fecb 943c 37f2 723d a028 2abd
00000090: b556 e63c cd4a 41bc 3bd1 6bbc 98ae 24bd
000000a0: e9da 4aba cc2a 723c df6f bb3c cddf 863b
000000b0: 28b1 b2bc 3afd 76bd a112 c2bc dba2 76bd
000000c0: fbac fdbb 0748 823c 863b 6b3d 71ca 97bb
000000d0: 61af 8a3d d745 d93c da33 68bc 7e9a 72bd
000000e0: 5e47 c1bb 4636 8c3d 3547 c63c 1fd6 193d
000000f0: 74fc ab3c 6835 1fbb e6d3 88bd b7a4 7d3c
00000100: 1bfd 85bb 9967 213b 895d d03c aac3 7fbc
00000110: a93e 8dbd ca90 4ebb 96f6 adbc 0f8f 1e3d
00000120: c40d eabc d864 c43b 3bd2 b93c 3975 c9bb
00000130: e91d 32bd 5449 e8bc e730 8b3c f1d1 e3bc
00000140: d383 14bd a245 aebc 0d78 3b3d 0746 c03c
00000150: fc17 023d cf24 2fbd e37e 80bd fd83 5b3d
00000160: 6c76 003d 3a69 233d be31 a8bd ef79 8bbb
00000170: 8284 5a3d 12d0 22ba 2094 a2bc 6f86 37bd
00000180: 7a57 0d3d 0cff 3b3d 17ad 7dbd 4348 6f3c
00000190: 1a67 2f3d e1f1 8c3d b7f1 24bd e547 513b
000001a0: e744 343c 01b5 01bc 6595 113d 6a13 b23c
000001b0: 7566 74bc 735c 903c a0c5 6bbd 9ff4 b7bc
000001c0: 3315 123d 66b6 2e3d a1c3 53bd d0c8 363d
000001d0: 34de 553d 44ed 10bd ac59 783b ad42 e0bc
000001e0: a32f bcbc 629b 983c 2403 e0bc 1c04 18bd
000001f0: 12a2 b8bc ccf6 643d 77c5 7cbc 0c3b 543d
00000200: 8e72 81bc 2b13 933d 0b13 0fbd 0100 debc
00000210: 5499 36bc 012d 7f3d 81f6 dab8 e84f b1bc
00000220: 2751 9dbc a62c 563d d15a d8bc aa32 27bd
00000230: e82c a3bc d3fa ff3c d078 2bbd 0f2c 1bbc
00000240: efcf cfbc 927f cc3c a252 453d 77a4 073b
00000250: d62a 8a3d d394 843d b7fc c43a c723 e7bc
00000260: 7e42 89bc eeb1 0ebb 6100 b03c 266f 14bd
00000270: 3b7f 2c3d 8a8d 793d d098 3e3d 6e7f 6dbc
00000280: a8d3 873c 9703 7c3c 2d05 3c3d 2873 86bd
00000290: b025 c3bb ffdd 0dbd 1788 453d e0bb bbbd
000002a0: 6732 4f3c 0399 5e3d e6aa c5bc 554a 60bd
000002b0: ad18 2cbc e9b5 fd3c ad48 efbc d4b3 15bd
000002c0: 4aad 91bc 2ace 023d 4224 1dbb dbff e13c
000002d0: f962 733d 24af 15bd 63ee 64bc 3c43 f6bb
000002e0: 6944 083d 3fcf 483c a60e 1eba 7fe9 423d
000002f0: 7b76 a63c 0b55 12bd 0e63 e63c a7f4 473d
00000300: d2aa 4fbc dc91 e7bc 1f21 e73c 6826 053d
00000310: 3dcc 3a3d 7040 ee3c 3f8e ebbb 1c33 73bc
00000320: b9c5 473d 5b23 3c3c dfd9 33bd f093 8fbd
00000330: 3f18 77bc 4b3d 61bc 018f b0bd f94e 273d
00000340: 87f2 5c3d 8790 973c ac2c 03bc 36d8 1d3b
00000350: 3c38 cf3c dc3e 583c 7a82 8dbd a220 30bd
00000360: f88d 7fbd 7527 89bd 57dd d1bb aad2 483d
00000370: 12b4 16bd 1f08 db3b cb9a 4f3d 5d09 24bd
00000380: 8847 373d 350f 723b 85fe b73c 1712 373d
00000390: 8520 1a3c c61d 0bbd 4d91 743d 59b2 28bd
000003a0: 4672 39bc 7191 58bd 91d1 67bd fcdd a5ba
000003b0: 1af5 5c3d 8ced 0b3d 8039 e23c 1c65 743d
000003c0: 4433 003d cc5a d73c 8ec3 efbb d480 b03c
000003d0: 9a64 1abb dce3 4e3d 384b e23b 260e 1e3d
000003e0: 3e56 6bbd f8d6 773d 85f4 a9bb 006e b0bd
000003f0: 7709 cebc 5e06 71bd 9ef9 b03b a898 813c

conv1.bias f4 [64]
-0.07398519 0.0088554565 0.03069444 0.024127143 -0.041887313 -0.029209599 -0.0005797076 0.013208084
0.0039738542 -0.013299712 0.035334244 0.012655187 0.019591974 -0.046886988 -0.020046227 -0.017515622
0.006611717 -0.116922356 -0.054373518 0.033901908 0.038837895 0.0068917405 0.007362514 0.047165748
0.023714013 -0.025167001 0.00019218115 0.010289897 0.0045431345 0.017032865 -0.0076264283 0.014383749
0.029750306 0.025442805 0.007831044 0.008646556 -0.003945141 0.007982767 -0.028960174 -0.03871502
0.11009508 -0.048981056 0.023846867 -0.008713245 -0.11753094 0.00680458 0.019507522 0.017573003
0.0019035215 0.055652354 0.01655117 0.030298876 0.039301872 0.00092916325 0.006296765 0.03387199
0.04312519 -0.03911147 0.0357948 0.08385218 0.02553574 0.040725693 0.014586641 0.025199328
00000000: 8c85 97bd 7a16 113c e872 fb3c 49a6 c53c
00000010: 0892 2bbd f848 efbc 85f7 17ba b866 583c
00000020: 1b37 823b 09e7 59bc a4ba 103d b457 4f3c
00000030: 597f a03c 920c 40bd fc37 a4bc ec7c 8fbc
00000040: 1aa7 d83b fd74 efbd c4b6 5ebd badc 0a3d
00000050: 7c14 1f3d 1cd4 e13b 3e41 f13b df30 413d
00000060: e443 c23c 072b cebc 3c84 4939 f596 283c
00000070: 93de 943b 8288 8b3c 1ee7 f9bb d1a9 6b3c
00000080: eab6 f33c 6e6d d03c c74d 003c 49aa 0d3c
00000090: 3e46 81bb 27ca 023c e33d edbc a493 1ebd
000000a0: 8879 e13d 5ca0 48bd 815a c33c 00c2 0ebc
000000b0: 10b4 f0bd f4f8 de3b 3dce 9f3c 42f5 8f3c
000000c0: 957f f93a b9f3 633d 5296 873c 5935 f83c
000000d0: 00fb 203d 1793 733a 1855 ce3b 5bbd 0a3d
000000e0: 0aa4 303d 5933 20bd 919d 123d b1ba ab3d
000000f0: 5430 d13c fccf 263d cffc 6e3c d26e ce3c

bn1.weight f4 [64]
1.3528906 1.2770526 1.3388518 1.3986398 1.4329479 1.3398888 1.3412216 1.2609742
1.354615 1.4170805 1.3193269 1.400508 1.4530164 1.3592685 1.4037521 1.3603307
1.4199867 1.4138409 1.3593023 1.359718 1.3903935 1.4963418 1.277438 1.4197097
1.4543856 1.3529217 1.4183916 1.3632463 1.2002486 1.3373199 1.4095991 1.3609644
1.3021446 1.287068 1.477988 1.3421414 1.348972 1.395439 1.3490946 1.3381257
1.4069645 1.3928567 1.3711305 1.3005614 1.3478001 1.4203535 1.3641859 1.3794671
1.3216155 1.3467073 1.2609477 1.3146843 1.3182658 1.3860763 1.4095974 1.3773044
1.3844717 1.4068886 1.2660799 1.3249611 1.4116446 1.338924 1.3934708 1.3701457
00000000: 852b ad3f 7676 a33f 7f5f ab3f a106 b33f
00000010: d66a b73f 7a81 ab3f 26ad ab3f 9a67 a13f
00000020: 0664 ad3f e562 b53f b4df a83f d943 b33f
00000030: 71fc b93f 83fc ad3f 26ae b33f 511f ae3f
00000040: 20c2 b53f bdf8 b43f 9efd ad3f 3d0b ae3f
00000050: 6af8 b13f 2188 bf3f 1783 a33f 0cb9 b53f
00000060: 4f29 ba3f 8a2c ad3f db8d b53f db7e ae3f
00000070: bfa1 993f 4c2d ab3f be6d b43f 1534 ae3f
00000080: adac a63f a5be a43f b62e bd3f 4acb ab3f
00000090: 1dab ac3f bf9d b23f 22af ac3f b447 ab3f
000000a0: 6a17 b43f 2149 b23f 3481 af3f cc78 a63f
000000b0: b784 ac3f 25ce b53f a59d ae3f 6192 b03f
000000c0: b22a a93f e860 ac3f bc66 a13f 9347 a83f
000000d0: efbc a83f f36a b13f b06d b43f 834b b03f
000000e0: 5e36 b13f ed14 b43f e80e a23f 5398 a93f
000000f0: c5b0 b43f dd61 ab3f 405d b23f ef60 af3f

bn1.bias f4 [64]
0.28457615 0.15771848 0.22076601 0.30451056 0.32577747 0.30872542 0.2203224 0.18584839
0.29044214 0.33270773 0.20543435 0.33587393 0.3361127 0.24257441 0.33427265 0.23809205
0.30064127 0.26359975 0.30337685 0.2257879 0.2792 0.36921617 0.1588694 0.31580505
0.33317804 0.27128187 0.3423679 0.29105476 0.13701 0.22609787 0.32532108 0.25484365
0.18895613 0.1476429 0.38670847 0.24369167 0.2659563 0.2658394 0.2751586 0.21813944
0.31670332 0.27001575 0.24837306 0.22108744 0.25613484 0.27322274 0.25593653 0.26679438
0.2349057 0.2263124 0.15183395 0.24449515 0.21993439 0.2885125 0.32481158 0.23421936
0.29707217 0.300666 0.19423924 0.2397657 0.30415478 0.22832021 0.3235826 0.2830363
00000000: f7b3 913e f480 213e 7c10 623e cfe8 9b3e
00000010: 4ecc a63e 4211 9e3e 329c 613e 0a4f 3e3e
00000020: d5b4 943e ab58 aa3e 625d 523e abf7 ab3e
00000030: f716 ac3e 6d65 783e c925 ab3e 67ce 733e
00000040: a7ed 993e 8cf6 863e 3654 9b3e f134 673e
00000050: 4df3 8e3e e709 bd3e a9ae 223e 33b1 a13e
00000060: 5096 aa3e 75e5 8a3e d84a af3e 2105 953e
00000070: 594c 0c3e 3386 673e 7c90 a63e de7a 823e
00000080: b77d 413e b32f 173e a7fe c53e 4f8a 793e
00000090: 6d2b 883e 1a1c 883e 97e1 8c3e f25f 5f3e
000000a0: f026 a23e 813f 8a3e 8255 7e3e bf64 623e
000000b0: 1b24 833e dae3 8b3e 1d0a 833e 4699 883e
000000c0: 1f8b 703e 70be 673e 5c7a 1b3e f05c 7a3e
000000d0: 7b36 613e e9b7 933e b44d a63e 33d7 6f3e
000000e0: d819 983e e5f0 993e a7e6 463e 2485 753e
000000f0: 2dba 9b3e c6cc 693e 9eac a53e 22ea 903e

bn1.running_mean f4 [64]
0.027264683 0.014525324 0.01319261 -0.009617802 0.003924795 0.0043765465 -0.0015854962 0.04007069
0.015501165 0.027673071 0.0065880753 0.024540989 -0.00023472843 0.018803237 -0.015823953 0.0018021017
-0.016310465 0.0067028874 0.015655372 0.015296863 0.010140201 0.01530406 -0.015903039 0.026945008
-0.007591658 -0.0011639501 0.014833964 0.024815291 0.000624369 0.012021726 0.019168839 -0.00027496685
0.023441149 0.004159635 0.015326577 -0.02270501 0.0027533919 0.013641476 -0.0036405944 0.013147183
-0.013828063 -0.046231467 -0.001056927 0.0241283 0.019780306 0.0020523418 -0.0030497548 0.018859774
-0.015801152 -0.026083425 0.03919894 0.022094864 0.03393354 0.00349007 0.008510247 0.020731267
0.014225033 0.00584853 -0.020957058 0.007099055 0.018409764 0.013867518 0.008125585 0.020411074
00000000: 2f5a df3c a0fb 6d3c d125 583c fc93 1dbc
00000010: 919b 803b 2269 8f3b 6dd0 cfba 2a21 243d
00000020: 99f8 7d3c a3b2 e23c c8e0 d73b 2f0a c93c
00000030: 6f21 76b9 3f09 9a3c 3ca1 81bc 8034 ec3a
00000040: 869d 85bc e5a3 db3b b23f 803c b29f 7a3c
00000050: 1623 263c e1bd 7a3c 1747 82bc c7bb dc3c
00000060: 71c3 f8bb af8f 98ba 280a 733c 7049 cb3c
00000070: b2ac 233a c6f6 443c f807 9d3c 6d29 90b9
00000080: a707 c03c 8c4d 883b 531c 7b3c dbff b9bc
00000090: 4072 343b 7f80 5f3c 0a97 6ebb 4867 573c
000000a0: 1a8f 62bc 355d 3dbd 9688 8aba b6a8 c53c
000000b0: 4f0a a23c 9580 063b 65de 47bb d07f 9a3c
000000c0: 6b71 81bc e8ac d5bc 118f 203d 4a00 b53c
000000d0: e5fd 0a3d a9b9 643b 906e 0b3c 9ed4 a93c
000000e0: 1d10 693c 07a5 bf3b 23ae abbc 319f e83b
000000f0: 13d0 963c 9634 633c 2c21 053c 2035 a73c

bn1.running_var f4 [64]
0.00038096876 0.00031705218 0.00028843342 0.0001732108 0.0002715134 0.00024019711 0.00028468907 0.00039843257
0.00026906462 0.00017241533 0.0002853588 0.00035545928 0.00018873943 0.0006921305 0.00029845905 0.00013522335
0.000343233 0.0012513616 0.0005579478 0.00055031915 0.0003455777 0.00016189228 0.00020014326 0.0001881613
0.00041417766 0.00020620081 0.000443151 0.00058445794 0.00017506223 0.0003667587 0.0003551438 0.00018627304
0.00041835438 0.00033196073 0.00012909678 0.0004321039 0.00040687987 0.00023202739 0.0001817616 0.00037733832
0.0007364746 0.00047254644 0.00043280574 0.0001739004 0.00064136204 0.00027356198 0.00020764819 0.00011007034
0.0002537507 0.00074554473 0.0007145331 0.00052133686 0.00026494788 0.00010998832 0.00024803833 0.00022442623
0.00024810462 0.0004054244 0.0005111245 0.0005143388 0.00015751057 0.0008161808 0.0001877756 0.00015496499
00000000: c3bc c739 063a a639 e138 9739 ec9f 3539
00000010: e959 8e39 6cdd 7b39 5242 9539 b7e4 d039
00000020: 3e11 8d39 63ca 3439 369c 9539 f05c ba39
00000030: 5be8 4539 1770 353a 7f7a 9c39 beca 0d39
00000040: f4f3 b339 ba04 a43a 3e43 123a 4b43 103a
00000050: a72e b539 a1c1 2939 8cdd 5139 2a4d 4539
00000060: fc25 d939 9c37 5839 b856 e839 4f36 193a
00000070: e990 3739 8549 c039 9832 ba39 4a52 4339
00000080: 9356 db39 040b ae39 275e 0739 018c e239
00000090: 7e52 d539 614c 7339 4297 3e39 7ed5 c539
000000a0: f90f 413a 1cc0 f739 34ea e239 0859 3639
000000b0: 1421 283a de6c 8f39 23bc 5939 90d5 e638
000000c0: d809 8539 a970 433a 814f 3b3a 53aa 083a
000000d0: b4e8 8a39 88a9 e638 240b 8239 f553 6b39
000000e0: 0a14 8239 248f d439 fcfc 053a b1d4 063a
000000f0: 6c29 2539 f7f4 553a a1e5 4439 197e 2239

conv2.weight f4 [32, 64, 3, 3]
0.0008771705 0.1711031 -0.023030933 -0.09854184 0.12901938 -0.027179085 -0.009562061 -0.0431898
0.16433148 -0.011352362 0.014884113 -0.07743354 -0.18719223 0.038290165 -0.14293413 -0.17676914
0.19721228 -0.15526707 0.08717796 0.12807757 0.07210491 0.16333263 0.05891374 0.103049465
-0.025750544 -0.1918711 -0.005771849 -0.20687513 -0.08638208 -0.12923907 0.028267017 0.08436688
-0.09323178 0.19387943 0.1567808 0.03229657 -0.14799003 -0.004082612 0.030701868 0.050358973
-0.0146699 0.03455169 -0.068123356 0.07478749 0.30446267 -0.1596086 -0.070651785 0.027260445
-0.015088647 -0.13310471 -0.00091249374 0.19866808 0.007032782 0.1679084 -0.05874987 0.100345254
0.07518664 -0.14345258 -0.109877944 -0.06868547 -0.18893984 -0.18884882 -0.009777592 -0.15917224
-0.044596333 0.23167977 -0.06612564 -0.012469024 0.10519407 0.06970465 -0.038517058 -0.10466758
-0.105614305 0.1484038 0.111228414 0.04529529 0.06702735 -0.07824988 0.08153866 -0.19567825
-0.06734912 0.16576892 -0.021180073 0.037700776 -0.0027606199 -0.014100894 0.23983099 -0.08521133
0.14350335 0.076624796 0.21760789 0.14204589 0.13552366 0.046213523 0.031297907 0.2729512
-0.04304508 -0.11862188 0.03411363 0.10802607 0.14624304 0.05167985 0.10190483 -0.17883499
-0.04760306 0.11797914 -0.16047928 -0.030706305 -0.06540854 0.12145977 0.05837535 -0.0232942
0.03525206 0.22747831 -0.01368544 -0.018286606 0.1398345 0.036399137 0.14199229 0.043253064
-0.093377165 -0.19289225 0.051592756 -0.1185367 -0.02761549 0.17947415 0.08308093 -0.026828784
0.13902314 -0.06273279 0.07043932 0.13074037 -0.15760177 -0.01933993 -0.17390124 0.045197956
0.21659845 0.049860235 0.19710188 -0.06815128 -0.13820592 -0.0029114808 -0.14802033 -0.116047494
0.10385618 0.034565445 -0.13044208 0.16648291 -0.036091153 0.16784352 0.07248278 -0.018594168
0.26838857 -0.1225036 -0.05713048 -0.016573524 -0.17070235 0.0033378166 0.02945799 -0.1754216
0.07263064 0.14031482 0.1548151 -0.094154686 -0.12575473 0.049858242 0.025318738 0.03788773
-0.0342053 0.18832818 0.13423759 0.13471174 0.05820394 0.13276707 -0.044476822 0.10756226
0.10922058 -0.10477005 0.23083736 0.066863164 0.1632969 0.030339934 0.015496437 0.047610004
0.037230276 -0.07103229 0.11980834 0.1571466 -0.11890294 0.25514996 0.1252279 -0.1611252
0.2167723 0.0908545 0.046092313 -0.034237962 -0.033208933 0.0017123903 0.13425297 0.10388271
-0.06156003 0.15875913 0.025848959 0.11167204 0.018829746 -0.025358306 0.18641077 -0.0365845
0.18504152 0.18004712 -0.086557426 0.11190918 0.0023461862 0.050652377 0.019858953 -0.12702234
0.18600313 0.22675085 0.022789896 0.025014738 0.09396123 0.010405789 0.098271176 -0.009575478
-0.13088073 0.17583242 -0.09267168 -0.011892337 -0.015407491 -0.054500885 0.045604058 -0.14304934
0.12864298 -0.0028791192 -0.10441276 -0.07463091 0.08624605 -0.0757085 -0.03751585 0.1362005
0.10655907 0.017875107 0.051757388 0.1974287 -0.079248145 0.21476087 -0.079599254 -0.05869493
0.2065396 -0.12950996 0.1504247 -0.01777531 0.02727838 -0.07352989 -0.15804519 0.12112922
00000000: eaf1 653a a735 2f3e 5eab bcbc 4ed0 c9bd
00000010: a81d 043e aca6 debc 31aa 1cbc cae7 30bd
00000020: 8346 283e 42ff 39bc 7fdc 733c 7a95 9ebd
00000030: 52af 3fbe 26d6 1c3d 535d 12be f802 35be
00000040: 04f2 493e 55fe 1ebe 5c8a b23d c426 033e
00000050: bdab 933d ab40 273e 894f 713d 990b d33d
00000060: cef2 d2bc dc79 44be c721 bdbb 13d7 53be
00000070: 17e9 b0bd 3f57 04be 3b90 e73c 8bc8 ac3d
00000080: 4ef0 bebd 5488 463e 258b 203e 6849 043d
00000090: b38a 17be 6fc7 85bb 7c82 fb3c 3645 4e3d
000000a0: 055a 70bc 1386 0d3d 4284 8bbd 2f2a 993d
000000b0: 88e2 9b3e 7070 23be e2b1 90bd 4c51 df3c
000000c0: 5f36 77bc 9a4c 08be 6b34 6fba a56f 4b3e
000000d0: 4073 e63b 2ef0 2b3e b4a3 70bd d081 cd3d
000000e0: 74fb 993d 3ce5 12be b007 e1bd f8aa 8cbd
000000f0: 7279 41be 9661 41be 3132 20bc 0cfe 22be
00000100: a5aa 36bd 763d 6d3e e16c 87bd e14a 4cbc
00000110: fd6f d73d 50c1 8e3d 10c4 1dbd f55b d6bd
00000120: 504c d8bd 2af7 173e b9cb e33d 8e87 393d
00000130: a345 893d 7941 a0bd befd a63d e15f 48be
00000140: 56ee 89bd 54bf 293e d581 adbc 216c 1a3d
00000150: 84eb 34bb 7007 67bc 4196 753e 4783 aebd
00000160: 8bf2 123e 76ed 9c3d 9ad4 5e3e 7a74 113e
00000170: b7c6 0a3e 644a 3d3d 3c32 003d 42c0 8b3e
00000180: 0a50 30bd 07f0 f2bd bcba 0b3d c63c dd3d
00000190: bcc0 153e 40ae 533d 7bb3 d03d 8520 37be
000001a0: 6dfb 42bd 0c9f f13d ae54 24be ca8b fbbc
000001b0: eaf4 85bd e6bf f83d fe1a 6f3d 7ad3 bebc
000001c0: 7764 103d 13f0 683e e538 60bc cbcd 95bc
000001d0: c630 0f3e 4317 153d 6d66 113e 202a 313d
000001e0: 873c bfbd 8c85 45be ed52 533d 5fc3 f2bd
000001f0: e139 e2bc 12c8 373e 5626 aa3d 0ac8 dbbc
00000200: 155c 0e3e 0d7a 80bd 7d42 903d cee0 053e
00000210: 5c62 21be c66e 9ebc 2b13 32be 7e21 393d
00000220: fccb 5d3e 3f3a 4c3d 13d5 493e e692 8bbd
00000230: da85 0dbe 8bce 3ebb a492 17be 4faa edbd
00000240: 8db2 d43d 7f94 0d3d 9c92 05be 7f7a 2a3e
00000250: 51d4 13bd 2cdf 2b3e da71 943d cc52 98bc
00000260: 3a6a 893e 2be3 fabd a601 6abd 33c5 87bc
00000270: 99cc 2ebe 45bf 5a3b e251 f13c b8a1 33be
00000280: 5fbf 943d b0ae 0f3e d987 1e3e 2cd4 c0bd
00000290: d9c5 00be 2838 4c3d 3e69 cf3c 2a30 1b3d
000002a0: db1a 0cbd 1ad9 403e 9475 093e e0f1 093e
000002b0: 4167 6e3d 17f4 073e 542d 36bd 9a49 dc3d
000002c0: 0aaf df3d ae91 d6bd a160 6c3e 8eef 883d
000002d0: 4d37 273e 748b f83c c5e4 7d3c b502 433d
000002e0: c67e 183d 6179 91bd 135e f53d 0aeb 203e
000002f0: 6283 f3bd 04a3 823e be3b 003e 01fe 24be
00000300: 8ff9 5d3e ed11 ba3d 4bcb 3c3d 1b3d 0cbd
00000310: 1706 08bd 4972 e03a 9c79 093e 75c0 d43d
00000320: 5f26 7cbd c191 223e 32c1 d33c 4fb4 e43d
00000330: d740 9a3c 39bc cfbc 77e2 3e3e a1d9 15bd
00000340: 867b 3d3e 465e 383e 0545 b1bd a430 e53d
00000350: 79c2 193b de78 4f3d 3eaf a23c 2512 02be
00000360: 9b77 3e3e 6031 683e e0b1 ba3c b5eb cc3c
00000370: bf6e c03d 0b7d 2a3c 6642 c93d 77e2 1cbc
00000380: 9905 06be 6a0d 343e a6ca bdbd 14d8 42bc
00000390: b36f 7cbc 523c 5fbd 52cb 3a3d 877b 12be
000003a0: fcba 033e 9baf 3cbb 5bd6 d5bd 17d8 98bd
000003b0: c5a1 b03d 0f0d 9bbd 38aa 19bd 2578 0b3e
000003c0: a43b da3d d16e 923c 8eff 533d c02a 4a3e
000003d0: da4c a2bd 46ea 5b3e ef04 a3bd 186a 70bd
000003e0: 1e7f 533e 429e 04be ef08 1a3e 879d 91bc
000003f0: e976 df3c d796 96bd 99d6 21be 9912 f83d

conv2.bias f4 [32]
-0.005367623 0.0065968614 -0.028970325 -0.019981015 -0.029597413 0.009064415 0.012737284 -0.017977104
0.01467341 0.010139315 -0.030493986 0.018219747 -0.017972764 -0.001252252 0.06344598 0.014542947
0.023938052 0.066604406 -0.038192227 0.015551693 0.030907169 -0.02568697 0.03069832 0.007414411
0.04344886 0.026989974 0.015510403 -0.009632361 0.031586904 -0.017816326 -0.03119207 0.018124966
00000000: e3e2 afbb 7c2a d83b 2d53 edbc 3aaf a3bc
00000010: 4676 f2bc e982 143c 0bb0 503c b844 93bc
00000020: be68 703c 5f1f 263c 86ce f9bc 9441 953c
00000030: 9e3b 93bc 9b22 a4ba f7ef 813d 8a45 6e3c
00000040: bc19 c43c e467 883d 746f 1cbd 87cc 7e3c
00000050: 0831 fd3c 7b6d d2bc 0b7b fb3c 96f4 f23b
00000060: 6ff7 313d 141a dd3c 581f 7e3c 0dd1 1dbc
00000070: 4561 013d 8bf3 91bc 8386 ffbc cf7a 943c

exp_avg f4 [64, 32, 3, 3]
-0.00080546975 -0.0009090428 0.00045621535 -0.0016420793 -0.0015406626 -0.00061721384 -0.00477743 -8.1739476e-05
-0.002018278 -0.0003151807 -6.416754e-05 -9.853042e-05 -0.00018612541 6.930141e-05 -2.2494596e-05 -0.002751443
-0.00053501164 0.0001776617 -0.009602426 -0.00060661236 0.003207897 -0.0004996787 0.007175083 0.007506895
-0.0032735344 -0.0013778876 0.0049054557 -0.006314678 0.0009548528 0.0022894875 0.0007258148 0.00431787
0.0051315674 -0.00017679813 -0.00014254852 0.004567932 -0.014448762 -0.0009443943 0.00405181 -0.011611471
0.001429697 0.0052622175 -0.01283901 -0.0012723751 0.0052309916 -3.6659027e-12 5.9541367e-08 -8.1750905e-08
-1.3904694e-08 -2.7210287e-08 6.2945276e-08 -1.2392931e-07 -6.911381e-08 -1.11134915e-08 -0.0019067888 0.0003531676
-0.00013048798 0.001973174 0.0035770568 0.0017693517 -0.0007722852 0.001994504 0.003007185 -0.0041615353
-0.00021612179 0.0016487223 -0.0034160083 0.0014936485 0.002104818 -0.0058738226 -0.0024500296 0.0011354312
-0.002542746 -0.0014293276 -4.1615617e-06 -0.0033611883 -9.513259e-05 0.0010154579 -0.0016741704 0.0008039041
0.0005223307 -9.351604e-26 2.2742244e-25 9.145808e-25 -3.3906033e-25 2.6441806e-25 -5.176711e-26 2.4684123e-25
-7.6446384e-26 1.6999143e-25 2.6670393e-06 2.532246e-07 -6.07953e-06 2.3490186e-06 -6.834125e-07 -6.2911768e-06
-1.1038371e-06 2.4511232e-06 1.1448228e-06 -0.0005984785 -0.0009266466 -0.0010405786 -0.0001820545 0.0001547402
-0.0004871758 9.0489855e-05 0.00075829425 -0.00089062745 0.0 0.0 0.0 0.0
0.0 0.0 0.0 0.0 0.0 -0.0097308885 0.0014360104 0.0033765545
-0.0061228788 0.00010507417 0.0040688477 -0.009520721 -0.004677763 0.0038215453 -0.0030394671 -0.0004717277
0.0017847497 0.00038624465 0.0029156061 0.0043360735 -0.0029759526 -0.0010859721 0.0018892878 -0.0004105055
0.0005535761 -0.0002567189 0.00034237292 0.0011828458 -0.0003272775 0.0001259848 0.000411789 -0.00015619422
-0.0022496888 -0.001348054 -0.00077496306 -0.00027326398 0.0008713685 -0.00063847087 -0.00023757353 0.0033496236
0.003805897 -0.015773801 -0.0005011614 0.003885536 -0.0121586295 0.001206161 0.004663252 -0.008425685
0.004813703 0.010378535 0.0006551331 -9.499925e-05 0.00024434298 -0.0009002378 -0.00047044776 0.0014597771
-0.0030278387 -0.0017314041 -0.00036723173 -0.0029384312 0.00075184996 0.0012759791 0.0006313685 0.00089809165
0.0020586178 -0.0019591444 -0.0024491313 0.0025702117 -0.0012287784 -0.00094849407 0.00029227877 -0.00020879945
-0.00030751977 0.0026568472 -0.0005550399 0.0002619793 0.0017490012 0.0 0.0 0.0
0.0 0.0 0.0 0.0 0.0 0.0 2.5192577e-07 9.819854e-07
-3.2108107e-06 -3.767148e-07 4.1651703e-07 -4.67285e-07 -9.112559e-07 -1.4639661e-06 -1.158892e-06 1.3944576e-27
1.4462117e-27 1.323318e-27 -2.0844714e-26 1.1506723e-27 1.3582311e-27 -3.6920616e-26 1.4098964e-27 -4.480415e-26
-0.0023817446 0.00025117915 -3.2838245e-05 -0.004450355 -0.0020826182 -0.0019399328 -0.0018884037 -0.00047187373
-0.0006349289 -0.008763521 0.0006860944 0.0028151677 -0.005430271 0.0013527897 0.002879184 -0.0077954936
-0.0027477266 0.00249845 -0.010228442 -0.00089039817 0.0015962437 -0.009869527 -0.0018510009 0.0006875098
-0.007244093 0.0014044585 0.004143723 -4.6949167e-06 8.013582e-06 5.3425506e-06 -0.00018909118 -0.00026246745
-0.000110714696 -0.0017736362 -0.0015089506 -0.00093930727 -4.472087e-08 1.2880169e-08 -1.2060455e-07 7.5378374e-08
00000000: 2926 53ba d44c 6eba 3030 ef39 0a3b d7ba
00000010: 0ff0 c9ba 85cc 21ba fd8b 9cbb 8c6b abb8
00000020: 1645 04bb d63e a5b9 b091 86b8 1ea2 ceb8
00000030: a92a 43b9 e955 9138 c7b2 bcb7 8e51 34bb
00000040: 0640 0cba b34a 3a39 7e53 1dbc 1105 1fba
00000050: 953b 523b dffc 02ba f51c eb3b 66fc f53b
00000060: cb88 56bb 3c9a b4ba f2bd a03b 5ceb cebb
00000070: 164f 7a3a 3a0b 163b 9b44 3e3a eb7c 8d3b
00000080: b526 a83b e362 39b9 1479 15b9 97ae 953b
00000090: 80ba 6cbc 3b91 77ba 0cc5 843b 0a3e 3ebc
000000a0: ac64 bb3a ae6e ac3b b65a 52bc d3c5 a6ba
000000b0: bd68 ab3b 84fb 80ac 6dba 7f33 098f afb3
000000c0: 7ee1 6eb2 0ebc e9b2 882c 8733 6e11 05b4
000000d0: b86b 94b3 a7ed 3eb2 37ed f9ba 5a29 b939
000000e0: 9ad3 08b9 5e50 013b 0e6d 6a3b 97e9 e73a
000000f0: 2f73 4aba 39b6 023b 3114 453b 7d5d 88bb
00000100: c09e 62b9 f119 d83a 1cdf 5fbb 87c6 c33a
00000110: fcf0 093b 3279 c0bb ad90 20bb c0d2 943a
00000120: 33a4 26bb 4758 bbba 8ba3 8bb6 6247 5cbb
00000130: ec81 c7b8 1d19 853a d66f dbba 17bd 523a
00000140: 05ed 083a d588 e795 86c4 8c16 4786 8d17
00000150: 41de d196 b7aa a316 4e2b 8095 8ec9 9816
00000160: a745 bd95 6f70 5216 63fb 3236 edf2 8734
00000170: c4fe cbb6 d5a3 1d36 c073 37b5 cc18 d3b6
00000180: 8e27 94b5 fa7d 2436 d0a7 9935 36e3 1cba
00000190: 33ea 72ba 0664 88ba e2e5 3eb9 c241 2239
000001a0: a16b ffb9 5fc5 bd38 44c8 463a ff78 69ba
000001b0: 0000 0000 0000 0000 0000 0000 0000 0000
000001c0: 0000 0000 0000 0000 0000 0000 0000 0000
000001d0: 0000 0000 4e6e 1fbc 8338 bc3a 2f49 5d3b
000001e0: 6ea2 c8bb 445b dc38 f853 853b ccfc 1bbc
000001f0: ec47 99bb e472 7a3b cc31 47bb 3852 f7b9
00000200: 43ee e93a e180 ca39 c113 3f3b 9f15 8e3b
00000210: 3308 43bb 2d57 8eba fba1 f73a 1e39 d7b9
00000220: dd1d 113a 3a98 86b9 8480 b339 b809 9b3a
00000230: 7196 abb9 ca1a 0439 62e5 d739 11c8 23b9
00000240: 846f 13bb 30b1 b0ba e426 4bba df44 8fb9
00000250: 8d6c 643a 0e5f 27ba 291d 79b9 5c85 5b3b
00000260: 5b6c 793b 0f38 81bc 5f60 03ba 7aa4 7e3b
00000270: fd34 47bc 0c18 9e3a 31ce 983b e20b 0abc
00000280: 44bc 9d3b bb0a 2a3c 3dbd 2b3a 563a c7b8
00000290: 291b 8039 f0fd 6bba 6ea6 f6b9 fe55 bf3a
000002a0: b46e 46bb 48f0 e2ba 0289 c0b9 b292 40bb
000002b0: cc17 453a c13e a73a 6c82 253a e96d 6b3a
000002c0: e0e9 063b fd64 00bb 9b81 20bb ff70 283b
000002d0: f60e a1ba 5ca4 78ba fe3c 9939 2df1 5ab9
000002e0: 9b3a a1b9 801e 2e3b 1980 11ba 445a 8939
000002f0: be3e e53a 0000 0000 0000 0000 0000 0000
00000300: 0000 0000 0000 0000 0000 0000 0000 0000
00000310: 0000 0000 0000 0000 6a40 8734 c3cc 8335
00000320: 4f79 57b6 4a3f cab4 aa9d df34 29df fab4
00000330: 079d 74b5 7e7d c4b5 3a8b 9bb5 ecf5 dc12
00000340: 5129 e512 28b0 d112 a16f ce94 d054 b612
00000350: 6638 d712 71d2 3695 3168 df12 02dc 5d95
00000360: 0b17 1cbb b2b0 8339 ccbb 09b8 49d4 91bb
00000370: 897c 08bb 5845 feba 5084 f7ba d265 f7b9
00000380: 5b71 26ba df94 0fbc 04db 333a ad7e 383b
00000390: 6af0 b1bb 1750 b13a b1b0 3c3b 5771 ffbb
000003a0: 3413 34bb 09bd 233b 3295 27bc 9c69 69ba
000003b0: 0d39 d13a ccb3 21bc 499d f2ba 003a 343a
000003c0: db5f edbb cf15 b83a 11c8 873b 0789 9db6
000003d0: 1372 0637 2944 b336 c746 46b9 c99b 89b9
000003e0: 802f e8b8 5b79 e8ba fbc7 c5ba d83b 76ba
000003f0: 1e13 40b3 9547 5d32 877f 01b4 b3df a133

exp_avg_sq f4 [64, 32, 3, 3]
0.03042275 0.027592378 0.030775243 0.030332359 0.026546359 0.028324332 0.02897735 0.02502764
0.026091076 0.0042521954 0.002942252 0.004057629 0.004453095 0.0038737238 0.0039936807 0.004098494
0.0043978677 0.0035555833 0.2641889 0.14941652 0.24298838 0.22727206 0.095461726 0.16021843
0.25380188 0.1416874 0.22754812 0.13320631 0.086611636 0.12493103 0.12180345 0.065171294
0.09146668 0.1280404 0.08064853 0.11803651 0.40207765 0.14810514 0.34295094 0.29862645
0.010599274 0.16220476 0.39155158 0.16653368 0.31663167 2.6275623e-08 2.9249907e-08 5.629897e-08
9.95641e-08 6.4912946e-08 6.926777e-08 2.8228402e-07 1.10463546e-07 4.2017785e-08 0.0031863123 0.004186234
0.0027857563 0.004731081 0.0044756746 0.0034873318 0.0040402883 0.0031022201 0.004220292 0.043728203
0.02629212 0.042135928 0.038651094 0.018507674 0.029253952 0.04638845 0.029809149 0.046188403
0.074775875 0.047110397 0.077080965 0.064624116 0.033208568 0.061569814 0.07223783 0.0451711
0.0652946 8.031753e-10 3.0899002e-08 2.9695693e-07 8.360789e-08 1.868561e-09 4.0355724e-10 1.1363453e-07
2.3132276e-09 9.966578e-08 7.735702e-05 0.000119892036 0.00028424538 0.00016465233 9.049777e-05 0.0002716209
0.00017415978 5.1307125e-05 0.00020956108 0.036771785 0.033165846 0.041798804 0.038067725 0.03241378
0.039387193 0.03780305 0.031948 0.033254344 0.0 0.0 0.0 0.0
0.0 0.0 0.0 0.0 0.0 0.25873196 0.13058078 0.24085928
0.21662101 0.06361113 0.1479273 0.2560741 0.13593724 0.24120513 0.02712635 0.018996725
0.024348965 0.028262686 0.016026253 0.017353704 0.029240185 0.019886715 0.022796761 0.018249582
0.017641991 0.021970086 0.019915389 0.016942997 0.02205454 0.019144692 0.015123156 0.016721126
0.0017316784 0.0021817307 0.0020356714 0.0028253442 0.0026666054 0.0026937246 0.00223359 0.0017324763
0.0021724692 0.33019143 0.11750372 0.2702262 0.25196913 0.011878567 0.13276261 0.3193992
0.1406131 0.25134164 0.019510683 0.015697025 0.01770242 0.02014323 0.012160778 0.015049785
0.018410897 0.012373786 0.014351246 0.037189182 0.036693804 0.039244685 0.04279503 0.038362715
0.040270645 0.038668215 0.034188148 0.044875223 0.07926716 0.056678012 0.082813635 0.07753916
0.045080006 0.069065295 0.07896469 0.053631674 0.068480864 0.0 0.0 0.0
0.0 0.0 0.0 0.0 0.0 0.0 2.8094248e-05 3.265578e-05
3.0058249e-05 4.3025928e-05 2.540708e-05 4.1120384e-05 3.8414993e-05 2.4288729e-05 4.074324e-05 1.2630861e-11
1.35454824e-11 1.1444745e-11 2.8118547e-09 5.633693e-11 1.1902963e-11 8.6951895e-09 1.3434427e-11 1.2802258e-08
0.021652741 0.019356215 0.022105802 0.023682414 0.011309148 0.016776932 0.023777883 0.01416988
0.025985641 0.14517839 0.0815351 0.13677703 0.125949 0.047556974 0.09370196 0.14572701
0.08206598 0.14538585 0.18561588 0.07668683 0.16465141 0.13784164 0.00855412 0.08462708
0.1776824 0.07835853 0.15386021 0.0016568247 0.0015087847 0.0021685695 0.0019736707 0.0016666312
0.0021045057 0.0019395817 0.0017711049 0.00233326 3.9365377e-06 5.6427116e-06 1.9821355e-05 7.2802113e-06
00000000: 2239 f93c 6909 e23c 5d1c fc3c 917b f83c
00000010: c077 d93c 6e08 e83c e861 ed3c c406 cd3c
00000020: f4bc d53c 0056 8b3b ccd2 403b dcf5 843b
00000030: 45eb 913b 4dde 7d3b 6cdd 823b a94c 863b
00000040: fd1b 903b ca04 693b c443 873e a500 193e
00000050: f2d1 783e 02ba 683e 7081 c33d 4d10 243e
00000060: 52f2 813e 8016 113e 6002 693e 3c67 083e
00000070: 7161 b13d d7db ff3d 1674 f93d 8778 853d
00000080: e252 bb3d 061d 033e 0e2b a53d 20bd f13d
00000090: 1fdd cd3e e0a8 173e 4497 af3e 91e5 983e
000000a0: 94a8 2d3c 0119 263e 7379 c83e ce87 2a3e
000000b0: 8c1d a23e b5b4 e132 3a41 fb32 5fcd 7133
000000c0: f1cf d533 4566 8b33 5cc0 9433 d28c 9734
000000d0: fa37 ed33 0b77 3433 73d1 503b ad2c 893b
000000e0: 3c91 363b 2f07 9b3b aea8 923b b88b 643b
000000f0: 6564 843b 9e4e 4b3b 604a 8a3b 581c 333d
00000100: 9262 d73c b996 2c3d 9c50 1e3d 689d 973c
00000110: fca5 ef3c d101 3e3d 5132 f43c 0d30 3d3d
00000120: 1824 993d d5f6 403d a0dc 9d3d a659 843d
00000130: b505 083d a130 7c3d 6df1 933d 5505 393d
00000140: 2db9 853d 70c6 5c30 d0b5 0433 736d 9f34
00000150: ec8b b333 1368 0031 a2db dd2f 3e07 f433
00000160: bbf6 1e31 d807 d633 bc3a a238 8c6e fb38
00000170: c506 9539 86a6 2c39 9fc9 bd38 5768 8e39
00000180: a99e 3639 9b32 5738 a0bd 5b39 039e 163d
00000190: e9d8 073d 3935 2b3d e7ec 1b3d 50c4 043d
000001a0: 7754 213d 5fd7 1a3d e8db 023d b535 083d
000001b0: 0000 0000 0000 0000 0000 0000 0000 0000
000001c0: 0000 0000 0000 0000 0000 0000 0000 0000
000001d0: 0000 0000 8478 843e f8b6 053e d1a3 763e
000001e0: e6d1 5d3e 8d46 823d 417a 173e 251c 833e
000001f0: 2233 0b3e 7afe 763e 1438 de3c 059f 9b3c
00000200: 7b77 c73c 2687 e73c 7d49 833c 5b29 8e3c
00000210: 1d89 ef3c 77e9 a23c 46c0 ba3c 2680 953c
00000220: f085 903c 9cfa b33c 9925 a33c 0acc 8a3c
00000230: b9ab b43c 54d5 9c3c 1dc7 773c befa 883c
00000240: 7cf9 e23a 5efb 0e3b e668 053b 6929 393b
00000250: 37c2 2e3b 3389 303b 6c61 123b 4214 e33a
00000260: fc5f 0e3b da0e a93e caa5 f03d 175b 8a3e
00000270: 1902 813e 529e 423c ecf2 073e 4b88 a33e
00000280: e1fc 0f3e daaf 803e ded4 9f3c 0c97 803c
00000290: aa04 913c 6a03 a53c 003e 473c 6093 763c
000002a0: 73d2 963c 6cbb 4a3c 7d21 6b3c af53 183d
000002b0: 3e4c 163d 09bf 203d d749 2f3d 3922 1d3d
000002c0: d5f2 243d 9062 1e3d df08 0c3d 15cf 373d
000002d0: d256 a23d 3427 683d 329a a93d dacc 9e3d
000002e0: d0a5 383d 1b72 8d3d 3db8 a13d e3ac 5b3d
000002f0: b23f 8c3d 0000 0000 0000 0000 0000 0000
00000300: 0000 0000 0000 0000 0000 0000 0000 0000
00000310: 0000 0000 0000 0000 f0ab eb37 e0f7 0838
00000320: 9925 fc37 bd76 3438 4a21 d537 ad78 2c38
00000330: c91f 2138 a6bf cb37 b9e3 2a38 5734 5e2d
00000340: 6e4b 6e2d 8d56 492d ac3a 4131 bfc5 772e
00000350: 2e66 512d d961 1532 4857 6c2d edf0 5b32
00000360: 1761 b13c ed90 9e3c 3a17 b53c 9f01 c23c
00000370: 014a 393c c76f 893c d6c9 c23c c928 683c
00000380: d7df d43c a5a9 143e e0fb a63d 470f 0c3e
00000390: c6f8 003e 1acb 423d d0e6 bf3d 7639 153e
000003a0: 3512 a83d 07e0 143e 1712 3e3e fc0d 9d3d
000003b0: 619a 283e 5c26 0d3e 9426 0c3c f650 ad3d
000003c0: 60f2 353e 707a a03d 888d 1d3e d029 d93a
000003d0: 6ac2 c53a 8f1e 0e3b b358 013b dd72 da3a
000003e0: bfeb 093b 9039 fe3a 6b24 e83a 9be9 183b
000003f0: 9a16 8436 8656 bd36 0946 a637 8a48 f436

exp_avg f4 [64]
-3.426451e-09 -5.111209e-09 3.6067438e-10 -3.621991e-09 -2.200916e-09 -2.8667016e-10 -5.6718347e-10 -4.356277e-09
-3.720587e-09 -7.855691e-10 7.077498e-10 1.8261942e-09 -6.585023e-10 -1.6155765e-09 4.2554773e-09 -5.79162e-10
4.28037e-09 -3.344078e-09 -1.2390954e-09 -1.0265134e-09 -2.2886553e-09 3.1506624e-09 -9.0083324e-10 5.242466e-09
-5.417956e-10 -9.900667e-10 5.5712956e-10 -6.3614936e-10 1.5167848e-09 1.5830242e-09 -2.120544e-09 1.2919062e-09
-5.900864e-10 -4.228978e-10 -4.4109454e-09 1.698954e-10 -2.4496669e-11 -6.8834436e-09 -2.5150944e-09 2.5140008e-09
-1.18586e-09 6.808887e-10 -5.118896e-10 -5.6258964e-10 -3.1227225e-09 1.4204178e-10 1.9807381e-10 3.9689736e-09
4.9243754e-10 -2.6056413e-09 2.6437545e-09 -1.5022906e-09 -1.2873771e-09 -1.99252e-09 4.1946344e-09 1.4230332e-09
1.2984147e-09 1.5391581e-10 -5.2851057e-10 5.3423896e-09 -4.0153845e-09 1.650298e-09 -2.5518077e-09 3.7172727e-09
00000000: c376 6bb1 ab9e afb1 6848 c62f bde6 78b1
00000010: ec3e 17b1 3d99 9daf fde7 1bb0 38ae 95b1
00000020: 42ad 7fb1 83ef 57b0 778b 4230 7ffd fa30
00000030: fb01 35b0 0b0b deb0 9337 9231 e732 1fb0
00000040: 8812 9331 a4cd 65b1 cb4c aab0 3b15 8db0
00000050: 7346 1db1 0a83 5831 819e 77b0 3821 b431
00000060: 7aed 14b0 e012 88b0 8224 1930 08dd 2eb0
00000070: 1f77 d030 b691 d930 01b9 11b1 e98e b130
00000080: a433 22b0 937d e8af 168f 97b1 4ecd 3a2f
00000090: 9879 d7ad 6983 ecb1 02d6 2cb1 c5c2 2c31
000000a0: bdfb a2b0 4829 3b30 07b5 0cb0 baa4 1ab0
000000b0: 8497 56b1 352d 1c2f d2c8 592f 765f 8831
000000c0: 365c 0730 ed0e 33b1 6cad 3531 2779 ceb0
000000d0: 8eef b0b0 c8ec 08b1 6520 9031 8894 c330
000000e0: e873 b230 733b 292f a046 11b0 2890 b731
000000f0: b2f7 89b1 b3d0 e230 e05b 2fb1 f472 7f31

exp_avg_sq f4 [64]
4.0212655e-14 9.826525e-14 6.295056e-14 5.037535e-14 5.3673252e-14 4.3169973e-14 6.814822e-14 1.1720249e-13
8.4585754e-14 1.05339924e-13 1.1613483e-13 3.8370674e-14 7.748224e-14 2.731386e-14 6.372324e-14 9.6465106e-14
6.7083796e-14 4.5970545e-14 2.6031698e-14 4.2424394e-14 4.7711336e-14 5.245846e-14 9.559983e-14 1.2037227e-13
6.4951117e-14 4.793106e-14 2.9936774e-14 2.5182366e-14 1.1391582e-13 6.7523786e-14 7.936299e-14 7.144514e-14
7.8831134e-14 5.7749934e-14 4.9821556e-14 6.5795954e-14 3.3586896e-14 6.405812e-14 4.0884403e-14 1.915348e-13
5.435309e-14 4.324728e-14 6.156153e-14 9.8249676e-14 8.853763e-14 5.8414726e-14 6.260751e-14 6.096306e-14
9.8528445e-14 6.231827e-14 3.4326447e-14 9.303277e-14 4.149867e-14 6.382933e-14 5.633566e-14 5.956078e-14
5.5972398e-14 3.893265e-14 6.856891e-14 5.5673463e-14 8.3938444e-14 1.6905839e-14 6.1434344e-14 5.373674e-14
00000000: 091a 3529 0f46 dd29 87c0 8d29 d3de 6229
00000010: 0cb9 7129 976b 4229 c674 9929 51f5 032a
00000020: 5e78 be29 5534 ed29 96c1 022a 60ce 2c29
00000030: 7879 ae29 7905 f628 f27d 8f29 5938 d929
00000040: 2d0f 9729 6e08 4f29 0279 ea28 ff0f 3f29
00000050: 6ddf 5629 7d40 6c29 8d45 d729 f286 072a
00000060: c541 9229 c0dc 5729 c0d2 0629 95d2 e228
00000070: 0042 002a d00c 9829 a6b5 b229 52e1 a029
00000080: 0e83 b129 920a 8229 5860 6029 c928 9429
00000090: 0e43 1729 fe3e 9029 8220 3829 26a6 572a
000000a0: d9c8 7429 b8c4 4229 ce9f 8a29 153d dd29
000000b0: 785e c729 cc89 8329 c6fa 8c29 d046 8929
000000c0: c8dd dd29 0954 8c29 b397 1a29 be7d d129
000000d0: b6e4 3a29 1bbb 8f29 98b6 7d29 741e 8629
000000e0: c813 7c29 4a56 2f29 4967 9a29 22bb 7a29
000000f0: 3803 bd29 3646 9828 7d56 8a29 3e02 7229

exp_avg f4 [64]
0.0003283064 -0.00015090908 1.8143175e-05 -0.00050966145 -0.00016220241 -0.000284728 0.00038507057 0.00014770363
0.00095132494 0.0007140442 0.00021460424 -0.00021004582 0.00076732575 0.00062809454 -0.00026138072 -4.77735e-05
0.00060669973 0.00032744187 0.00052690884 0.00037110053 9.255443e-06 1.1939043e-05 0.00040180024 -0.00040588272
0.00031065958 4.7150148e-05 -0.00011052272 0.00025528448 0.000612152 0.00035504007 -3.4880166e-05 -0.00014486338
-0.00033262686 -0.00021505445 3.0493532e-06 -1.5255101e-06 4.2384225e-05 0.00019923384 -0.0008349879 0.0009036608
0.00075562554 0.00010511269 0.00015541777 0.00082579424 -0.00044349 0.0005721058 0.00027774632 0.0007571054
-5.80388e-05 0.00038288118 0.00052898197 0.000532799 0.00027662946 -0.00041666435 0.00086482626 -3.9850445e-05
-0.00031710492 -0.00040133836 0.0006166889 -0.0003975144 -8.228927e-05 1.5917254e-05 -0.0005611506 -0.00034391173
00000000: 8a20 ac39 593d 1eb9 2c32 9837 cd9a 05ba
00000010: e114 2ab9 8c47 95b9 4ce3 c939 e4e0 1a39
00000020: 5662 793a b22e 3b3a 6307 6139 bf3f 5cb9
00000030: 5c26 493a b6a6 243a ed09 89b9 6860 48b8
00000040: ee0a 1f3a 81ac ab39 4120 0a3a 4590 c239
00000050: d347 1b37 cd4d 4837 b7a8 d239 a8cc d4b9
00000060: 06e0 a239 16c3 4538 6fc8 e7b8 b4d7 8539
00000070: d378 203a ac24 ba39 4b4c 12b8 78e6 17b9
00000080: 6c64 aeb9 3d80 61b9 7da3 4c36 21c0 ccb5
00000090: b7c5 3138 6de9 5039 17e3 5aba a6e3 6c3a
000000a0: 2c15 463a f26f dc38 a4f7 2239 1d7a 583a
000000b0: 3884 e8b9 5ff9 153a 7b9e 9139 7c78 463a
000000c0: b06e 73b8 71bd c839 61ab 0a3a 89ab 0b3a
000000d0: 9408 9139 be73 dab9 82b5 623a 1725 27b8
000000e0: 1a41 a6b9 b96a d2b9 4ba9 213a 7b69 d0b9
000000f0: b792 acb8 0b86 8537 2e1a 13ba 0d4f b4b9

exp_avg_sq f4 [64]
0.0018102215 0.00486729 0.0022700885 0.0017058036 0.0015374233 0.0017353777 0.0043400247 0.0077300966
0.003471674 0.002244804 0.0041911826 0.0020357375 0.0017811205 0.0015950818 0.0018842525 0.0037964652
0.0029633588 0.0029873224 0.0015723435 0.0024377329 0.0021106356 0.0013486134 0.0036523656 0.0024229994
0.0016045461 0.002543275 0.0015696769 0.0018422633 0.005788726 0.0036323369 0.002638476 0.00230977
0.0040040826 0.006017483 0.0014817608 0.0026368464 0.0014522095 0.002789553 0.0025172818 0.008107526
0.0016169877 0.0020325312 0.003472771 0.0037605397 0.0030220102 0.002426762 0.0020550773 0.0018839088
0.0031710265 0.0029602349 0.0051503372 0.004479893 0.0016545384 0.0020736665 0.0019770865 0.0023908624
0.002169387 0.0014532595 0.0044131065 0.0037702764 0.0022820537 0.0023542785 0.0020949794 0.0021108699
00000000: f444 ed3a ca7d 9f3b c4c5 143b 4595 df3a
00000010: 5e83 c93a 9d75 e33a c436 8e3b c04c fd3b
00000020: 0685 633b 901d 133b 3056 893b 026a 053b
00000030: 7d74 e93a 1012 d13a 06f9 f63a 1ece 783b
00000040: e934 423b f4c6 433b 1817 ce3a 5fc2 1f3b
00000050: 9752 0a3b f5c3 b03a 875c 6f3b 2fcb 1e3b
00000060: a24f d23a 13ad 263b 9ebd cd3a 1978 f13a
00000070: 5aaf bd3b 800c 6e3b 48ea 2c3b 835f 173b
00000080: ae34 833b 4e2e c53b a437 c23a f1ce 2c3b
00000090: 1158 be3a efd0 363b fbf8 243b 6ed5 043c
000000a0: 1bf1 d33a 3734 053b 6e97 633b 6373 763b
000000b0: eb0c 463b 4f0a 1f3b 7aae 063b 7ded f63a
000000c0: ffd0 4f3b 8000 423b 29c4 a83b 11cc 923b
000000d0: 19dd d83a 5ae6 073b 0292 013b 04b0 1c3b
000000e0: 462c 0e3b 4c7b be3a d29b 903b be16 773b
000000f0: 828e 153b 3d4a 1a3b ec4b 093b 8556 0a3b

exp_avg f4 [64]
0.00013216662 -0.0007388839 -0.0001688513 -0.00073031546 1.4813171e-05 4.952891e-05 0.000100821075 0.00019363641
-0.00081223616 0.0004131448 0.00023705642 -5.076339e-05 0.0007912915 0.0004434271 0.00027757353 0.00022232515
0.00056624756 0.00016217437 0.0006362812 0.0006043393 -0.000107155654 -0.00012882565 0.00041998623 -0.00029901575
0.00034736472 1.7942608e-05 -0.00032694603 0.00023513682 0.0007084888 0.00079940393 -0.00034141805 1.1656892e-05
-9.503827e-05 6.857562e-05 0.00012501465 -6.0134902e-05 0.00023789202 0.00012294704 -0.000613908 -6.1347244e-05
0.0006610941 0.0008128616 -0.00038887298 0.00048866484 -0.0007186485 1.7234139e-05 0.0005690391 0.0005585899
0.00032763823 0.0007796417 -0.00037627862 -5.1842177e-05 0.00010048484 0.00024183722 0.0008742082 -5.6399047e-05
-0.00018406831 -0.00041603582 0.00018946255 -1.3926297e-05 9.714953e-05 0.00021092455 -0.00013245852 -0.0001282901
00000000: 3596 0a39 a9b1 41ba ad0d 31b9 a472 3fba
00000010: 1686 7837 43bd 4f38 e76f d338 e10a 4b39
00000020: 3fec 54ba 5b9b d839 5992 7839 c6ea 54b8
00000030: ac6e 4f3a c77b e839 4a87 9139 f41f 6939
00000040: 3b70 143a 5a0d 2a39 1ccc 263a 866c 1e3a
00000050: c1b8 e0b8 5f15 07b9 9931 dc39 37c5 9cb9
00000060: 811e b639 7583 9637 f469 abb9 0f8f 7639
00000070: e1b9 393a 178f 513a 5b00 b3b9 f891 4337
00000080: 484f c7b8 41d0 8f38 5d16 0339 5c39 7cb8
00000090: a772 7939 58eb 0039 abee 20ba 8da7 80b8
000000a0: 464d 2d3a 3816 553a a6e1 cbb9 be19 003a
000000b0: af63 3cba 0892 9037 912b 153a 556e 123a
000000c0: dcc6 ab39 de60 4c3a 4347 c5b9 1d71 59b8
000000d0: 63bb d238 af95 7d39 1f2b 653a 048e 6cb8
000000e0: 7602 41b9 621f dab9 77aa 4639 fda4 69b7
000000f0: c2bc cb38 a12b 5d39 90e4 0ab9 9d85 06b9

exp_avg_sq f4 [64]
0.001647045 0.007150709 0.0027414071 0.001713472 0.0017795943 0.001286649 0.004665478 0.009932359
0.0036883575 0.0027919158 0.0075987345 0.0019129177 0.0021078975 0.001013939 0.0022633174 0.0051588416
0.004003972 0.003159431 0.0012326704 0.0035782252 0.0021657578 0.0014861968 0.006432269 0.0025407001
0.0025595091 0.0014029142 0.0012674846 0.0015036628 0.007320036 0.0063273795 0.0027682926 0.0032911785
0.006866569 0.008576411 0.0012873675 0.0038317558 0.0015031522 0.0033478593 0.0023390525 0.010376273
0.0014626494 0.0026086417 0.004039362 0.004121572 0.0035687243 0.003005192 0.0031002602 0.002378083
0.0043562036 0.0044558346 0.0075079547 0.0038335759 0.0022912554 0.0024375883 0.0021287014 0.003575756
0.0023539811 0.001112539 0.0043699807 0.0030772653 0.0031048174 0.003507892 0.0021703057 0.0020324553
00000000: a9e1 d73a 7f50 ea3b 2ea9 333b 9496 e03a
00000010: 4741 e93a c7a4 a83a dee0 983b 55bb 223c
00000020: 5fb8 713b 93f8 363b cefe f83b deba fa3a
00000030: a724 0a3b 26e6 843a 2a54 143b 800b a93b
00000040: c033 833b 750e 4f3b 8e91 a13a a880 6a3b
00000050: 63ef 0d3b 7dcc c23a c8c5 d23b e081 263b
00000060: 70bd 273b fde1 b73a ba21 a63a 8d16 c53a
00000070: eadc ef3b e855 cf3b 3e6c 353b d0b0 573b
00000080: f500 e13b 1384 0c3c e3bc a83a 321e 7b3b
00000090: 6b05 c53a c267 5b3b ca4a 193b 3e01 2a3c
000000a0: 5fb6 bf3a bff5 2a3b a05c 843b 400e 873b
000000b0: 42e1 693b c1f2 443b bc2d 4b3b 9dd9 1b3b
000000c0: 7cbe 8e3b 4002 923b 4a05 f63b bb3c 7b3b
000000d0: e328 163b f2bf 1f3b af81 0b3b 3b57 6a3b
000000e0: 4045 1a3b 9dd2 913a 0e32 8f3b f2ab 493b
000000f0: 317a 4b3b a9e4 653b b03b 0e3b f132 053b
