checkpoint_decoder/check_point_2021_10_10_02:37:22/check_point_2021_10_10_02:37:22_epoch_10.pth (torch, 452917 bytes, 20 tensors)

conv1.weight f4 [64, 32, 3, 3]
000000 96 26 7f 3e be 75 98 3f 5b 31 88 3e e4 04 1d 3e
       0.24917063 1.1910932 0.26600155 0.15333897
000010 dd 50 12 be 75 1e 3f be 63 57 7c bd 3c 88 dc be
       -0.1428866 -0.18663962 -0.061606776 -0.4307269
000020 58 37 24 3e b0 b2 ac 3e 7a 6b 4f 3e 23 a2 3b 3e
       0.16036737 0.33730078 0.20255843 0.18323569
000030 e0 82 25 3e 37 7b 68 bf 27 d7 71 bd 99 cc bc 3f
       0.16163206 -0.9081301 -0.059043076 1.4749938
000040 c4 c0 26 3e b5 eb c6 3e e8 e9 a4 bd fc ed 7b be
       0.16284472 0.38851705 -0.080524266 -0.24602503
000050 c4 cd 9b bd fd fd 68 3e bf 96 b7 3e a1 83 22 be
       -0.07607606 0.22753139 0.35857198 -0.15870525
000060 74 c9 32 be 1d 2c d5 bd 5f bd 02 be d7 fb 04 be
       -0.17459661 -0.104088046 -0.12767552 -0.12986694
000070 4a 9e 8f be 55 0e 85 bd b3 72 72 3e db a3 56 3e
       -0.28050452 -0.06496874 0.23676567 0.20960943
000080 5b 3c 58 bd 4c 53 6e 3d 2f cc 97 bd 32 1b 9e 3c
       -0.052791934 0.058184907 -0.07411992 0.019300077
000090 1e 2c e9 3c bb de f3 bd b4 06 0e bd 3b 8e 91 3d
       0.02846342 -0.11907717 -0.03467436 0.071072064
0000a0 dc 4a c2 3e f2 c2 9d 3c 43 cb ce bc ae d0 a3 bd
       0.37947738 0.019257996 -0.025243407 -0.07998787
0000b0 8e d7 e9 bc 59 65 0f 3f 5c 78 56 3f 45 31 57 3f
       -0.028545167 0.5601402 0.83777404 0.84059554
0000c0 37 03 15 bf 38 dc d4 be 0d 08 29 3e 09 85 03 bf
       -0.5820803 -0.41574264 0.16506977 -0.5137487
0000d0 b8 4d db 3e d8 57 b3 be cd 24 9c 3e 6d a2 a1 be
       0.42832732 -0.35027957 0.30496827 -0.31569234
0000e0 4e a3 0a bf e8 e7 29 3f c0 75 ac bc b0 35 a9 be
       -0.54155433 0.66369486 -0.021052241 -0.33048773
0000f0 79 fe e6 3d ba 37 dc bd f9 69 b8 3c 2c 1c 63 3e
       0.112790056 -0.107528165 0.02251147 0.22178715
000100 e8 41 1b 3d 03 a2 c7 bd cb 63 fe 3d 85 90 8f 3e
       0.03790465 -0.09747698 0.12421378 0.28039947
000110 25 3c ea bd cc d4 27 bf 02 f3 8b 3d 9f b6 90 be
       -0.11437253 -0.6555908 0.068334594 -0.2826433
000120 1c 52 dc 3d df 13 1d be e0 80 16 3d 66 3b f6 3d
       0.107578486 -0.15339611 0.036744 0.12023048
000130 5c 72 d3 3d 97 23 08 bd a6 73 20 3e e6 88 d5 bb
       0.10324547 -0.033237066 0.15669116 -0.0065165637
000140 2d 35 94 3d 1e c9 fa bd b6 33 37 be 90 86 65 bd
       0.07236705 -0.12245391 -0.1789082 -0.056036532
000150 88 1c cb bd c9 b0 ff bd 01 c2 34 3e 96 76 15 3e
       -0.09917551 -0.12484891 0.17652132 0.14596018
000160 b4 d1 75 3e 4b eb d1 be 7b a9 0b 3f e5 9f 4a 3f
       0.24005777 -0.40999827 0.5455548 0.7915023
000170 62 3c 12 bd 9d cc 28 be 47 99 0b 3e a0 92 5a 3e
       -0.035702117 -0.16484304 0.1363269 0.21344995
000180 10 a2 6b bf a6 2b 19 bf 25 84 d5 3e 3d 5c 3b be
       -0.9204416 -0.5983223 0.4170238 -0.18296905
000190 e3 97 31 be f1 9f 9d 3d b4 32 37 be 1c ac 25 be
       -0.17343096 0.07696522 -0.17890435 -0.16178936
0001a0 03 8f dd 3c a3 2d 26 3f cf 24 ef bd a4 22 8e 3e
       0.027045732 0.64913386 -0.116769426 0.27760804
0001b0 0d 83 ca 3c e5 72 8e bc 0b 3a 0c bc 0f 10 08 3d
       0.024720693 -0.01738877 -0.00855876 0.03321844
0001c0 c9 c0 63 bd 79 82 63 bd 3b 40 51 3c 9a 50 db bc
       -0.055603776 -0.05554435 0.012771661 -0.026771832
0001d0 f8 7b 6b bd 6f d7 c0 3d e6 be f1 3d b1 2b ed 3d
       -0.057491273 0.09416091 0.11803989 0.11580599
0001e0 e1 e1 17 3d 91 83 8d be 16 8b 73 3d 91 3d b1 3d
       0.03708065 -0.2763944 0.059458815 0.08654321
0001f0 73 2a df bd e4 13 c9 3d 11 52 18 bf dc 48 52 be
       -0.108967684 0.09818247 -0.59500223 -0.20535606
000200 da ea 90 be 67 97 92 bc a8 32 ea 3e 80 b2 b7 be
       -0.28304178 -0.01789446 0.45741773 -0.35878372
000210 7b da 23 be 45 fa 32 3c fb 1d 14 bf 2c 53 1d bd
       -0.16001312 0.010923927 -0.57858247 -0.038409397
000220 fc ce 99 bd 9f d9 31 bd 6f 16 1f be 1a 65 48 3c
       -0.07510182 -0.04342043 -0.15535901 0.012231136
000230 b5 9c a4 3e b8 0e 16 3f 6c ee b7 3d b8 fb 15 3f
       0.32150808 0.5861621 0.08981022 0.5858722
000240 98 88 a5 3e 19 d8 da 3e 78 11 a7 bd 7a 85 8e be
       0.32330775 0.42742994 -0.08157629 -0.2783621
000250 84 ea 09 bf 13 c9 96 be a2 9a 08 bd b3 b9 6c 3e
       -0.5387347 -0.29450282 -0.033350594 0.23117714
000260 37 cc ca 3e 64 61 18 be 54 8e a4 be 67 92 8d bd
       0.3960893 -0.14880902 -0.32139838 -0.0691269
000270 3a e1 1f 3e 8d 05 92 3f 23 ba 1b be d7 cd ad 3c
       0.15613261 1.1407944 -0.15207724 0.021216316
000280 15 cf 8f bd 03 c1 75 3d aa 34 7f be f7 48 87 3d
       -0.0702192 0.059998523 -0.24922433 0.06605714
000290 69 06 7c be 3b f6 ef be c5 0b b6 3d 2a 85 8c be
       -0.2461182 -0.46867546 0.088889636 -0.27445346
0002a0 76 fd 01 be 46 3b f5 3d ff af 8e bd 6b 02 85 bd
       -0.12694344 0.11974196 -0.06967162 -0.06494602
0002b0 cd f2 d8 38 5b 1f 7c bd 6b 91 8f 3d 66 43 04 be
       0.00010344908 -0.06155334 0.07010158 -0.12916335
0002c0 16 ad 81 be aa f1 fe bd 3c 7f 67 bc f6 e4 77 3e
       -0.25327367 -0.124484375 -0.014129456 0.24208435
0002d0 48 26 b4 be de a7 25 be 07 5e 27 be ec 21 19 be
       -0.35185456 -0.16177318 -0.16344462 -0.14954346
0002e0 35 9c 16 3d b1 1e 9f be e9 0e 95 3e 26 b8 1e bd
       0.036770064 -0.31078103 0.29112938 -0.038749836
0002f0 bd 81 7f 3e a1 d4 41 bb 3a b2 80 3a 60 4b 4b 3d
       0.24951835 -0.00295762 0.0009818741 0.04963243
000300 fb b1 4e 3d b3 32 e3 bc e5 8f 68 bd 6c 18 91 bc
       0.050462704 -0.027734136 -0.056777854 -0.01771184
000310 cc a3 6c 3d ac 81 b7 3c 45 21 41 3f 5c 73 81 bf
       0.057773396 0.0224007 0.7544139 -1.011333
000320 30 e8 cd be a0 ac 08 3f e4 cc c5 be 27 18 a1 3e
       -0.40216208 0.53388405 -0.38632882 0.3146374
000330 6b 46 84 be 14 e7 83 bf f5 79 96 be 04 aa 6b bd
       -0.25834975 -1.0304894 -0.2938992 -0.057535186
000340 b3 69 36 3d bf f7 bc 3d 2e 1b 51 be dd f1 90 be
       0.044534396 0.09226941 -0.20420524 -0.28309527
000350 bf 0a c6 3e cc 87 e3 3c 16 80 f8 bc de 35 ac 3d
       0.38680074 0.027774714 -0.030334514 0.08408712
000360 da e7 6c 3f bd 39 d3 3e 0e 4b 07 3f b8 e7 00 3f
       0.9254128 0.41254988 0.528489 0.50353575
000370 4f 35 d4 be 14 f7 27 3f 82 d4 31 3d 6e f4 06 be
       -0.4144692 0.65611386 0.043415554 -0.1317918
000380 5f 18 0d 3f a4 67 85 3e bb 2a d3 bd 04 20 3b 3e
       0.5511531 0.26055634 -0.103108846 0.18273932
000390 23 ed 4e 3e 42 e0 95 bd f9 33 31 3e 7b 5f 83 bd
       0.20207648 -0.073181644 0.17304982 -0.06414696
0003a0 1c 45 4f 3d f0 e4 8a bd f6 15 d0 3d 8d 80 9f be
       0.050603017 -0.067819476 0.10160439 -0.31152764
0003b0 c7 57 f9 3d da 3d fb 3d 12 10 54 be b9 7e 3e 3e
       0.12174945 0.122676566 -0.20709255 0.18603028
0003c0 f0 b1 77 3e 8a 17 12 b9 6a 5e 8e 3e 2d 22 54 3f
       0.24188972 -0.00013932414 0.27806407 0.8286465
0003d0 e8 53 63 3e af 9c 40 3f 9f e0 de bd 0e 7a 3b bf
       0.22199976 0.7523908 -0.10882687 -0.73233116
0003e0 c4 65 dc 3f 26 95 fa 3d 09 15 50 3e 07 02 8b 3f
       1.7218556 0.12235479 0.20320524 1.0859994
0003f0 a8 1d 60 be 72 07 95 bf 9b 26 a7 bd d5 5e d9 be
       -0.21886313 -1.1642897 -0.0816166 -0.42455164

conv1.bias f4 [64]
000000 2c 43 f7 be 5f 7e b4 be fa 0e e2 3e 16 3c 27 3f
       -0.48293436 -0.35252663 0.4415205 0.6532606
000010 6d f8 5a bf 11 bd e9 bb 5e 41 cd 3d 49 a7 f2 be
       -0.8553532 -0.007133134 0.100222334 -0.47393253
000020 de 52 86 3d 9d 9d a5 bd e4 47 e7 bc 2a 1e e6 3e
       0.065587744 -0.08086703 -0.028232522 0.44944888
000030 64 56 b6 3e 25 c8 5e bf 47 07 5a 3e a5 a7 84 be
       0.35612786 -0.87024146 0.21291839 -0.25909153
000040 b0 57 61 3e e7 88 e8 3d b3 d5 a5 be 9d fc 0c 3e
       0.22006106 0.11354237 -0.32389602 0.1376824
000050 43 fa 19 be 62 3e 50 be 58 3f 61 bf c7 bc 82 be
       -0.15036874 -0.20336297 -0.8798728 -0.2553465
000060 1d af 23 be 04 1b 14 3e 61 3d 7b bb 42 92 bd be
       -0.15984769 0.1446343 -0.0038336145 -0.37025648
000070 67 97 64 3f 7b c9 8e be af 46 a7 be 09 b6 86 be
       0.8929352 -0.27888092 -0.32671115 -0.26310757
000080 5e 82 b3 3e 46 f3 5b be e8 21 80 be 54 4f ac 3e
       0.350604 -0.2147952 -0.25025868 0.33654273
000090 25 e8 ef be fc 8b 07 be 44 8f d3 3e 15 ad d6 3d
       -0.468568 -0.13236994 0.4132024 0.104822315
0000a0 01 d0 10 bc ab dd 3a be 23 3e 13 3d e5 69 91 bc
       -0.0088386545 -0.18248622 0.03594793 -0.01775069
0000b0 c9 8f 94 bd 01 c2 d1 3e 20 6d a0 3e 32 ea 36 bf
       -0.07253987 0.40968326 0.31333256 -0.71451104
0000c0 7d 83 49 3e f7 74 e3 3e 5c 01 71 be e0 50 aa 3e
       0.19679065 0.44425175 -0.23535675 0.33264828
0000d0 50 7c ea bd 71 b0 45 be 93 e7 1f bf 04 1b 18 3d
       -0.11449492 -0.19305588 -0.6246273 0.03713514
0000e0 ef 7a 02 be 2a 06 05 3e 0d 7f 4e be 39 29 df bc
       -0.12742208 0.12990633 -0.20165654 -0.027241336
0000f0 c9 b4 b1 bd 06 91 38 3c 52 60 95 be ba 6e 2c be
       -0.0867706 0.011265045 -0.2917505 -0.16839114

bn1.weight f4 [64]
000000 cb 6c 1b 40 a7 22 4f 40 ea 9e 15 40 51 85 15 40
       2.4285152 3.23649 2.3378243 2.336262
000010 01 54 5c 40 08 0a 43 40 b6 55 32 40 1d 09 08 40
       3.4426272 3.0474873 2.7864814 2.1255562
000020 54 da 2a 40 4c bb 31 40 78 7a 2b 40 e9 41 27 40
       2.6695757 2.7770567 2.67935 2.6133978
000030 60 00 30 40 2a 33 62 40 95 77 41 40 47 a3 2a 40
       2.750023 3.5343728 3.0229237 2.6662157
000040 1f 4d e8 3f d2 54 3b 40 5f 10 1d 40 f2 a9 12 40
       1.8148535 2.927052 2.4541242 2.2916226
000050 7b 7d 3e 40 3b 07 20 40 86 89 21 40 ec 4e 66 40
       2.9764087 2.5004413 2.5240188 3.598567
000060 b0 03 02 40 64 be 44 40 b2 8e 10 40 51 05 26 40
       2.031475 3.0741205 2.2587094 2.5940745
000070 75 4f 6d 40 5d 12 52 40 bf 0b 3e 40 d3 30 38 40
       3.7079747 3.2823708 2.969467 2.87798
000080 9b 00 20 40 12 cf 4e 40 90 a8 0a 40 66 0b 39 40
       2.500037 3.2313886 2.1665382 2.8913207
000090 79 4e 4d 40 73 51 1c 40 cb f2 00 40 f7 91 ff 3f
       3.2079146 2.4424713 2.014819 1.996642
0000a0 16 c6 5a 40 23 32 1c 40 3f cb 0f 40 88 23 f7 3f
       3.4183402 2.44056 2.2467802 1.9307718
0000b0 f1 7e 3f 40 18 7b 2c 40 da 59 ec 3f 02 f8 14 40
       2.992123 2.695013 1.846492 2.3276372
0000c0 c4 77 21 40 50 99 35 40 0e 7e 38 40 11 0b 19 40
       2.522935 2.8374825 2.8826938 2.3913004
0000d0 47 08 83 40 16 46 13 40 ac 04 70 40 7a ad 5c 40
       4.0947604 2.3011527 3.7502851 3.4480882
0000e0 78 7a 51 40 99 17 69 40 b9 5f 52 40 d1 a6 13 40
       3.2731 3.6420653 3.2870924 2.3070567
0000f0 02 fd 13 40 cb a7 42 40 fa 9d 3d 40 78 30 51 40
       2.3123174 3.0414913 2.9627671 3.2685833

bn1.bias f4 [64]
000000 39 90 d7 3d 83 d0 7a 3e 08 56 8c 3e 6b 56 b7 bc
       0.10525555 0.24493603 0.27409387 -0.022380074
000010 18 ff 0e 3f fd 19 c1 bd 42 5f 90 bd 32 76 bc be
       0.5585799 -0.09428785 -0.07049419 -0.36808926
000020 07 43 7d 3e d0 04 d7 3c 1f 7d 83 be 29 b6 93 3e
       0.247326 0.026247412 -0.25681397 0.28849915
000030 29 b0 33 3f 22 0d a9 be 30 4a 83 3e 17 13 90 be
       0.70190674 -0.33017832 0.25642538 -0.28139564
000040 42 0d 53 3e 38 cb 0a 3f 30 45 0a be 12 3f f0 3d
       0.20610526 0.5421634 -0.13502955 0.1173078
000050 84 bc 92 3e 7c 7c 79 3e 73 27 dd 3c 54 d0 b8 3e
       0.2865945 0.24363893 0.02699635 0.36096442
000060 cd 39 6c bd 09 ac b6 3e 51 ad f3 bd 06 6d c6 3e
       -0.05767231 0.35678127 -0.11898292 0.38755053
000070 32 3a 8b 3d 31 76 44 3e 1a ba 5b 3e 68 cb 3a 3e
       0.06798209 0.19185711 0.21457711 0.18241656
000080 af 90 f2 bd 9b fa f7 3e 04 57 bc 3e 1c 66 0b 3f
       -0.118440025 0.48433384 0.36785138 0.5445268
000090 3a 43 1c 3f b8 5d 3c bf 1d f6 24 3e df 4c 90 be
       0.6104008 -0.73580503 0.1610951 -0.28183648
0000a0 13 31 0c 3f 8c 70 0a 3f fd 0e b3 3d 95 ac 02 3e
       0.5476238 0.5407798 0.08743093 0.12761147
0000b0 57 4a a0 3e 37 bc eb 3d 73 1e b8 be 11 c9 24 3c
       0.31306717 0.115105085 -0.3596073 0.010057704
0000c0 67 b7 e1 3d 64 30 2b 3f ef a2 e5 3e be 0d 5d 3e
       0.11021309 0.66870713 0.4485087 0.21587273
0000d0 0a c0 9b 3d de b8 46 3e 2b e0 01 be 42 96 38 3d
       0.07604988 0.19406459 -0.1268317 0.045065172
0000e0 5d a5 6f 3d c5 78 84 3e fd a4 ca 3e 90 57 a3 be
       0.058507312 0.2587339 0.39579 -0.31902742
0000f0 72 0e 48 3d 8d dc 69 3d ec a2 96 bd b6 01 2f 3e
       0.0488419 0.0570951 -0.07355294 0.17090496

bn1.running_mean f4 [64]
000000 ee da 98 3e cd 51 bc be e4 50 32 bf 44 86 27 bf
       0.2985453 -0.3678116 -0.6965468 -0.6543925
000010 e4 39 dd 3e f4 e1 00 be f2 66 64 bf 65 cf 03 3f
       0.4320823 -0.12586194 -0.8921958 0.51488334
000020 0b b5 0f bf ff 59 29 bf 65 3a 8c bf 07 2b ab bf
       -0.56135625 -0.6615295 -1.0955321 -1.3372506
000030 53 6d 56 bf 15 f9 00 3e 3d 16 14 3f fc 37 fc be
       -0.83760566 0.12595017 0.5784643 -0.49261463
000040 1b 7b 3a bf f3 57 62 be 2d 03 e2 bd 54 2b 1e be
       -0.72844094 -0.22103862 -0.11035762 -0.15446216
000050 9f d5 9e 3e b5 a1 da be 9b 2b 4d 3e 96 05 01 bf
       0.31022355 -0.42701498 0.20036165 -0.5039915
000060 a7 c9 42 3f a0 b8 ed bd fe c2 0c c0 fd 5c c5 3d
       0.7608895 -0.1160748 -2.1994014 0.09636877
000070 4c 3a cd be 97 09 8f bd 2e 36 f5 3e 31 bf 8f be
       -0.4008354 -0.06984251 0.47892898 -0.28075555
000080 2d 2f 5f be a0 4f 88 be f2 a8 7c bf 28 c7 18 be
       -0.2179534 -0.2662325 -0.9869529 -0.14919722
000090 60 a9 95 be 9a 7e af 3e 1e b3 3d bf 4c fa 80 bf
       -0.29230785 0.34276277 -0.74101436 -1.0076385
0000a0 72 3b 3e 3f d4 70 5e bf 9b d2 53 be 83 69 5b 3d
       0.74309456 -0.8689091 -0.20685808 0.05356742
0000b0 bb e9 8a bc 16 96 24 bf 22 51 39 bf 60 70 c7 3e
       -0.016957154 -0.6429151 -0.72389424 0.38952923
0000c0 d3 9d 90 bc f0 bc 79 bf 8b 83 2d be 5e f2 00 3f
       -0.017653381 -0.9755392 -0.16944711 0.5036982
0000d0 ff c2 8f be c1 34 0f 3f b1 23 d7 bc 8d 46 aa 3d
       -0.28078458 0.5593987 -0.026262136 0.08314238
0000e0 5a b0 2d 3f 8e c6 86 3d 60 1a 66 bd 56 d4 7c bd
       0.67847216 0.0658084 -0.056177497 -0.061725937
0000f0 34 c0 33 bf b6 08 5c 3f a4 ea 2f 3e a3 80 66 3d
       -0.70215154 0.8595079 0.17179352 0.05627502

bn1.running_var f4 [64]
000000 5a e0 14 3e 03 c9 53 3d b2 ae 15 3e ba 10 eb 3e
       0.14538708 0.05170537 0.14617422 0.459112
000010 5c e0 30 3e 4a 2e ac 3e fb 92 63 3e 83 3b 96 3e
       0.17273086 0.33629066 0.22224037 0.2934228
000020 a2 b8 cd 3d 80 c1 78 3d 8b 5a a3 3e f6 6d a7 3e
       0.100449815 0.06073141 0.31905016 0.3270108
000030 10 6b 68 3e 03 49 0f 3e ef d9 b0 3d 31 6a bc 3e
       0.22697091 0.13992696 0.086353175 0.36799768
000040 7a 02 e8 3d 8d 27 8d 3d da 44 2a 3e 4c 95 01 3e
       0.11328597 0.06892309 0.16627827 0.12654608
000050 27 71 9c 3d ee 5e d1 3e 77 c1 1a 3e 33 28 70 3d
       0.076387696 0.40892738 0.15112863 0.058632087
000060 0e c3 6f 3e 9b 79 d3 3d fa 7a 03 3f 97 2e 40 3e
       0.23414251 0.10325929 0.5135952 0.18767773
000070 03 07 47 3e 94 95 87 3d 73 78 26 3e 0e 99 0c 3e
       0.19436269 0.06620327 0.16256885 0.1373026
000080 ce f7 8b 3e 30 44 68 3d 23 6a 6f 3e 40 ae 3e 3e
       0.27337497 0.056705654 0.23380332 0.18621159
000090 40 b4 6a 3d 0b 09 4c 3e f7 ab 7f 3e 22 3c 8d 3e
       0.057300806 0.19925325 0.24967943 0.2758494
0000a0 a8 58 cf 3d a8 5f ba 3d 95 b5 6b 3e 63 7d 8d 3e
       0.10124332 0.09100276 0.23018487 0.27634725
0000b0 cf 83 21 3d 28 2c f8 3d d0 a8 a2 3e 64 12 53 3e
       0.039432343 0.12117797 0.3176942 0.20612484
0000c0 7b 7b b3 3d b5 ba da 3d 05 c6 89 3d 0d 77 ae 3d
       0.087637864 0.10680143 0.06727222 0.08518801
0000d0 68 43 e1 3d f2 39 84 3e fb 96 80 3d df d0 4a 3d
       0.10999185 0.2582546 0.06278797 0.0495156
0000e0 24 ef 55 3e 45 54 85 3e e4 23 dc 3c d6 b7 86 3e
       0.20892006 0.26040855 0.026872583 0.2631213
0000f0 06 b1 04 3e 41 6c d8 3d 2c 54 a1 3e ac 45 84 3d
       0.12958154 0.10567523 0.3150953 0.06458601

conv2.weight f4 [32, 64, 3, 3]
000000 9e 60 0b 3d 50 9b 20 be e3 c3 8c 3d 56 c9 8c 3c
       0.03402769 -0.15684247 0.068733 0.017185848
000010 70 3f 95 be 80 2a 37 bd b1 45 32 3e a1 69 83 3f
       -0.2914996 -0.044718266 0.17409398 1.026661
000020 37 a3 9d bd 57 02 9a bd 32 6d 29 bd a8 e7 8b 3e
       -0.076971464 -0.075199775 -0.041363902 0.27325177
000030 af 39 1d be f0 cb 25 bd 2e c2 a8 3f df b2 ad be
       -0.15354036 -0.040477693 1.3184259 -0.3392553
000040 f0 d7 c8 3d 11 c5 0f 3f 02 04 f2 3e c8 21 0f 3e
       0.09806812 0.56160074 0.47268683 0.1397773
000050 e3 3c 92 3e 2b 68 8e 3e 7f e9 45 be c5 28 e6 be
       0.28562078 0.2781385 -0.19327353 -0.4495298
000060 2b 04 a1 3e 6c dc 5d be b6 10 2c bf e8 fc 6f 3d
       0.31448492 -0.21666116 -0.67213 0.0585908
000070 fa f6 b6 3d c0 16 1d 3d 69 dc 80 be 3a 69 f5 be
       0.08933826 0.038351774 -0.2516816 -0.47931844
000080 e8 9a 52 be 87 7c 1a bf 5e 77 2a be 52 4c c7 bd
       -0.20566905 -0.60346264 -0.16647097 -0.09731354
000090 68 fe 3c 3f 42 08 7e 3f 31 2f a4 3c ab f4 cc be
       0.73825693 0.9923135 0.020042034 -0.40030417
0000a0 72 3a d9 be ef ed 5c 3f f8 ff a2 3d a5 9d d5 3e
       -0.42427403 0.8630056 0.079589784 0.41721836
0000b0 7d 55 45 3d 2d dd e6 3d 04 2f 15 be ca 97 4c 3e
       0.04817723 0.11272655 -0.14568716 0.19979778
0000c0 1f 6d e3 be 11 e5 1f 3f 9c ca 84 bd 31 81 81 be
       -0.4441919 0.624589 -0.06483957 -0.25293878
0000d0 d5 51 33 bf 1a c2 f7 3e 21 8b c2 bc e4 ad 9e be
       -0.7004674 0.48390275 -0.023747982 -0.30992043
0000e0 20 0d 9e bd 81 64 89 be 1c 27 0b bd a6 1b 13 be
       -0.07717347 -0.2683449 -0.033972844 -0.14366016
0000f0 69 2e 13 3f 2f 0f 59 3f b5 dc 24 3a c4 17 53 3e
       0.5749269 0.84788793 0.00062889914 0.20614535
000100 27 61 48 3f 76 9a cd 3c 54 c1 3c bf 0f 6d 04 3f
       0.7827324 0.025098067 -0.73732495 0.5172891
000110 f3 c0 ab 3e f1 a1 f9 be 8f e2 d6 3d be 96 9a 3e
       0.33545646 -0.48756364 0.10492431 0.30193132
000120 2f 2a 01 bf 76 08 3d be 16 12 15 be bc 06 fa 3e
       -0.5045499 -0.18460259 -0.1455768 0.48833263
000130 ec c9 55 bf 60 86 a4 3e f8 88 d2 3e 04 95 22 3e
       -0.83511233 0.3213377 0.41120124 0.15877157
000140 ff c9 29 3e 9b 4b 42 bf 70 7c 8a 3e 76 62 81 bd
       0.16580962 -0.75896615 0.27048063 -0.06317608
000150 6d 9b 92 3d 09 78 01 bf 1d 44 89 3f 39 13 fe 3d
       0.07158551 -0.50573784 1.0723912 0.1240601
000160 28 98 e3 bd 71 54 46 3f b8 4e 20 3f 0b 70 ac be
       -0.11113006 0.774726 0.62620115 -0.33679232
000170 d2 38 db be 54 96 99 3e 25 e3 00 3e c2 94 53 bc
       -0.42816788 0.29997504 0.12586649 -0.012913885
000180 01 cb 2e 3f 90 84 e0 be bb ee df 3e 0b 22 42 be
       0.6827851 -0.43851137 0.43736824 -0.18958299
000190 0e 32 72 be a4 f3 5a 3d 61 e6 9d be 86 cc 81 3e
       -0.23651907 0.05345501 -0.30839828 0.25351351
0001a0 70 3b d4 3d 72 c0 b6 bd f8 7b ed be b4 0b 7c 3c
       0.10362899 -0.08923425 -0.46383643 0.01538365
0001b0 50 de c7 bd a6 51 bb 3d 8b 56 95 3e 44 80 2b be
       -0.097591996 0.091464326 0.2916759 -0.16748148
0001c0 e1 02 c8 3e 31 d5 64 be 89 06 86 3e bf 6d 73 3e
       0.39064696 -0.22346951 0.2617686 0.23772334
0001d0 e8 b2 f9 ba 1d 47 ac bc f0 c4 ef bd 41 a9 45 3e
       -0.0019050511 -0.021030003 -0.11707485 0.19302846
0001e0 78 48 1e 3f f9 cb 4c 3e 64 fb a3 3e 84 48 40 3f
       0.6182933 0.19999684 0.32027733 0.7511065
0001f0 21 cc 9d 3f 3a d1 7b be e8 25 9e 3e 84 2e b9 3d
       1.232792 -0.24591532 0.30888295 0.09042075
000200 e7 0e 03 bf 01 c4 41 3f c5 dd 59 3f de d8 ba be
       -0.51194614 0.75689703 0.8510402 -0.36493582
000210 f1 2f 1f 3e 30 95 ee 3d 7b 2b be 3d c0 26 84 3e
       0.15545632 0.11649549 0.09285637 0.25810814
000220 19 80 a2 3e d6 25 0d be d1 5a ba 3c 79 b6 43 3f
       0.31738356 -0.13783965 0.022748383 0.76450306
000230 b9 ee e5 bd 58 24 86 3e 91 db e8 bd 24 e9 db 3c
       -0.11227173 0.26199603 -0.11370004 0.026844569
000240 3e b4 e3 3e ae c5 04 3e 4b 30 ae bd 76 02 6a be
       0.4447345 0.12966034 -0.08505305 -0.22852501
000250 96 ae 01 bf 39 33 ab be ec 1d a6 be f4 c3 df be
       -0.5065702 -0.33437517 -0.32444704 -0.43704188
000260 bd 8b 37 be 0f 36 b6 be c2 4a 1c be fb 1d 17 be
       -0.179244 -0.35588118 -0.15262893 -0.1475753
000270 26 12 4d bd 84 18 03 bf 50 b2 83 3d 23 db f2 be
       -0.050066136 -0.5120928 0.06430495 -0.47432813
000280 66 ea 02 bf 39 43 fe bd 9e ba ad 3e c4 f7 d3 3d
       -0.51138914 -0.124151655 0.3393144 0.10349992
000290 bf c8 80 be 72 a7 b1 3e 9e 64 5b be d8 c7 8b 3e
       -0.25153157 0.34698063 -0.21425101 0.27300906
0002a0 9f bf dc bd a6 99 17 bf 37 dc 11 3f 6f ab b7 be
       -0.10778736 -0.59218824 0.56976646 -0.3587298
0002b0 e2 7d 29 be 2e 26 5b 3f b9 4e 27 3b 6b 1c 9f 3e
       -0.16551927 0.8560513 0.00255291 0.3107637
0002c0 9c 14 95 3d c1 2e 4a be ef 67 2e be 43 2c 6b be
       0.072793216 -0.19744398 -0.17031835 -0.22966103
0002d0 db d0 b6 3e 15 f1 05 3f 57 ee 87 3e 7a a2 db 3e
       0.3570622 0.52320987 0.26549026 0.42897397
0002e0 26 a4 22 bf 42 36 07 be a0 c9 4b bd cf f9 1d 3f
       -0.6353172 -0.13204291 -0.04975283 0.617093
0002f0 53 43 b6 be 8a 00 f2 3c 53 bc c3 be 38 28 0d bf
       -0.3559824 0.029541273 -0.38229617 -0.55139494
000300 e9 37 d0 bf fb d0 d7 bf fe bd 03 bf 09 9a 1c bf
       -1.6267062 -1.6860651 -0.5146178 -0.6117254
000310 77 b1 a7 bf ea b3 9a 3e 50 ce b3 3d 54 22 f1 be
       -1.3101033 0.3021539 0.08779585 -0.47096503
000320 09 a1 f8 3e 24 5c 36 3e 7f b8 0a bf 00 08 03 3f
       0.4856036 0.17808586 -0.5418777 0.5118408
000330 96 e5 6c 3d 91 dd 8c be 55 e1 01 bf eb 7a 5d ba
       0.057836138 -0.27512792 -0.50734454 -0.0008448797
000340 ac b5 82 be 28 df 7f be 0a 3b 7a 3f 8d 4c 06 3f
       -0.2552923 -0.24987471 0.97746336 0.5246056
000350 f2 7b a0 bd 7b fb a5 bd c3 10 e7 3e d9 33 93 3e
       -0.07836141 -0.08104607 0.45129976 0.28750494
000360 fd 09 c0 3d 4a 16 c2 be 7d c7 3e bf 5c e0 6b be
       0.09376905 -0.3790763 -0.74523145 -0.23034805
000370 e9 9e 81 3e f0 02 44 bf 57 79 64 be 99 0a a6 3e
       0.2531655 -0.7656698 -0.22311912 0.3242996
000380 ee e3 d2 be 8a 24 c5 be db 38 bd be 2d d9 98 3d
       -0.41189522 -0.3850444 -0.3695744 0.07463298
000390 2a fd d3 be f3 58 05 3f bb f1 fd 3e 68 84 0d bf
       -0.41404086 0.5208885 0.49598488 -0.5528016
0003a0 bc ad d2 bf 00 f9 b3 be 95 26 da be dd f2 28 be
       -1.645927 -0.3515091 -0.4260756 -0.16498895
0003b0 2b 94 a8 3e 99 3b ac bf 89 42 d9 be dc 98 53 3d
       0.32925543 -1.3455688 -0.42433575 0.05165945
0003c0 14 59 3d bf aa 95 f7 be a9 8b ad be 63 3c ad 3d
       -0.7396405 -0.48356372 -0.33895615 0.084587835
0003d0 da 0f db be 2d 11 84 be cb d5 1c 3e 4c 0d e0 bd
       -0.4278553 -0.25794354 0.1531593 -0.10940036
0003e0 80 a4 70 be 2d 3c 76 be ed 58 ed bd 0a 8e 69 3e
       -0.23500252 -0.24046393 -0.11589227 0.2280809
0003f0 4c e5 89 bd 14 78 51 bd 03 4d 31 3e 28 1f 8b 3d
       -0.06733188 -0.051139906 0.17314534 0.06793052

conv2.bias f4 [32]
000000 03 6e 94 bc 54 7b 03 bd f9 4c 81 bd 73 d2 42 bd
       -0.018118864 -0.032100037 -0.063135095 -0.04756398
000010 fa 3a 59 3c ad c6 e4 bc 42 30 cf bc d0 90 da bd
       0.01325869 -0.027926767 -0.025291566 -0.10672152
000020 25 b9 96 bc 7f 39 cd bc 94 47 13 bc 90 56 29 bc
       -0.01839883 -0.02505183 -0.0089892335 -0.0103355795
000030 7e 17 16 3d 45 dc 2b be 55 4e 59 bd c5 bb 17 bd
       0.036643498 -0.16783245 -0.05305322 -0.037044305
000040 1e e9 08 bd 1f 5f e8 3a f3 f9 93 bc 7a 18 d8 bc
       -0.033425443 0.0017728544 -0.018063521 -0.026378859
000050 ac e1 d2 bc b3 ec ee bc a7 3a 84 3d 01 5e d0 bc
       -0.025742374 -0.029165601 0.064564995 -0.02543545
000060 88 bd 27 be 81 30 49 3d bf 80 99 bc 2a c9 37 3c
       -0.16380894 0.049118523 -0.018738149 0.011217395
000070 7a b2 d6 3c 53 8d 44 bc 0e f2 1e 3b f6 18 23 bc
       0.026208151 -0.011996585 0.0024253163 -0.009954682

exp_avg f4 [64, 32, 3, 3]
000000 4a 11 f3 39 f8 5b 90 b9 6c e5 20 39 08 ce 8b 39
       0.00046361453 -0.00027534342 0.00015344255 0.0002666565
000010 80 a9 4e b9 8c 75 0c ba 95 6e 8a 38 88 b6 49 b6
       -0.00019708835 -0.0005358092 6.60095e-05 -3.0057581e-06
000020 85 22 45 ba 90 23 9c b7 98 cc b9 37 bd b0 c4 37
       -0.00075200974 -1.861321e-05 2.214899e-05 2.3447321e-05
000030 c1 79 b7 37 a9 51 48 37 ab 90 da b7 d5 47 3a b8
       2.1871996e-05 1.1939942e-05 -2.6054991e-05 -4.4412755e-05
000040 58 ff 19 b8 10 c4 b0 b7 15 1b 98 39 d4 20 c9 ba
       -3.671585e-05 -2.1072134e-05 0.00029011877 -0.0015344867
000050 ea 46 c5 b8 d3 88 8a 3a 29 be c5 39 90 7d 94 3a
       -9.406901e-05 0.0010569341 0.00037716448 0.0011328924
000060 b5 06 1b 3b 54 a7 72 3a e1 69 76 3a 9f 4a d2 38
       0.002365512 0.0009256501 0.00093999325 0.000100274796
000070 8b 6b 73 ba 17 30 46 39 3e 44 96 3a bd 3c 8d 39
       -0.00092857395 0.00018900666 0.001146443 0.0002693887
000080 95 be f9 39 5b 2a ed 3a 3f f9 1e 3a d0 11 41 3a
       0.00047634976 0.0018094288 0.0006064362 0.000736502
000090 9e a3 a5 b8 53 8e 81 ba 71 d2 3e 3a 74 6c 3b 3a
       -7.898289e-05 -0.0009884335 0.0007279283 0.00071496447
0000a0 0f 8f 5a 39 26 dc 26 3a 5a 7f 12 3b a0 d6 e5 3a
       0.00020843394 0.0006365202 0.002235374 0.0017535277
0000b0 a8 87 28 3a fd 66 c6 af ce 64 fb b1 48 16 7e 33
       0.0006428906 -3.6089168e-10 -7.3165216e-09 5.9159248e-08
0000c0 9f ef 32 30 fd 72 42 32 0d aa 2f 31 68 60 2b b1
       6.5096545e-10 1.13184315e-08 2.5562514e-09 -2.4938576e-09
0000d0 5c c2 85 b0 a1 81 1b 31 16 f4 a2 b9 41 d1 e4 39
       -9.732264e-10 2.2629154e-09 -0.00031080906 0.00043643455
0000e0 1f 15 42 b8 d8 90 96 b9 ba 3f 71 3a 01 b5 c9 39
       -4.6272875e-05 -0.00028718146 0.00092029164 0.00038472566
0000f0 20 8a 35 39 f7 4c d5 39 d2 97 76 3a 44 92 f5 b8
       0.0001731296 0.0004068387 0.0009406778 -0.000117097545
000100 14 2d c3 b8 f3 8d d9 38 e8 de b9 b9 20 cf 08 3a
       -9.306721e-05 0.000103738064 -0.00035452028 0.00052188523
000110 8c a0 37 3a c5 1b c2 39 c7 4c 5b 3a f6 64 19 3a
       0.00070048193 0.00037023253 0.0008365628 0.0005851531
000120 06 86 bf 39 68 2f 91 ba a1 81 1a b9 34 de 44 3a
       0.00036530214 -0.001107675 -0.00014734875 0.00075099175
000130 2d e2 69 ba 9c eb 98 b9 a8 c9 64 3a 10 a5 9d b8
       -0.00089219474 -0.00029167242 0.0008727559 -7.517089e-05
000140 c0 18 08 ba 55 05 12 15 10 87 0d 15 6e 8d 1c 14
       -0.00051916763 2.948867e-26 2.858127e-26 7.903879e-27
000150 a9 e8 9d 15 a0 5d 69 14 ef 33 14 95 74 05 c6 92
       6.377887e-26 1.1781958e-26 -2.992933e-26 -1.2496901e-27
000160 90 b3 31 95 25 0d bb 14 85 d2 7b b4 3c e8 0e b3
       -3.5886515e-26 1.888736e-26 -2.3452783e-07 -3.3273167e-08
000170 c1 79 db b2 62 8d 6a b4 b6 0b 93 33 b1 d6 20 b4
       -2.5550323e-08 -2.1844383e-07 6.847351e-08 -1.4979265e-07
000180 d4 f8 85 33 6f d9 be 33 05 a1 92 b4 e2 82 1c 39
       6.238557e-08 8.8871154e-08 -2.7311776e-07 0.00014926077
000190 06 a3 0a ba 1c 89 93 b9 6b d5 23 39 81 8e 88 b9
       -0.00052885746 -0.0002814018 0.00015624396 -0.00026046115
0001a0 94 24 d3 b9 46 18 1f 39 ab 1e f3 38 93 1d 0c ba
       -0.0004027231 0.00015172464 0.00011592855 -0.0005344983
0001b0 00 00 00 00 00 00 00 00 00 00 00 00 00 00 00 00
       0.0 0.0 0.0 0.0
0001c0 00 00 00 00 00 00 00 00 00 00 00 00 00 00 00 00
       0.0 0.0 0.0 0.0
0001d0 00 00 00 00 91 9c 95 b9 71 bc 5c ba 4d 3a 70 3a
       0.0 -0.00028536146 -0.0008420414 0.0009163961
0001e0 25 86 2f 3a 52 06 05 3a a5 49 d1 39 64 d9 d8 3a
       0.00066957093 0.0005074489 0.00039918456 0.001654428
0001f0 ae c6 b1 3a 96 42 3e 3a cf 1d b2 39 06 98 f0 35
       0.001356324 0.0007257847 0.00033973015 1.7925638e-06
000200 fb 05 b7 b8 7c 41 8c 39 24 24 16 3a 00 2d 46 3a
       -8.727234e-05 0.0002675167 0.0005727431 0.0007559806
000210 25 70 68 3a 67 f6 53 3a 84 6a e4 39 ef 68 fe 37
       0.00088668085 0.0008085728 0.0004356691 3.0328023e-05
000220 1f e1 43 b9 69 ae 33 b8 59 42 ab 38 fe 0f 42 b9
       -0.00018680513 -4.2839358e-05 8.1662736e-05 -0.0001850724
000230 f8 69 ef b8 88 64 51 b6 a8 de 1e 37 8f 96 74 b9
       -0.00011416146 -3.1201944e-06 9.469375e-06 -0.00023325741
000240 b3 ea 0b ba d5 d6 00 39 67 a0 c5 b8 e3 d3 a2 b9
       -0.0005337402 0.00012287062 -9.423569e-05 -0.00031056916
000250 f3 bb 12 3a 35 6e 2d 38 61 08 5c b8 92 13 08 3a
       0.00055974646 4.1349052e-05 -5.245989e-05 0.00051909045
000260 7b 9b 6b 3a 7d 28 e8 b9 23 16 62 b9 80 e0 73 3a
       0.0008987707 -0.00044280654 -0.00021561286 0.00093031675
000270 11 ca 72 3a 88 b9 80 39 6a 41 06 3a 49 94 29 3b
       0.00092616776 0.00024552294 0.0005121442 0.0025875738
000280 54 98 d9 3a ad 67 b1 3a 80 82 e3 39 64 b3 33 b9
       0.0016601183 0.0013534926 0.00043394044 -0.00017137598
000290 ac 96 c6 b8 ea 32 ac 39 20 5f 95 b9 b4 0f 3d b8
       -9.4694406e-05 0.0003284433 -0.00028490368 -4.5075736e-05
0002a0 f8 1c bf 39 51 bf 18 39 de 0d 8e b9 cd 5f 69 b9
       0.00036451942 0.0001456712 -0.00027094682 -0.000222563
0002b0 fb d5 0a b9 42 4d 95 39 f4 00 10 38 cd f9 1e 3a
       -0.0001324042 0.00028477056 3.4333163e-05 0.0006064445
0002c0 82 6a 0a 3a d0 a4 25 3a c6 bf 00 3a 31 3f 45 3a
       0.0005280153 0.00063188095 0.0004911389 0.000752437
0002d0 fd 68 3e 3a 1a f5 4f ba 9c 7e b4 b8 a3 6f 91 3a
       0.0007263569 -0.00079329463 -8.606652e-05 0.0011095892
0002e0 b4 b9 58 ba 8c 73 37 b9 43 c6 b6 3a e6 48 84 b9
       -0.0008267418 -0.00017495285 0.0013944585 -0.00025231316
0002f0 bf 5c db b9 00 00 00 00 00 00 00 00 00 00 00 00
       -0.00041840036 0.0 0.0 0.0
000300 00 00 00 00 00 00 00 00 00 00 00 00 00 00 00 00
       0.0 0.0 0.0 0.0
000310 00 00 00 00 00 00 00 00 55 a3 03 33 0d a5 aa b3
       0.0 0.0 3.0649364e-08 -7.9462644e-08
000320 d1 4d 67 b1 04 da fa 32 3c 01 1d b3 a2 5b 27 33
       -3.3659158e-09 2.9202972e-08 -3.6555534e-08 3.8966057e-08
000330 34 c5 09 33 41 f5 0c 32 e1 55 de 32 67 74 05 0e
       3.2077153e-08 8.204837e-09 2.5883255e-08 1.6449561e-30
000340 4b 7a a1 0e 04 40 92 8e 47 90 78 10 c9 1b 57 10
       3.980733e-30 -3.6053424e-30 4.9020523e-29 4.242268e-29
000350 73 eb ac 90 1e e3 81 0e d1 f3 99 90 5f 32 c6 8f
       -6.8204805e-29 3.201966e-30 -6.072352e-29 -1.954371e-29
000360 67 21 b4 b9 45 3f f7 b9 33 52 c8 39 f2 d6 58 b8
       -0.00034357162 -0.0004715865 0.00038208216 -5.1698597e-05
000370 8e 8f c0 b9 83 0c dd b9 71 cc 86 b8 5b 12 ec b7
       -0.0003672805 -0.00042161727 -6.427698e-05 -2.814194e-05
000380 8d e3 6e b9 a7 9d 96 b9 ce 85 ce b9 5a 97 09 3a
       -0.00022782218 -0.0002872769 -0.00039391074 0.00052486884
000390 4b 39 20 b7 4c 6d 39 3a 91 9c 27 3a 6a 6b 82 3a
       -9.550083e-06 0.00070734764 0.00063938746 0.0009950225
0003a0 63 0e ba 3a 92 6e 36 3a 2d 6e bd b9 ae 85 78 ba
       0.0014194961 0.0006959225 -0.00036130977 -0.0009480369
0003b0 91 fe 19 3a 9a 6f 0f 3a 0d 77 ac b9 a9 62 16 b9
       0.000587442 0.0005471647 -0.00032895096 -0.00014341869
0003c0 5a 2f ac 3a a2 3f 8d 3a 18 dd 31 39 29 81 8d b7
       0.001313667 0.001077641 0.00016962399 -1.6868655e-05
0003d0 ba 9b 83 b6 31 05 3b 37 6d e7 cb b8 67 66 db b4
       -3.922233e-06 1.1147277e-05 -9.722901e-05 -4.0866436e-07
0003e0 37 18 cd 37 6f 7f 26 b9 d1 ce 87 38 43 af f6 b7
       2.444918e-05 -0.00015878466 6.475824e-05 -2.9407098e-05
0003f0 77 a0 3b 2c d9 20 7b ab cf d3 d2 2c ba b8 6d 30
       2.6663374e-12 -8.92187e-13 5.9920745e-12 8.648261e-10

exp_avg_sq f4 [64, 32, 3, 3]
000000 0c e7 1d 3a 7e 15 31 3a d7 b1 3e 3a 7f aa 0e 3a
       0.00060235034 0.0006755217 0.0007274425 0.0005442276
000010 51 3a e3 39 45 97 20 3a 7b d3 36 3a ee 1e 28 3a
       0.00043340263 0.00061260565 0.0006974262 0.00064133
000020 02 96 31 3a cd 01 ce 38 8b 66 b2 38 90 fe 8e 38
       0.0006774367 9.823181e-05 8.5068015e-05 6.8185036e-05
000030 31 39 be 38 13 93 b1 38 97 12 8f 38 79 a0 a5 38
       9.070559e-05 8.4674124e-05 6.822234e-05 7.8977035e-05
000040 f8 51 ae 38 6d ca 8b 38 63 0f d2 3b bf 5f a1 3b
       8.3122344e-05 6.665741e-05 0.0064105256 0.004924744
000050 40 f3 f2 3b ca 10 13 3b 7e 38 f2 3a da 1d 8c 3b
       0.0074142516 0.0022440427 0.0018479971 0.0042760195
000060 ea 3e c6 3b 30 72 ba 3b 51 ec cb 3b 8a 85 54 3b
       0.0060499804 0.0056898817 0.0062232395 0.0032428228
000070 b3 c1 28 3b 82 fc 75 3b a0 54 ac 3a 20 44 95 3a
       0.002575022 0.003753454 0.0013147779 0.0011388101
000080 31 d2 0f 3b 00 7e 44 3b 21 83 36 3b c9 9b 40 3b
       0.0021945352 0.0029982328 0.0027849155 0.002938973
000090 08 ad 05 3c da a2 cd 3b 20 55 3c 3c f4 c7 d4 3a
       0.00815893 0.006275517 0.011494905 0.0016233907
0000a0 1d dc 5c 39 99 22 b2 3b 22 c9 1b 3c db 37 14 3c
       0.00021062834 0.0054362533 0.009508403 0.00904652
0000b0 19 5b 26 3c 5e 1d 2f 32 32 37 cc 30 02 2c 98 30
       0.010153555 1.0193018e-08 1.4858641e-09 1.1071963e-09
0000c0 d5 b4 35 31 65 36 a5 30 22 bf c7 30 51 5b d3 30
       2.6441758e-09 1.202079e-09 1.4533479e-09 1.5378224e-09
0000d0 02 74 c4 30 f7 73 9a 30 bc 3c a3 38 de d3 73 38
       1.4293848e-09 1.1237934e-09 7.783758e-05 5.813303e-05
0000e0 9f 7d 6b 38 41 9e ab 38 e3 0d 8b 38 79 55 61 38
       5.614536e-05 8.1833925e-05 6.630623e-05 5.3723783e-05
0000f0 91 50 6c 38 8e a0 62 38 79 b6 1d 38 89 19 8b 3a
       5.6341818e-05 5.4032127e-05 3.7601658e-05 0.0010612468
000100 96 c9 4a 3a 51 d0 9c 3a fd d5 06 3a 3d 3f c2 39
       0.0007735727 0.0011963939 0.0005143581 0.0003704968
000110 07 19 5a 3a b6 2c 86 3a 7f d7 8b 3a 27 d4 8a 3a
       0.00083197694 0.0010236714 0.0010669081 0.0010591791
000120 e2 a4 c7 3a 16 a8 cd 3a fa 8d ff 3a c1 f3 46 3a
       0.0015231634 0.0015690352 0.0019497268 0.0007589423
000130 74 86 43 3a 10 2b 96 3a 25 31 d1 3a 4f 2c c6 3a
       0.0007458695 0.0011456925 0.0015960081 0.0015119406
000140 77 27 d6 3a b5 f0 18 2e 2b 58 21 2f 24 59 81 2e
       0.0016338666 3.477459e-11 1.4674188e-10 5.8820754e-11
000150 ec c6 3f 2f b5 69 40 2f 0d 05 b2 2f ae f4 36 2b
       1.744202e-10 1.7499853e-10 3.23816e-10 6.499895e-13
000160 f7 20 02 30 87 13 1e 2f 99 b1 73 36 b7 6c e9 35
       4.734057e-10 1.4376954e-10 3.6313197e-06 1.7391493e-06
000170 47 0e 57 36 f2 60 90 36 87 b4 e0 35 47 e8 9b 36
       3.2045807e-06 4.3028203e-06 1.6741841e-06 4.6464006e-06
000180 bb 9e 13 36 d5 a9 46 35 d5 8b 70 36 a9 cc 46 3a
       2.19971e-06 7.4007886e-07 3.584418e-06 0.00075835973
000190 0e 45 61 3a cb 5a 66 3a e6 73 1a 3a ef 4e 4d 3a
       0.0008593359 0.0008787333 0.0005891904 0.00078318914
0001a0 ba a1 40 3a ff b1 29 3a 01 98 32 3a 0c d6 2f 3a
       0.0007348318 0.0006473362 0.00068128115 0.00067076157
0001b0 00 00 00 00 00 00 00 00 00 00 00 00 00 00 00 00
       0.0 0.0 0.0 0.0
0001c0 00 00 00 00 00 00 00 00 00 00 00 00 00 00 00 00
       0.0 0.0 0.0 0.0
0001d0 00 00 00 00 de 58 c3 3b f2 7a 92 3b 02 8b 03 3c
       0.0 0.0059615215 0.0044702226 0.0080287475
0001e0 4b 9c f6 3a 2b 18 8e 3a df dc 8b 3b c2 51 cc 3b
       0.001881489 0.0010840943 0.0042682732 0.006235332
0001f0 b2 af c8 3b 1b 65 d4 3b b6 db 1d 3a 77 ea 0b 3a
       0.00612446 0.0064817793 0.0006021814 0.0005337367
000200 fa 20 2a 3a 23 1d b1 39 5d 42 b9 39 46 c9 ee 39
       0.0006489899 0.0003378178 0.00035335394 0.00045544858
000210 cf c1 1b 3a ac 90 1b 3a c1 b7 0c 3a 3a 82 dd 39
       0.00059416605 0.00059343386 0.00053679576 0.0004224943
000220 92 d3 dd 39 de 50 f9 39 b3 1a 9f 39 18 35 d9 39
       0.00042310037 0.00047553232 0.00030346736 0.00041429023
000230 b1 9c da 39 8d b7 a8 39 75 fb bf 39 a0 ae be 39
       0.00041696944 0.00032180213 0.0003661771 0.0003636973
000240 4c 62 62 38 15 28 1d 38 f1 69 f9 37 a7 10 3d 38
       5.3974145e-05 3.7469046e-05 2.9732446e-05 4.507662e-05
000250 4a 42 38 38 08 24 0d 38 c0 d2 17 38 ea 06 2d 38
       4.3930755e-05 3.3650576e-05 3.619748e-05 4.1252853e-05
000260 51 7a f7 37 fa f1 d4 3b 19 93 b1 3b 53 bd 18 3c
       2.9501653e-05 0.0064985724 0.0054191467 0.009322482
000270 ca 48 bc 3a 29 61 84 39 b8 95 8a 3b a9 e2 fa 3b
       0.0014364955 0.00025249392 0.0042292736 0.0076564145
000280 c1 ea f0 3b 40 96 04 3c 6e 7b bc 39 ac 3d cf 39
       0.0073522036 0.008092463 0.00035950117 0.00039528066
000290 66 6a d9 39 3f ce 90 39 81 c9 87 39 d8 2b a9 39
       0.00041468738 0.00027619486 0.0002589934 0.00032266858
0002a0 24 37 e5 39 50 99 d4 39 54 75 bf 39 0f 8e 87 3a
       0.00043719367 0.00040550018 0.00036517775 0.0010342019
0002b0 42 d2 65 3a 93 68 92 3a 9c b9 52 3a d3 c1 36 3a
       0.00087669876 0.0011170082 0.0008038522 0.0006971631
0002c0 ac 0a 66 3a 89 2b 6d 3a 62 5c 6d 3a 99 de 53 3a
       0.0008775394 0.000904732 0.00090545986 0.0008082181
0002d0 07 23 c9 3a 6d e7 da 3a c1 ac f8 3a de b5 81 3a
       0.0015345522 0.001670105 0.0018972383 0.000989612
0002e0 a3 17 7a 3a d1 c5 a8 3a 95 f4 e1 3a be 50 c6 3a
       0.00095402653 0.0012876337 0.0017239029 0.0015130264
0002f0 e0 a3 cf 3a 00 00 00 00 00 00 00 00 00 00 00 00
       0.0015841685 0.0 0.0 0.0
000300 00 00 00 00 00 00 00 00 00 00 00 00 00 00 00 00
       0.0 0.0 0.0 0.0
000310 00 00 00 00 00 00 00 00 62 02 47 35 67 85 f8 34
       0.0 0.0 7.4136744e-07 4.6290663e-07
000320 b4 b1 39 35 e2 f6 65 35 7c 5d 0e 35 6d 93 05 35
       6.917646e-07 8.566841e-07 5.303516e-07 4.9760894e-07
000330 6b d4 f8 34 e0 59 ca 34 18 88 07 35 62 b8 04 2b
       4.6348154e-07 3.7690825e-07 5.048946e-07 4.7151703e-13
000340 9a 54 b5 2c 8b 0e df 2c 8f 94 e3 2d 72 ad a3 2d
       5.153722e-12 6.339656e-12 2.5872885e-11 1.860798e-11
000350 b6 7e bc 2b a3 f8 16 28 97 d9 a2 2c ae d4 72 2c
       1.3393373e-12 8.380587e-15 4.6284743e-12 3.450833e-12
000360 42 23 1a 3a 51 88 e3 39 d8 27 2a 3a 71 62 ae 39
       0.00058798876 0.00043398378 0.00064909225 0.0003326121
000370 69 91 89 39 eb 84 ee 39 c0 ab 12 3a 93 e8 07 3a
       0.00026239015 0.0004549393 0.0005595051 0.00051844976
000380 47 58 23 3a 06 b1 5c 3b d3 41 1a 3b 14 01 89 3b
       0.0006231111 0.003367485 0.002353777 0.0041810367
000390 6b bf ac 3a 8c 5b 57 3a 6b d8 22 3b 05 88 57 3b
       0.0013179606 0.00082152407 0.0024848233 0.003288747
0003a0 01 9b 5a 3b e4 aa 67 3b d3 4e 80 3b b7 a7 49 3b
       0.003335655 0.0035349661 0.0039156466 0.0030770132
0003b0 38 53 b4 3b d0 68 60 3a 34 f3 72 39 5a 5f 25 3b
       0.0055030845 0.000856054 0.00023169519 0.0025233836
0003c0 c5 55 8e 3b 7c b6 87 3b c8 05 9f 3b 9a e3 33 38
       0.0043437206 0.004141627 0.004852984 4.2888896e-05
0003d0 8b af e1 37 df a1 13 38 53 a0 2c 38 8c 2e 01 38
       2.6903834e-05 3.5198285e-05 4.115731e-05 3.0799347e-05
0003e0 de 8f 1a 38 98 ff 06 38 14 24 15 38 c2 23 e7 37
       3.6850448e-05 3.218613e-05 3.555797e-05 2.7553997e-05
0003f0 ad 21 a8 33 29 d7 2d 34 57 8e f3 33 d8 1a 02 34
       7.829235e-08 1.6190155e-07 1.1341461e-07 1.2116959e-07

exp_avg f4 [64]
000000 3a 35 16 b0 7c e8 af b0 52 b2 9a af ba 43 d5 2e
       -5.464532e-10 -1.2799002e-09 -2.813914e-10 9.698149e-11
000010 b4 6a b5 b0 c2 19 42 b0 80 a4 01 b0 5c b2 fe af
       -1.319981e-09 -7.0613393e-10 -4.7163695e-10 -4.6329063e-10
000020 cb d6 9e ae 6a 29 a2 b0 8a 1c 13 b0 19 01 0b 2f
       -7.223163e-11 -1.1798822e-09 -5.3518845e-10 1.2642366e-10
000030 c6 8c 32 ae e0 00 3e 2d 9c 71 41 31 bf b7 93 2f
       -4.0597546e-11 1.0800444e-11 2.8149776e-09 2.6869704e-10
000040 59 16 3f af 0c 51 5a 2f a3 3c 69 2f 77 02 18 2f
       -1.7379288e-10 1.9855778e-10 2.1212769e-10 1.3825195e-10
000050 86 79 3a 31 76 85 34 b0 a5 86 33 30 8e 47 4f 2e
       2.713564e-09 -6.567328e-10 6.531116e-10 4.7129904e-11
000060 ce 83 b2 af a3 33 bf ae 16 c5 6b b0 b7 18 13 b1
       -3.2471664e-10 -8.694847e-11 -8.577258e-10 -2.1405364e-09
000070 15 c0 00 31 9f df 9f 30 7e fd 5b 30 09 74 96 30
       1.8735637e-09 1.163233e-09 8.003197e-10 1.0946916e-09
000080 59 44 15 b0 ed 2e 47 2f d2 8b da ae f3 5c be af
       -5.430301e-10 1.8115616e-10 -9.938329e-11 -3.4626843e-10
000090 2a 24 6b b0 cc fa 01 b0 ca 69 51 b0 b3 f8 5a 2e
       -8.5543894e-10 -4.728633e-10 -7.618409e-10 4.978835e-11
0000a0 a3 6b 5a b0 d8 de ac 2f ac 92 36 30 f8 8b 21 2f
       -7.94609e-10 3.1444958e-10 6.641965e-10 1.4692592e-10
0000b0 5f 33 c8 b0 07 df 5d 31 8f fe f9 ae 4f fd ca 30
       -1.4566516e-09 3.228651e-09 -1.1368428e-10 1.4769429e-09
0000c0 19 f7 a9 af 0d eb f1 b0 f4 17 5f b0 b8 c2 8b 30
       -3.0916494e-10 -1.7601863e-09 -8.1160967e-10 1.0168923e-09
0000d0 bd 00 a9 b0 2d f8 86 30 3e e1 13 b0 56 88 37 31
       -1.2296578e-09 9.820319e-10 -5.3798377e-10 2.6707503e-09
0000e0 fd 63 9a 2f da 64 4d 30 9e c1 43 2f b2 66 f4 af
       2.8083483e-10 7.4721884e-10 1.7803933e-10 -4.445631e-10
0000f0 2d 3a b0 30 68 8c 95 b0 92 e5 c8 ae 44 2e 57 b0
       1.282222e-09 -1.0881083e-09 -9.135727e-11 -7.828229e-10

exp_avg_sq f4 [64]
000000 53 74 ef 26 e0 2b aa 27 8e 11 97 26 2c 6b 1b 26
       1.6615486e-15 4.723205e-15 1.0482488e-15 5.3921673e-16
000010 7b f5 eb 27 6a 1a ba 26 e6 d3 aa 27 fa 4b 79 26
       6.5491753e-15 1.2913502e-15 4.741422e-15 8.6492197e-16
000020 82 8c 9c 27 ac 7c de 27 34 e0 c9 26 e3 ef 3d 28
       4.3451037e-15 6.1752547e-15 1.4007947e-15 1.0543625e-14
000030 de 4d 20 27 ad 48 c5 27 01 01 0a 28 7f 77 5f 26
       2.2246672e-15 5.475728e-15 7.6607566e-15 7.7530614e-16
000040 be f9 87 26 21 cb 26 28 0d 99 f8 26 e0 a6 48 27
       9.4352e-16 9.258898e-15 1.7249941e-15 2.7846039e-15
000050 5c 6b a5 27 72 82 d4 26 48 58 14 27 40 1f 3a 28
       4.59131e-15 1.4745812e-15 2.0586983e-15 1.033185e-14
000060 f5 c6 28 27 e3 29 5a 27 eb 8c 09 27 3c c1 95 26
       2.3422538e-15 3.0276284e-15 1.9088961e-15 1.0391328e-15
000070 57 ba d2 27 fd aa 6e 27 67 c6 7b 27 7c b6 4a 27
       5.848874e-15 3.3121828e-15 3.4940802e-15 2.8132056e-15
000080 60 2b ba 26 fc 17 a8 27 26 f3 00 27 22 4a a1 27
       1.29181e-15 4.665537e-15 1.789538e-15 4.476685e-15
000090 b2 8a 6f 27 7e 25 ec 26 ff 31 c0 26 be 8f 37 27
       3.32431e-15 1.6385952e-15 1.3336228e-15 2.5474274e-15
0000a0 c3 8e 01 28 7c 66 4e 27 ad de 17 26 8b ef 0f 26
       7.191895e-15 2.86438e-15 5.269043e-16 4.9937733e-16
0000b0 61 c9 b2 27 a1 b6 5e 27 ec 81 1c 26 05 6f 40 27
       4.962326e-15 3.0907692e-15 5.429945e-16 2.6705536e-15
0000c0 7d ac 2b 27 d3 05 2e 28 0a eb 71 27 13 4b 07 27
       2.3824523e-15 9.660203e-15 3.3572884e-15 1.8775711e-15
0000d0 1b 1d 0c 28 9b 35 8b 26 22 a3 53 28 79 4c 9e 27
       7.777872e-15 9.659592e-16 1.1748227e-14 4.393672e-15
0000e0 08 06 44 27 9f dc 39 27 36 62 84 27 dd 60 b9 26
       2.7203734e-15 2.5793506e-15 3.674384e-15 1.2863209e-15
0000f0 6e 0b cf 26 e3 14 c2 27 99 96 e4 26 fa 97 0a 28
       1.4366608e-15 5.3868462e-15 1.5861498e-15 7.6934935e-15

exp_avg f4 [64]
000000 81 53 1e ba 9e ee 1b bb 08 3c bc b9 79 35 c3 ba
       -0.0006039665 -0.002379335 -0.0003590288 -0.0014893255
000010 b5 77 9e 3a 67 d0 02 bb 2f 9c ae ba eb 47 5f 3a
       0.0012090119 -0.0019960643 -0.0013321693 0.00085174915
000020 b9 b2 ba 39 ee 15 02 ba 1c 5e aa ba 50 34 6e b9
       0.00035609843 -0.0004962374 -0.0012998017 -0.00022716937
000030 ca 8a 78 3a 66 94 91 39 6c 25 5b 3b 01 09 da 3a
       0.00094811304 0.0002776712 0.0033439053 0.0016634763
000040 ea 89 6b b7 96 09 21 3a ee 04 d9 b9 41 cd 00 3a
       -1.4039202e-05 0.0006143091 -0.00041393138 0.0004913398
000050 da a5 96 3a 5b dc d2 ba 0a 6d 98 bb b4 09 81 ba
       0.0011493519 -0.00160874 -0.0046516703 -0.0009844811
000060 72 23 d5 3a c4 36 dc 39 93 d5 6c ba 27 d2 7f bb
       0.0016261174 0.00042002473 -0.00090345106 -0.0039035173
000070 1a 7a 1a bb 0c c2 bf 39 f9 a5 2b bb 6e 19 6b 3a
       -0.0023571313 0.00036574935 -0.0026191457 0.0008968328
000080 78 52 8f b9 61 7b 43 bb eb 9d eb b9 3a 9d 95 b9
       -0.0002733653 -0.0029828178 -0.0004494035 -0.00028536638
000090 60 22 19 3b 7e 1c 72 3b a5 3b ca ba 8c 50 35 3b
       0.0023366436 0.0036943252 -0.0015429152 0.0027666418
0000a0 c6 59 d0 3b 74 76 91 ba c2 bd 06 3a 04 1b 32 bb
       0.006358358 -0.0011097924 0.00051399705 -0.0027176747
0000b0 f9 14 ce 37 74 17 f6 3a e9 0d 14 3b ce 4d bc 3a
       2.456688e-05 0.00187753 0.00225913 0.0014366449
0000c0 5a 21 fa 3a ba 80 83 3a 6d fc 8f ba 19 45 45 3b
       0.0019083426 0.001003287 -0.0010985263 0.0030101
0000d0 2b 8a 05 3a 17 fe 25 bb e2 03 0d bb 6a d2 59 3b
       0.0005094136 -0.0025328451 -0.0021517207 0.0033236989
0000e0 3a 60 f3 ba 40 37 65 b7 b3 53 b1 3a 46 7e ac 3a
       -0.0018568106 -1.3662328e-05 0.0013528973 0.0013160191
0000f0 fa bc b9 3a ba df 59 ba f0 ee 00 39 76 1e 08 3a
       0.0014170699 -0.0008311231 0.00012296042 0.00051925273

exp_avg_sq f4 [64]
000000 39 33 6d 3b f8 b6 80 3b 0a f1 3a 3b 26 50 b2 3b
       0.003619386 0.0039280616 0.0028525018 0.0054416833
000010 c6 d7 0d 3c a7 c1 a9 3b a9 4d 0b 3c f4 d7 0b 3c
       0.008657401 0.005180556 0.008502402 0.008535374
000020 e1 56 58 3b e9 57 ac 3b 38 07 be 3b 8f 6d 44 3b
       0.0033010768 0.005259503 0.0057992004 0.0029972529
000030 c1 51 d5 3b 89 1e 1d 3c 02 b3 90 3b f2 ee 1c 3b
       0.00650999 0.0095898 0.0044158706 0.0023946133
000040 7c 3f ae 3b a7 3d a0 3b b1 3b 86 3b 43 ee d4 3b
       0.0053176265 0.004890162 0.0040964712 0.0064981296
000050 b2 d3 b3 3b 09 eb 37 3c 55 1c a3 3b 1f 38 a6 3b
       0.0054878825 0.01122547 0.0049777427 0.005072608
000060 c3 45 98 3c 52 0a 9f 3b d3 7c 7d 3b b5 3f 6b 3b
       0.018587952 0.004853525 0.0038679137 0.0035896127
000070 14 d9 1e 3b a5 60 11 3b e1 e6 ad 3b 39 fb 8b 3b
       0.0024238275 0.0022182849 0.005307064 0.0042718914
000080 fb f8 e9 3b df 15 9f 3b ec e0 80 3b 0f 24 8f 3b
       0.0071402765 0.004854902 0.003933063 0.004368312
000090 43 3c 4c 3b c8 5d b0 3b ac 18 0a 3c 9a 9f e5 3b
       0.0031163848 0.0053822733 0.008428734 0.0070075514
0000a0 af 3a 95 3b be ec 94 3b 0c 14 b0 3b 1b cd d7 3b
       0.004554115 0.0045448234 0.0053734835 0.00658573
0000b0 e8 4b 9c 3b 5c f6 90 3b 00 cb 08 3c cf 27 06 3c
       0.004769791 0.0044238996 0.00834918 0.008188202
0000c0 6f 42 b0 3b dc 8b c3 3b 87 a3 9a 3b ea 3f c5 3b
       0.0053790133 0.0059676003 0.004719201 0.006019582
0000d0 29 17 2c 3b 0d 2c 12 3c 11 12 a3 3b 6b 5d a6 3b
       0.0026258922 0.008921635 0.004976519 0.0050770543
0000e0 1a aa 92 3b 19 e0 a5 3b 5e ab 59 3b f5 6b ed 3b
       0.004475844 0.005062115 0.0033213715 0.0072455355
0000f0 2a bb 0c 3c 77 b9 80 3b 6d 58 af 3b a0 8c 88 3b
       0.008589545 0.003928359 0.0053511173 0.0041671544

exp_avg f4 [64]
000000 44 4a 98 39 b5 c7 2d bb 73 20 0d bb fb 76 c1 3a
       0.0002904703 -0.002651674 -0.0021534234 0.001476019
000010 86 2a 19 3b 28 20 85 39 6a 3a c7 b9 b5 93 09 3a
       0.0023371293 0.00025391695 -0.0003799976 0.00052481453
000020 be a8 6a b9 5f b6 7a 3a b8 68 b7 3a 12 32 7b 3a
       -0.0002237884 0.00095639186 0.0013993001 0.0009582351
000030 47 a6 42 3b f9 6c 0d 3b 1f 29 14 3b 32 76 22 3b
       0.002970116 0.0021579845 0.0022607518 0.0024789688
000040 ac 62 cc b9 51 10 6d 3a 50 3f a5 ba 7f 49 af b7
       -0.00038983428 0.0009043264 -0.001260737 -2.089585e-05
000050 02 76 cb 3a f5 41 47 ba 5c ce fe ba bd f5 1b bb
       0.001552284 -0.0007601076 -0.0019440162 -0.0023797594
000060 7d 6a c3 3a c0 0d c6 3a fa 8e 03 ba 45 0c 3b bb
       0.0014909055 0.0015110299 -0.00050185586 -0.0028541249
000070 f3 46 c9 ba 06 b6 05 39 f6 13 f7 ba d7 e6 13 3b
       -0.0015356228 0.00012751677 -0.0018850553 0.0022568011
000080 0e 28 5a ba 11 2b 5d bb 34 da a7 39 36 e9 84 b9
       -0.00083220087 -0.0033747593 0.00032015296 -0.00025350758
000090 c5 ad dc 3a 41 7f 63 3b 25 73 43 ba da fc 81 3b
       0.0016836455 0.00347133 -0.00074558175 0.00396691
0000a0 fd 8d 9e 3b 8d 99 97 ba e9 50 fe b5 e3 ab 01 bb
       0.0048387037 -0.0011566147 -1.8948023e-06 -0.001978629
0000b0 50 30 50 bb de 35 24 3a eb eb b2 3a 69 ae 03 3a
       -0.0031767078 0.00062641304 0.0013650631 0.00050232426
0000c0 f3 e2 b0 39 8c ae 09 3b 8f de 11 bb 50 db 01 3b
       0.00033738426 0.002100858 -0.00222579 0.0019814558
0000d0 44 db 9f 3a ab 4b 44 bb ea e8 0b bb 61 f6 34 3b
       0.0012196084 -0.0029952328 -0.0021348544 0.0027612674
0000e0 e9 29 56 ba 6e d9 99 b8 14 f9 76 3a 8d 5c ee 3a
       -0.0008169697 -7.336108e-05 0.0009421271 0.0018185541
0000f0 ec e3 a9 3b 65 a0 a2 b9 b4 89 e3 b8 c1 61 ad 3a
       0.005184641 -0.0003101855 -0.00010849853 0.0013227985

exp_avg_sq f4 [64]
000000 d7 91 a8 3b 34 b2 c2 3b 94 d5 b4 3b b0 56 77 3b
       0.0051443386 0.0059416536 0.0055186246 0.0037740879
000010 cb ba 47 3c 02 96 8a 3b e7 6f 1e 3c 13 10 33 3c
       0.012190531 0.004229308 0.009670234 0.010929125
000020 0b 41 97 3b 84 7a b4 3b 7b c2 0b 3c a5 88 7f 3b
       0.004615908 0.005507769 0.0085302545 0.0038991359
000030 c2 7d e4 3b 7c ab 4e 3c 06 57 b5 3b 57 bc 0a 3b
       0.0069729993 0.012614127 0.0055340556 0.0021169388
000040 eb 7a 9f 3b d1 e8 a7 3b 52 f9 93 3b 6f 21 e0 3b
       0.004866948 0.0051241894 0.0045158053 0.006839923
000050 b3 55 bc 3b f4 7b bf 3c f0 c0 d3 3b d2 db 02 3c
       0.005747521 0.023374535 0.006462209 0.00798698
000060 cf 05 a1 3c 05 81 b9 3b e2 7c cd 3b 6b 08 9d 3b
       0.01965609 0.0056611323 0.0062709907 0.0047922633
000070 22 af 23 3b 9a f5 3c 3b 62 91 da 3b b8 04 98 3b
       0.0024976213 0.0028832913 0.006670163 0.0046392344
000080 27 75 22 3c 43 18 ba 3b b7 52 ae 3b 93 31 cb 3b
       0.009915627 0.0056791618 0.005319919 0.006200978
000090 97 0f 4d 3b 82 ff 92 3b df 09 4f 3c fb 5c 0c 3c
       0.003128981 0.0044860253 0.012636631 0.00856709
0000a0 db 70 da 3b 81 41 cd 3b a0 b3 f7 3b 4f f9 14 3c
       0.0066662855 0.006263912 0.0075592548 0.009092643
0000b0 be 92 25 3c 14 0f bc 3b 3d 12 f8 3b 0a 63 3c 3c
       0.010105787 0.005739102 0.0075705335 0.011498222
0000c0 1b 93 bf 3b b5 d1 0f 3c 05 81 1d 3c 2a 7d f5 3b
       0.0058463938 0.008778025 0.00961328 0.0074917274
0000d0 21 fd fc 3a b1 b6 23 3c 76 bd c6 3b f0 c7 a5 3b
       0.0019301513 0.0099922875 0.006065066 0.005059235
0000e0 61 ec 97 3b b4 c3 ca 3b d5 8d 2a 3b cc 70 c9 3b
       0.004636333 0.0061878804 0.002602448 0.0061474796
0000f0 49 c0 34 3c 00 0d 99 3b 8a fa bb 3b 50 42 da 3b
       0.0110321725 0.004670739 0.0057366537 0.006660737
